F16_AeroData/model_20240420/Clp.pth (torch, 3775 bytes, 5 tensors)

layers.0.weight f4 [20, 1]
000000 7a cd 7b bf c7 14 c7 be 79 cd 1c c0 db 54 4d 3f
       -0.9836041 -0.3888304 -2.450041 0.80207604
000010 04 c1 18 3d 06 55 5b 3f cd 15 a1 bc 27 22 7f 3f
       0.03729345 0.8567661 -0.019663716 0.9966149
000020 19 e2 4b bc e7 19 d1 be 2c 86 3c bd 8d e6 a3 3c
       -0.012444043 -0.40840074 -0.046026394 0.020007396
000030 f6 83 a5 bf c2 58 71 be 3e d0 cb be a9 f6 84 3f
       -1.2930896 -0.23569015 -0.39807314 1.0387775
000040 f0 bd 29 bc 51 f5 4c 3f f8 5f 11 40 58 20 8b bf
       -0.010360226 0.80061823 2.2714825 -1.0869246

layers.0.bias f4 [20]
000000 4c df 93 be 90 ba 96 be df a3 43 3f a5 a8 80 be
       -0.288813 -0.2943921 0.7642192 -0.25128666
000010 0f 33 b5 bd f5 52 d0 be b4 3f c6 bd 61 db 9f be
       -0.08847629 -0.4068829 -0.09680119 -0.3122206
000020 5a f9 09 3e 62 f8 a4 be 8d 3a a3 bd fb ef 2b bd
       0.13474026 -0.3222075 -0.07970152 -0.04197691
000030 14 3f 20 3f 30 6b 34 b9 6c 78 8c be dc 9c a6 be
       0.6259625 -0.00017206068 -0.27435625 -0.3254155
000040 f9 1b 13 3e 48 42 fc be 03 cc bb 3e 20 38 38 3e
       0.1436614 -0.4926932 0.36679086 0.1799016

layers.2.weight f4 [10, 20]
000000 11 d0 52 3c c7 c6 86 bc f2 b0 38 bf 86 b1 01 be
       0.01286699 -0.016452206 -0.72145 -0.12665376
000010 75 79 8f bc 9d e9 0a 3e 2f 43 3f bc 52 b0 14 be
       -0.01751397 0.13565679 -0.011673733 -0.14520386
000020 21 ea b7 3c ca 7a bb bc ad d4 2d 3b 9e da bc 3a
       0.022450509 -0.022885699 0.002652447 0.0014408415
000030 df 84 a3 3e a1 a1 a7 3c 79 58 c3 3a cb 76 33 be
       0.3193731 0.020462813 0.0014903686 -0.17525785
000040 52 51 7a 3d 03 62 05 3e 8c 7c cd 3e ab 9c a0 be
       0.06111271 0.1302567 0.40134084 -0.31369528
000050 f8 03 a3 bb 9c a0 ad 3c e8 85 58 3c aa 43 52 3c
       -0.0049748383 0.021194749 0.0132155195 0.012833515
000060 f7 2b 91 bb 71 4e 70 3c dc c8 b2 3c a4 87 1d 3c
       -0.00443029 0.014667139 0.021824293 0.009614859
000070 4f e3 74 bc 20 56 78 bc 7d bd 2f 3c 67 f7 b7 bb
       -0.014946773 -0.015157253 0.01072633 -0.0056142095
000080 8c d6 81 bc 50 6b 50 3c 96 05 55 bc 9a de 99 bc
       -0.015849374 0.012720898 -0.01300182 -0.018782903
000090 bb 0e 77 3c b9 bf 18 bc 25 8a 2f 3a 65 f8 18 bc
       0.015079196 -0.009323054 0.00066963054 -0.009336566
0000a0 68 85 b8 3c b4 ab 87 bc 77 ce 89 3c 69 1d b6 bc
       0.02252455 -0.016561367 0.016822083 -0.02223082
0000b0 80 3e a2 3a 21 cd b4 bc bc 7f 8c bc 7f a6 20 bc
       0.0012378246 -0.02207047 -0.017150752 -0.009805321
0000c0 5c 0d 9d bc 55 d6 e8 bc c4 31 be 3b 06 dd d0 3b
       -0.01917141 -0.028422514 0.0058042724 0.0063740043
0000d0 8a b5 da 3c e8 31 e8 3c 64 d7 d1 3b 64 25 40 bc
       0.026697893 0.02834411 0.0064038504 -0.011727665
0000e0 56 65 a5 bc c3 6a c7 3b e2 ee d5 bc 0a e7 d9 3c
       -0.020189922 0.006085725 -0.026114885 0.026599426
0000f0 66 ac a4 bc 67 38 d1 bb 34 ed 90 3b 7d 14 eb 3c
       -0.020101737 -0.0063848975 0.004422808 0.028696293
000100 ab 1f 8f bc a4 d9 71 bd 43 2d 88 3c b2 de 34 3d
       -0.017471155 -0.05904545 0.016623145 0.04415769
000110 b7 f3 a2 bc ed 64 83 3b a6 53 4e bc bf db 8c bc
       -0.019891603 0.004009834 -0.0125931855 -0.017194627
000120 f1 4d 81 be ab 9e 23 bc ab 2e 78 bb 31 16 7c 3d
       -0.25254777 -0.00998656 -0.0037869613 0.0615446
000130 73 96 fe bc 61 74 10 bd 2b 65 ad 3d 3a 3c c5 bb
       -0.0310776 -0.035267238 0.08466562 -0.0060191425
000140 a8 69 32 3f 4b fa c4 be 94 93 11 3f f1 12 3f 3e
       0.6969247 -0.38472208 0.5686581 0.1865957
000150 0b de 62 3c f8 b9 eb be b5 dd a9 3b ba 0e 75 3e
       0.0138468845 -0.4604032 0.0051839002 0.23931399
000160 92 af 5b 3d 2f 77 ca be dd 09 12 bc d8 71 4d bc
       0.053634234 -0.39544055 -0.008913484 -0.0125393495
000170 bb 54 66 bf e5 2c 45 be 24 74 bc be 88 72 77 3e
       -0.8997304 -0.19255407 -0.36807358 0.24164784
000180 dc ec 7c 3d 0a 58 f1 be a1 7f 16 40 e9 e3 24 3e
       0.061749324 -0.4713748 2.3515399 0.16102566
000190 5c 68 4a 3c c5 db ab 3b b1 a4 b4 bb 30 67 12 3c
       0.012353983 0.0052447044 -0.005512797 0.008935735
0001a0 84 88 2e 3b 16 3f 14 3b 9c a9 9d 3c 4a 8a f0 3c
       0.0026631663 0.002262061 0.019245915 0.029362816
0001b0 d5 72 54 bc b7 ba 8f bc 8b 19 87 3c 31 52 36 3c
       -0.012966831 -0.017545087 0.016491672 0.011127994
0001c0 61 32 96 bc 10 4c 0a bc d4 db 1d 3b 99 6d 9d bb
       -0.01833457 -0.008440986 0.0024087327 -0.004804325
0001d0 dc f1 1c ba 95 70 89 bc 84 3b 02 bc a1 1a 41 bc
       -0.00059869676 -0.016777316 -0.00794876 -0.011786134
0001e0 33 1f 9f bc 57 1b b7 3c a0 bb c4 3b 25 db c8 3d
       -0.019424057 0.022351904 0.006003812 0.098074235
0001f0 d6 8a f2 bb c3 fb 24 3d ef 0d 3b bb ae 22 b4 3d
       -0.0074018044 0.04027916 -0.002854224 0.08795677
000200 e8 28 25 bd ac 4b 8a 3b 41 ce 96 bc 8b e3 a6 3c
       -0.040322214 0.0042204466 -0.018408896 0.020372173
000210 14 b8 01 3b 84 28 ba bc 45 e6 85 bc 54 f8 fb 3d
       0.0019793557 -0.022724397 -0.016345153 0.12303224
000220 f7 ca 1f bd 0a e4 70 3d 25 80 13 3d 0a 52 98 bc
       -0.03901192 0.058811225 0.03601088 -0.018593807
000230 80 19 1f bb ba fe b1 3a e9 5c 2b c0 68 16 f8 be
       -0.0024276674 0.0013579943 -2.6775458 -0.48454595
000240 b5 5f 66 bc 2f ac f9 3e ed c3 8a 3c 01 79 19 bf
       -0.014060904 0.48764178 0.016939128 -0.5995026
000250 24 dc 04 3e b3 66 19 3b e5 2d 9d bc 4c 4e cf bb
       0.12974602 0.002340716 -0.019186923 -0.0063264724
000260 c3 c5 98 3f 5d 76 a7 3c f4 f0 09 3c 43 50 1f bf
       1.1935352 0.020442182 0.008419264 -0.62231845
000270 45 49 04 3e b4 31 0a 3f 3d 08 bf 3f da 9e 8f bf
       0.12918575 0.5398209 1.4924389 -1.1220353
000280 b7 04 14 bf ea 54 4f 3e 59 39 01 3f 6f 72 3b 3f
       -0.57819694 0.20247236 0.5047813 0.73221487
000290 5b da bc 3c 20 94 ae 3e c8 49 e2 3b a2 b4 69 3f
       0.023053339 0.34097385 0.006905768 0.9129125
0002a0 5b 9a 99 bd 38 13 71 3e 0d 4f 2c bc 3e c7 43 3c
       -0.07500144 0.23542488 -0.010516894 0.0119493585
0002b0 f7 43 d3 bd dd a7 b6 3d 07 6f 65 3e e1 66 73 3f
       -0.10315698 0.08918736 0.22405635 0.95078856
0002c0 94 c4 97 bd 6d 43 76 3e 40 ed ce be aa 99 a2 3e
       -0.07410541 0.24049158 -0.40415382 0.3175786
0002d0 5b 30 bf 3c e7 06 09 3c c4 82 85 bc 89 b9 82 bc
       0.023338487 0.008363462 -0.016297705 -0.01595761
0002e0 9f cc b0 bc 6a 45 87 bc 49 8c 2c bc 32 c2 bd 3c
       -0.021581946 -0.016512591 -0.010531493 0.023163889
0002f0 e6 9e c4 bb a8 27 4f 3b 44 ab 5b bc 94 45 9a bb
       -0.0060003875 0.003160933 -0.013407532 -0.0047080014
000300 af 9a 83 3b 1b 11 c0 bc 83 27 d2 3b ba f7 a2 bc
       0.0040162425 -0.023445657 0.0064134016 -0.019893516
000310 96 b0 3b 3b 55 06 ac 3c 11 ad 20 bc 9a 8f 16 bc
       0.002863919 0.020999113 -0.009806887 -0.009189511

layers.2.bias f4 [10]
000000 88 f8 7a 3e 02 2f 98 bc f2 2b 3c bd f3 24 ef bc
       0.2450887 -0.018577103 -0.045940347 -0.029192423
000010 1b f8 90 3e 85 fa 07 3c e0 5d b5 bd c1 4e 67 3f
       0.2831429 0.008299475 -0.08855796 0.90354544
000020 f4 4a 4b be 0a 16 d3 bb
       -0.19852811 -0.0064418362

layers.4.weight f4 [1, 10]
000000 d8 86 6f 3f 3c b7 27 3c d5 ff 7d bd a4 35 82 be
       0.9356513 0.010236558 -0.06201156 -0.2543155
000010 36 30 1b c0 48 b1 d3 3b 9b 1c 48 3e 3f 3d 5e 40
       -2.4248176 0.0064603426 0.19542162 3.4724882
000020 11 7e bb 3f d7 03 3d 3c
       1.4647847 0.01153656
