F16_AeroData/model_20240420/Cm.pth (torch, 3951 bytes, 5 tensors)

layers.0.weight f4 [20, 3]
-0.09430293 0.24072418 -0.31005922 -0.4439346 -0.2460634 -0.28633058 -0.34853593 0.014967814
0.037791405 -0.17379345 -0.37741953 0.01686618 0.3878168 0.32483125 -0.008659697 -0.23580591
0.103407644 0.0738098 -0.1013824 -0.45578718 0.034824196 0.88127273 -0.009203622 -0.01640841
0.59676427 0.021691877 0.002144687 0.5589402 -0.212538 0.20913325 -0.3066509 0.007239735
0.39316276 -0.09776688 0.3839717 0.010258518 -0.09574223 0.49029762 0.04112646 0.2483068
-0.020915555 0.19836345 -0.07891019 0.0074177315 0.31591767 0.41670132 0.025257777 0.32518387
0.28512874 -0.47346485 -0.028434113 -0.6287801 -0.12092573 -0.005819261 -0.41379002 0.25851896
-0.07103304 -0.3060488 0.124092 0.001135982
00000000: e521 c1bd 6680 763e 15c0 9ebe 654b e3be
00000010: 0bf8 7bbe ec99 92be 4d73 b2be 903b 753c
00000020: 29cb 1a3d e9f6 31be 223d c1be f12a 8a3c
00000030: ec8f c63e 4850 a63e 67e1 0dbc 1b77 71be
00000040: 63c7 d33d 9829 973d 93a1 cfbd f05c e9be
00000050: d1a3 0e3d 179b 613f caca 16bc ee6a 86bc
00000060: 8bc5 183f 2ab3 b13c e18d 0c3b b416 0f3f
00000070: 90a3 59be 0727 563e 5901 9dbe 4d3b ed3b
00000080: a14c c93e 013a c8bd f097 c43e 5813 283c
00000090: 8114 c4bd 4a08 fb3e 3874 283d 2344 7e3e
000000a0: 1957 abbc ca1f 4b3e aa9b a1bd 7110 f33b
000000b0: f6bf a13e e059 d53e 66e9 ce3c 807e a63e
000000c0: 65fc 913e fc69 f2be a8ee e8bc bcf7 20bf
000000d0: e9a7 f7bd 80af bebb 49dc d3be 995c 843e
000000e0: c579 91bd 6eb2 9cbe f223 fe3d 3be5 943a

layers.0.bias f4 [20]
-0.024825204 0.0660669 0.41483605 0.101416536 0.07020957 0.3038554 -0.3530387 -0.6048236
0.73809934 -0.045371894 0.45857346 0.15680823 -0.32978493 0.38607156 -0.21677263 -0.079921104
-0.16292301 0.5255706 0.23583391 -0.4597602
00000000: 3a5e cbbc 154e 873d 6465 d43e 79b3 cf3d
00000010: 09ca 8f3d ef92 9b3e 7dc1 b4be b8d5 1abf
00000020: 14f4 3c3f e1d7 39bd 24ca ea3e 5692 203e
00000030: 92d9 a8be 2cab c53e a5f9 5dbe adad a3bd
00000040: 4ad5 26be cb8b 063f 727e 713e b065 ebbe

layers.2.weight f4 [10, 20]
-0.013971873 -0.17074378 -0.00440253 0.06465828 0.12525779 -0.00029596052 -0.25014377 0.21001607
-0.01994066 -0.11600659 0.22648661 0.07694542 -0.21311183 0.206721 -0.09217314 0.10262697
0.006523332 -0.049195867 -0.21990775 -0.14208293 -0.066770114 0.17594685 -0.0021485796 0.087076254
0.30065987 0.102984294 0.22861704 -0.25211188 0.14807281 0.13279007 0.22577767 0.08847676
0.2922403 -0.13257028 0.04292096 0.24801466 -0.06747633 -0.08015165 -0.036701225 0.21465503
7.3572056e-07 2.8964248e-05 -2.224826e-07 1.0422991e-05 -8.94018e-07 -5.2935455e-05 -5.3694577e-05 2.5118688e-05
-3.7046317e-05 3.7854124e-07 -4.5317272e-05 4.6643556e-05 -1.559501e-05 -1.8333678e-05 -2.8633206e-06 -5.12952e-05
-4.2206208e-05 -5.283109e-05 -1.5764554e-06 3.699684e-05 -0.26711679 -0.10483294 -0.34619465 0.09216967
0.18485422 -0.24260134 0.057937127 0.32416028 0.07937827 0.2560522 -0.17858733 0.0965391
0.25232276 0.087260656 0.14702113 0.35645124 0.11136456 -0.51127386 0.0013466985 -4.4008964e-05
-0.08117549 0.2154745 0.06332 -0.08361765 -0.27267945 0.010341127 0.22972068 -0.18558447
0.2764856 0.3293584 -0.037756313 -0.24604048 -0.095861696 -0.16334012 -0.023260985 -0.04285537
0.07931078 0.24109784 0.11073553 0.18389224 0.23953511 0.31591907 0.008891414 -0.27259788
-0.15841034 -0.053394094 0.2614931 -0.72378266 0.5060862 0.3991581 -0.19324696 -0.18933626
0.019914823 -0.32217914 0.22279084 0.0024380086 -0.4413762 0.18610178 0.3049848 0.35907727
0.14016543 0.2263324 0.08515024 -0.02496939 0.058239356 0.077674724 -0.18393682 6.0522027e-05
-0.6697396 -0.1740802 0.22873396 0.096779086 -0.32156706 0.059649155 0.18285406 0.12646855
-0.052810755 0.10666537 0.1182507 -0.2297123 -0.026803555 0.04138801 -0.3478366 0.25586647
0.10232238 -0.254848 -0.14195639 0.2760393 0.15996279 0.08585407 -0.3933314 0.21127942
0.03947372 -0.0840668 0.10730887 0.1344121 0.31385648 -0.46899208 0.10788732 1.7924744e-05
0.055392273 0.23160735 0.072146565 -0.09762312 -0.027686628 0.019273724 0.15601729 -0.39444083
0.26862347 0.057398494 -0.10416688 -0.04653531 0.20337485 -0.17191471 0.13987742 -0.13006137
-0.0668307 0.14366814 0.31495783 0.18093236 0.01673474 0.11638792 -0.19967353 0.040254742
0.088045046 -0.14419724 -0.10284298 0.22270091 0.14539963 0.05776242 -0.28385833 0.06209595
-0.08029984 -0.06768099 0.075204894 0.1900313 0.038398482 -0.27553293 0.12765588 -4.2584812e-05
00000000: 48ea 64bc 75d7 2ebe 1943 90bb 8f6b 843d
00000010: 9443 003e 262b 9bb9 d812 80be 740e 573e
00000020: 985a a3bc dd94 edbd 1bec 673e 8f95 9d3d
00000030: fd39 5abe abae 533e 45c5 bcbd 172e d23d
00000040: adc1 d53b 9b81 49bd 7f2f 61be 307e 11be
00000050: c5be 88bd 692b 343e 2fcf 0cbb 0955 b23d
00000060: 17f0 993e 6ee9 d23d 961a 6a3e cf14 81be
00000070: 66a0 173e 1ffa 073e 4332 673e 4e33 b53d
00000080: 85a0 953e 81c0 07be e3cd 2f3d 8ef7 7d3e
00000090: 0831 8abd 8c26 a4bd 0654 16bd 87ce 5b3e
000000a0: 557e 4535 40f8 f237 8de3 6eb4 68de 2e37
000000b0: 73fc 6fb5 0307 5eb8 1d36 61b8 f9b5 d237
000000c0: 2e62 1bb8 503a cb34 0d13 3eb8 23a3 4338
000000d0: 07d2 82b7 46cb 99b7 7927 40b6 cd25 57b8
000000e0: 9206 31b8 f396 5db8 9896 d3b5 0e2d 1b38
000000f0: 88c3 88be a7b2 d6bd 6d40 b1be 74c3 bc3d
00000100: 6d4a 3d3e 7c6c 78be 7b4f 6d3d 56f8 a53e
00000110: 1391 a23d 4619 833e 99df 36be 4bb6 c53d
00000120: 7330 813e b7b5 b23d b58c 163e c780 b63e
00000130: 1a13 e43d d8e2 02bf b483 b03a 4496 38b8
00000140: 563f a6bd 59a5 5c3e ebad 813d bb3f abbd
00000150: a49c 8bbe d56d 293c e63b 6b3e db09 3ebe
00000160: 858f 8d3e aaa1 a83e 5da6 1abd 09f2 7bbe
00000170: 2353 c4bd a242 27be d28d bebc 1d89 2fbd
00000180: b16d a23d 5ae2 763e 4fc9 e23d 3f4e 3c3e
00000190: b148 753e 25c0 a13e 4bad 113c f391 8bbe
000001a0: 5236 22be c4b3 5abd 6ce2 853e d249 39bf
000001b0: dd8e 013f 735e cc3e 88e2 45be 5de1 41be
000001c0: 6924 a33c aaf4 a4be 4823 643e ffc6 1f3b
000001d0: 10fc e1be 7791 3e3e f826 9c3e fad8 b73e
000001e0: 8787 0f3e aec3 673e 4063 ae3d 9b8c ccbc
000001f0: 648c 6e3d ed13 9f3d ef59 3cbe 08d9 7d38
00000200: 0e74 2bbf 1442 32be 3c39 6a3e 1d34 c63d
00000210: 70a4 a4be ac52 743d 183e 3b3e f980 013e
00000220: 1750 58bd 6073 da3d 6c2d f23d b339 6bbe
00000230: 2193 dbbc 7986 293d a417 b2be ee00 833e
00000240: 658e d13d 707b 82be 045d 11be 0655 8d3e
00000250: 49cd 233e 42d4 af3d bc62 c9be a259 583e
00000260: 32af 213d 372b acbd c1c4 db3d 53a3 093e
00000270: ccb1 a03e bb1f f0be 07f4 dc3d 185d 9637
00000280: 02e3 623d 7a2a 6d3e 94c1 933d a1ee c7bd
00000290: 11cf e2bc eee3 9d3c ffc2 1f3e 26f4 c9be
000002a0: 0489 893e af1a 6b3d 7255 d5bd cf9b 3ebd
000002b0: 7f41 503e 690a 30be 073c 0f3e cf2e 05be
000002c0: 89de 88bd be1d 133e 2742 a13e 5546 393e
000002d0: 4b17 893c ca5c ee3d 3877 4cbe 28e2 243d
000002e0: f650 b43d 71a8 13be 579f d2bd b50b 643e
000002f0: a4e3 143e 4a98 6c3d e155 91be 5358 7e3d
00000300: 3e74 a4bd 559c 8abd 0605 9a3d 9197 423e
00000310: ba47 1d3d a712 8dbe 39b8 023e 189d 32b8

layers.2.bias f4 [10]
0.2979045 -0.36117536 8.50479e-07 -0.18729849 -0.007759338 -0.08761268 -0.1398325 -0.11079941
0.09807426 0.0029421647
00000000: f086 983e faeb b8be 794c 6435 2dcb 3fbe
00000010: 0b42 febb 476e b3bd 4030 0fbe cdea e2bd
00000020: 28db c83d 55d1 403b

layers.4.weight f4 [1, 10]
-0.68311536 0.82869965 2.4404293e-05 -1.0108244 0.76680213 1.3620741 -0.94766307 -0.97382045
0.76272875 -0.6196694
00000000: a6e0 2ebf a925 543f d2b7 cc37 b262 81bf
00000010: 254d 443f 7258 ae3f 0c9a 72bf 4c4c 79bf
00000020: 3142 433f a7a2 1ebf
