F16_AeroData/model_20240420/delta_Clp_lef.pth (torch, 3919 bytes, 5 tensors)

layers.0.weight f4 [20, 1]
0	0x3f68bec2	0.90916073
1	0x3c8c9216	0.017159503
2	0x3df17c2e	0.117912635
3	0xbc697fa3	-0.014251622
4	0x3f20a116	0.627458
5	0xbf078ea0	-0.52952003
6	0x3f5e0d27	0.8673882
7	0xbe060084	-0.13086134
8	0xbf93aa23	-1.1536297
9	0xbf0c4596	-0.5479368
10	0xbf285596	-0.65755594
11	0x3fbba449	1.4659511
12	0xbdfdefcf	-0.123992555
13	0xbd9fd2e5	-0.07803897
14	0x3fada596	1.3566158
15	0xbe469aeb	-0.19395034
16	0x3c10227a	0.008797282
17	0xbd9ae766	-0.07563667
18	0x3fe5c9d6	1.795222
19	0x3c55b543	0.013043704

layers.0.bias f4 [20]
0	0x3f58f686	0.84751165
1	0xbdcd8a24	-0.10036114
2	0x3e702831	0.23452832
3	0xbdad0047	-0.084473185
4	0xbf156e70	-0.5837164
5	0xbefc237f	-0.4924583
6	0xbf852d0d	-1.0404373
7	0x3e45db80	0.19322014
8	0xbee089c2	-0.438551
9	0xbf02759c	-0.5096071
10	0x3f78858b	0.9707877
11	0xbe4892a0	-0.19587183
12	0x3f06c7d4	0.52648664
13	0x3e66a50f	0.22523902
14	0xbf995c23	-1.1981243
15	0xbdf959c6	-0.12175326
16	0xbc91fffa	-0.017822254
17	0xbd45e75d	-0.04831635
18	0xbfc8dda6	-1.5692642
19	0xbdc38d58	-0.095484436

layers.2.weight f4 [10, 20]
0	0xbc8f6e3c	-0.017508619
1	0xb836b541	-4.3560987e-05
2	0xbc19fdc2	-0.0093988795
3	0x3a00ff47	0.0004920852
4	0x3bf4d9e7	0.007472265
5	0xbc976960	-0.018482864
6	0xbba5f6ad	-0.0050648064
7	0x3c2ece2b	0.010669271
8	0xba869a66	-0.0010269403
9	0x3b3e0bd0	0.002899874
10	0xbc70f6e5	-0.014707302
11	0x3c13f31f	0.009030133
12	0xbb2397b2	-0.0024962244
13	0x3c90cbd5	0.01767532
14	0x3c672397	0.014107606
15	0x3c8ecb15	0.017430821
16	0xbc096425	-0.008385693
17	0xbb40c856	-0.0029416285
18	0xbc187a7a	-0.009306544
19	0x3c9e1413	0.019296682
20	0xbcb55794	-0.022136487
21	0x3c961e25	0.01832492
22	0xbc912a55	-0.01772038
23	0xbb3114cd	-0.0027020455
24	0x3c61180c	0.013738643
25	0xbcbd5df3	-0.023116088
26	0xbc15708f	-0.009121074
27	0xb9c338c8	-0.00037235604
28	0x3c324980	0.010881782
29	0xbc0f0e94	-0.008731503
30	0xbb76b4d5	-0.0037644405
31	0xbbc82466	-0.0061078547
32	0xbb309bac	-0.0026948256
33	0x3c83c688	0.016085878
34	0xbc5624a1	-0.013070256
35	0xbca61ee5	-0.020278404
36	0xbbc5cca9	-0.0060363603
37	0xbcbcda5e	-0.023053344
38	0x3c97e2b2	0.018540714
39	0xbbfd559c	-0.0077311527
40	0xbf461ef9	-0.7739101
41	0x3cb6915c	0.02228611
42	0x3cf7d174	0.030251242
43	0xbca1b2ed	-0.019738639
44	0x3ebe4895	0.3716475
45	0xbf2178d7	-0.6307501
46	0xbf2507a3	-0.6446478
47	0xbb61e212	-0.0034467024
48	0x3f123e9c	0.57126784
49	0xbf24aeb0	-0.6432905
50	0x3ca50e47	0.02014841
51	0x3f775786	0.96617925
52	0xbd399281	-0.045305733
53	0xbd30df48	-0.043181688
54	0x3f561c46	0.8363689
55	0x3e456cdc	0.19279808
56	0xbcb2b72e	-0.021815863
57	0x3da2f7c5	0.079574145
58	0x3f8eee57	1.1166486
59	0xbbc076b4	-0.0058735255
60	0xbcdfafaa	-0.027305443
61	0x3cc50688	0.024050966
62	0x3c84d9c6	0.016217124
63	0xbb2e2461	-0.0026571976
64	0x3c85e376	0.016343813
65	0xbb07469b	-0.002064145
66	0xbbe54c20	-0.0069976
67	0xbc47f980	-0.0122054815
68	0x3cac3d6d	0.021025384
69	0x3ca50dfb	0.020148268
70	0xbcf96f04	-0.030448444
71	0xbc9852ac	-0.018594109
72	0x3c4cfb49	0.012511083
73	0xbbb5d279	-0.005548772
74	0x3c8df308	0.0173278
75	0xbaa8eaf6	-0.0012887407
76	0xbc4e4846	-0.0125904735
77	0xbca26ca3	-0.019827193
78	0x3aa069f1	0.0012238604
79	0x3c8e6b0f	0.017385034
80	0x3efda513	0.49540004
81	0xba38bdc8	-0.00070473226
82	0x3de83314	0.113378674
83	0x3bf9b534	0.007620478
84	0x3eee52f7	0.46547672
85	0x3c2ca67b	0.010537739
86	0xbf43df57	-0.76512665
87	0xbab739ef	-0.0013979058
88	0xbf867856	-1.0505474
89	0x3c03217d	0.00800359
90	0x3cf7b2e3	0.030236667
91	0xbf8826bb	-1.063682
92	0x3cecb6ba	0.028895725
93	0x3b4a0e35	0.0030831222
94	0x3f7cecb6	0.9879869
95	0x3ba8cf5a	0.0051516714
96	0xbc7e3120	-0.015514642
97	0x3ba78e42	0.005113394
98	0x3fa5a7b2	1.2941802
99	0x3ca0da4a	0.019635338
100	0xbe1ed3c9	-0.15510477
101	0xbca62615	-0.02028183
102	0xbdb1eae6	-0.086873814
103	0xbcbaccfc	-0.022802822
104	0x3c3d3158	0.011547409
105	0x3ddfcc5d	0.10927651
106	0xbc9cfa6d	-0.019162381
107	0x3d2825c1	0.04105163
108	0x3e07d7db	0.13265936
109	0x3e1ce743	0.15322594
110	0x3e94018d	0.28907433
111	0xbe3ca05f	-0.18420552
112	0x3d8d2e77	0.06893628
113	0x3cc1ca74	0.023656107
114	0xba5aedeb	-0.00083514926
115	0xbd04ff22	-0.032469876
116	0x3c843cc8	0.016142264
117	0xbc4b3be2	-0.012404414
118	0xbc8ec085	-0.017425785
119	0xbc301396	-0.010746857
120	0xbe369991	-0.17832018
121	0xbc812f05	-0.015769491
122	0xbd8c1667	-0.068402104
123	0x3c8696aa	0.016429264
124	0x3e84257b	0.25809845
125	0xbb31dbf6	-0.0027139164
126	0x3eb2d0e0	0.34924984
127	0xbd941e33	-0.072323225
128	0x3c5e308e	0.013561381
129	0xbb9aff55	-0.004730145
130	0xbee3a84f	-0.44464347
131	0x3e21b7a6	0.15792713
132	0xbe641cab	-0.22276561
133	0xbdc4e105	-0.096132316
134	0x3ef4d70c	0.47820318
135	0xbc602a7c	-0.013682004
136	0xbc8c627c	-0.017136805
137	0x3bf4c6eb	0.007470002
138	0x3f2871bb	0.6579854
139	0x3ca221e5	0.019791553
140	0xbc903e1a	-0.017607737
141	0x3b96e4a2	0.004604892
142	0xbcc64804	-0.024204262
143	0xbc6b5f4c	-0.014365982
144	0xbbd4e521	-0.006497041
145	0x3ca71e86	0.020400297
146	0xbc63f91f	-0.013914376
147	0xbc41a11f	-0.011818199
148	0xbbecde2b	-0.007228633
149	0xbcc1f6fb	-0.02367734
150	0xb9916101	-0.0002772883
151	0xbc96346f	-0.01833555
152	0x3c49b49f	0.01231113
153	0x3c3bbb8a	0.011458287
154	0x3c1e765c	0.009671774
155	0x3c87b8f0	0.016567677
156	0xbc517721	-0.01278475
157	0x3b9a20c3	0.0047036125
158	0xbc857c68	-0.016294673
159	0x3cba2c15	0.022726098
160	0xbed12af7	-0.40853092
161	0x3c952077	0.018203957
162	0xbe44dd7f	-0.19225119
163	0xbc8f7aeb	-0.017514667
164	0x3f0ea7f4	0.55725026
165	0x3bca354f	0.0061709057
166	0x3f4d3a44	0.8016703
167	0xbe5f6140	-0.21814442
168	0x3c8ff52d	0.017572964
169	0x3a788e53	0.0009481657
170	0xbf857418	-1.0426054
171	0x3ea609c7	0.32429335
172	0xbef757c7	-0.48309156
173	0xbe5a7eb3	-0.21337394
174	0x3f94e381	1.1631929
175	0x3c192baa	0.009348789
176	0x3c529469	0.012852767
177	0xbc2b8395	-0.010468383
178	0x3fc2243c	1.5167308
179	0xbbb4e2de	-0.0055202087
180	0xbf3d6f0a	-0.7399756
181	0xbb302041	-0.0026874694
182	0xbdb31c11	-0.087455876
183	0xbc136526	-0.008996284
184	0xbcc4b5e9	-0.024012523
185	0xbea02181	-0.3127556
186	0xbcb80bfd	-0.022466654
187	0x3d12be7f	0.035826202
188	0x3e8c17a7	0.27361795
189	0xbea515bd	-0.32243147
190	0x3e05e368	0.1307503
191	0xbb873f2e	-0.0041274047
192	0xbd068410	-0.03284079
193	0x3c9cf3e6	0.019159269
194	0x3c61aadf	0.013773649
195	0x3dc8261b	0.09772893
196	0x3b8c60eb	0.0042840145
197	0x3d0acdad	0.033887554
198	0x3cae476b	0.02127429
199	0xbc44a8f0	-0.012003168

layers.2.bias f4 [10]
0	0x3b72eb0d	0.003706637
1	0xbc17e484	-0.009270791
2	0x3b4b47b7	0.0031018087
3	0x3c1dcdae	0.009631557
4	0x3e0cb62f	0.13741373
5	0x3c612654	0.013742048
6	0xbea6d8d4	-0.32587302
7	0xbc5f6235	-0.013634254
8	0xbf354dc4	-0.70821786
9	0xbda17b6f	-0.07884871

layers.4.weight f4 [1, 10]
0	0x3c829a73	0.015942788
1	0x3cef209f	0.02919036
2	0x401112bc	2.2667685
3	0x3c9df3fc	0.01928138
4	0x401adc89	2.4197104
5	0xbee8a987	-0.4544184
6	0xbf90117e	-1.1255338
7	0x3cb9c93e	0.022678968
8	0xc02685e0	-2.601921
9	0x3f6d84e3	0.92780894
