F16_AeroData/model_20240420/delta_Cy_a20_lef.pth (torch, 6383 bytes, 7 tensors)

layers.0.weight f4 [20, 2]
0	0x40030554	2.0472002
1	0xbc422c67	-0.011851407
2	0xbfec4d94	-1.8461175
3	0x3eab2d27	0.33432886
4	0x3fd55eae	1.6669519
5	0x3ec2f3fe	0.38076776
6	0x3a4cb6a8	0.00078092003
7	0xb93f4279	-0.00018239942
8	0xbd465949	-0.048424993
9	0x3f065925	0.52479774
10	0x3afbb3e5	0.0019203393
11	0x3f1b677a	0.6070477
12	0x3516d0b7	5.6183075e-07
13	0x34b57024	3.379547e-07
14	0x377341a8	1.44992155e-05
15	0xb78cdae4	-1.679123e-05
16	0xbf153148	-0.5827832
17	0x3f9b8876	1.215102
18	0xb4185061	-1.4185345e-07
19	0xb37eb08c	-5.9299552e-08
20	0xbbf6102a	-0.007509251
21	0x3f360571	0.7110205
22	0xbfdf4a76	-1.7444599
23	0xbeaf9ba3	-0.3429843
24	0xbf932bc6	-1.1497734
25	0xbf607e2b	-0.8769252
26	0x3e32a147	0.17444335
27	0x3f38cc8c	0.72187114
28	0xbfa8264a	-1.3136685
29	0x3e4111d1	0.18854453
30	0x3ae1b2b5	0.0017219397
31	0xba40ea5a	-0.000735914
32	0x3b67e53c	0.0035384437
33	0xb715caea	-8.928337e-06
34	0xbebbac84	-0.36655056
35	0xbf4ce91e	-0.8004321
36	0x3681bec5	3.866708e-06
37	0xb5146df3	-5.5294294e-07
38	0x3b1e781a	0.0024180473
39	0xb8b44f49	-8.597837e-05

layers.0.bias f4 [20]
0	0xc03edf4c	-2.982379
1	0x404b1cd2	3.173634
2	0xbff16612	-1.8859274
3	0xbb03db37	-0.0020119676
4	0xbf08e2c0	-0.53470993
5	0xbf0ee87b	-0.5582349
6	0xb5ff7e48	-1.9035733e-06
7	0xb8787faa	-5.9246704e-05
8	0xbeca5d5b	-0.3952435
9	0xb5cab44b	-1.5102645e-06
10	0xbd80987b	-0.06279083
11	0xbf95c717	-1.1701382
12	0x3f09acd5	0.53779346
13	0xbec9336d	-0.39297047
14	0x3e61835a	0.22022763
15	0xbbabe7e3	-0.005246149
16	0xbbcaa8c2	-0.0061846683
17	0xbf6f1f57	-0.93407196
18	0xb70a0f26	-8.228968e-06
19	0xbb8e25ab	-0.0043379865

layers.2.weight f4 [20, 20]
0	0x3ec50b1a	0.38485032
1	0xbd9925e1	-0.07477928
2	0x3efce307	0.49391958
3	0xb905a997	-0.00012747046
4	0xbdb5ea73	-0.08882608
5	0xbdc3c6ed	-0.095594265
6	0x3585063f	9.91109e-07
7	0xb5f2f376	-1.8101262e-06
8	0xbea0c624	-0.3140117
9	0x353fbf2f	7.1431253e-07
10	0xbc0214ea	-0.007939557
11	0xb7a38e31	-1.9497327e-05
12	0xbe5ecb52	-0.21757248
13	0xbc969c8d	-0.018385196
14	0xbb62240d	-0.0034506351
15	0x3b038bee	0.0020072418
16	0x3acfb2e0	0.0015846156
17	0x3abda426	0.0014468476
18	0xb54fcccd	-7.7411534e-07
19	0x3ac6bb57	0.0015162033
20	0x3f2ba036	0.6704134
21	0x3e1372d4	0.14399272
22	0xbea66876	-0.32501572
23	0x35589008	8.0675864e-07
24	0xbe2284c1	-0.15870954
25	0xbe431548	-0.19051087
26	0x36451cff	2.9372165e-06
27	0x36ba275a	5.547813e-06
28	0xbe44e002	-0.19226077
29	0x358cfcf4	1.0504432e-06
30	0x3dc554a6	0.09635286
31	0xbe7ab88a	-0.24484459
32	0xbe2aa867	-0.16665803
33	0xbe22e9d1	-0.15909506
34	0x3e3da65d	0.18520494
35	0xbacbe1ee	-0.0015555003
36	0xb9aa11e3	-0.00032438253
37	0xbe139fae	-0.14416382
38	0x3415dcfc	1.39571e-07
39	0x39412900	0.00018421188
40	0x3e01b048	0.12664902
41	0x3ef626b0	0.4807639
42	0x3f8503a4	1.0391736
43	0xb8a013d2	-7.633086e-05
44	0xbe3c9b49	-0.18418612
45	0xbe5e62c8	-0.2171737
46	0xb4f89a2d	-4.6305777e-07
47	0xb7562220	-1.2763339e-05
48	0xbf0c94f1	-0.54914767
49	0x34470b14	1.853735e-07
50	0xbeb27bf9	-0.3486021
51	0xbfac01c6	-1.3438041
52	0x3e2a6863	0.16641383
53	0xbed20601	-0.41020206
54	0x3e0b238f	0.13587783
55	0x3abce1a1	0.0014410504
56	0xbabae084	-0.0014257585
57	0xbe98865f	-0.29790017
58	0xb54e5b1b	-7.6873556e-07
59	0xbaf8a22b	-0.0018969228
60	0xb8ebe921	-0.00011249097
61	0xba424849	-0.0007411284
62	0xba424a9f	-0.0007411632
63	0xb5e6db66	-1.7200189e-06
64	0xb579fe82	-9.3130086e-07
65	0xb5ae4334	-1.2983569e-06
66	0xb4d591fc	-3.978056e-07
67	0x349bc476	2.9013944e-07
68	0xb69f89ec	-4.7546255e-06
69	0x344796ea	1.8588221e-07
70	0x399e7fcc	0.00030231324
71	0x374c0f55	1.2162917e-05
72	0xba1ad2ea	-0.00059060624
73	0x39f8224f	0.00047327808
74	0xba018532	-0.0004940807
75	0x3a9b1ca8	0.0011834102
76	0x3a5fcacb	0.00085369934
77	0xb9387266	-0.00017590224
78	0xb4ad6abd	-3.2301423e-07
79	0xb90903f1	-0.00013066806
80	0x3eb65436	0.35611123
81	0x3ea8ceac	0.32970178
82	0x3e5e68c8	0.21719658
83	0xb8ac12a2	-8.20507e-05
84	0xbf0a16f4	-0.53941274
85	0xbf173aa5	-0.5907386
86	0xb62d50af	-2.5825973e-06
87	0xb7266998	-9.9189565e-06
88	0xbf43a93c	-0.76430106
89	0xb6302c94	-2.6251992e-06
90	0x3e57cf4a	0.21075168
91	0xbea41f7d	-0.32055274
92	0xbf650523	-0.89460963
93	0x3df7afa3	0.12094047
94	0x3f1781f0	0.59182644
95	0xba419b2a	-0.0007385487
96	0xba2fccb6	-0.00067062245
97	0xbe91901c	-0.2843026
98	0xb58d3023	-1.0519328e-06
99	0xb8c1641d	-9.221605e-05
100	0x3dba1096	0.09085195
101	0x3e069dda	0.13146153
102	0xbbdf8d6d	-0.006822279
103	0x35024c17	4.85395e-07
104	0x3e9910aa	0.29895526
105	0x3eaac3c6	0.33352488
106	0xb5d4af42	-1.5846238e-06
107	0x36146c64	2.211681e-06
108	0x3f26de21	0.6518269
109	0x351d808f	5.8674135e-07
110	0x3d124721	0.035712365
111	0x3f1345a0	0.57528114
112	0x3d856b44	0.065146
113	0x3e073029	0.13201965
114	0x3db5ba18	0.08873385
115	0xba3037cc	-0.00067221816
116	0xba031611	-0.00050005416
117	0x3d8970cd	0.06710968
118	0x34972093	2.8149643e-07
119	0xba0ab843	-0.00052917394
120	0xbe18748a	-0.14888206
121	0x3d7fdbbc	0.062465414
122	0xbe96c18c	-0.2944454
123	0xb65e4e10	-3.3126016e-06
124	0x3bff03c1	0.00778243
125	0x3c0f003f	0.008728086
126	0x357ead9e	9.487502e-07
127	0x376f9e01	1.4282298e-05
128	0x3e866e38	0.26255965
129	0x359258d6	1.0903702e-06
130	0x3e292c9c	0.16520923
131	0xbe9d4d13	-0.30722865
132	0xbedc2daa	-0.4300359
133	0x3db09022	0.08621241
134	0xbdcae9cf	-0.09907877
135	0xb68d0e64	-4.2038027e-06
136	0x39d68484	0.00040915993
137	0xb914d639	-0.00014194184
138	0xb685d07b	-3.987979e-06
139	0x3a46510b	0.0007565177
140	0x3f0d287c	0.551399
141	0x3ecc8ab3	0.3994957
142	0xbd30bc78	-0.043148488
143	0x39acac3a	0.00032934715
144	0x3d2f4fae	0.042800598
145	0x3d36f308	0.044665366
146	0x34e2d092	4.2247535e-07
147	0xb70cd81e	-8.394969e-06
148	0xbe82a8a4	-0.25519288
149	0xb5ae51d2	-1.2987823e-06
150	0xbe04a64d	-0.12954064
151	0xbf06f90a	-0.52723753
152	0xbf06729a	-0.5251862
153	0xbe71c79a	-0.23611298
154	0xbf1c7d39	-0.61128575
155	0xba7b6216	-0.0009589506
156	0xb939be4a	-0.00017713863
157	0xbea06d5c	-0.31333435
158	0xb53bb011	-6.991914e-07
159	0x38daddec	0.00010436386
160	0x3d5175ec	0.05113785
161	0xbdb7993b	-0.08964773
162	0x3d567135	0.052354056
163	0x36981a84	4.53304e-06
164	0x3d20e8c8	0.039284497
165	0x3d31f12c	0.04344289
166	0xb54a8fee	-7.546031e-07
167	0x3672afe6	3.6163196e-06
168	0x3d811034	0.063019186
169	0x353f855b	7.13471e-07
170	0x3cc7725e	0.024346527
171	0x349e0a14	2.9437126e-07
172	0xb753adac	-1.2617016e-05
173	0x3d11c5b4	0.035588935
174	0xbbf543e0	-0.007484898
175	0xb4f00306	-4.4705683e-07
176	0xb5b756bf	-1.3659809e-06
177	0x34d8deb8	4.0395184e-07
178	0x3637109c	2.7278793e-06
179	0x3622c7c8	2.425617e-06
180	0xb4eea1fe	-4.444882e-07
181	0xb5542c34	-7.904048e-07
182	0xb549181e	-7.491343e-07
183	0xb497caa4	-2.8273382e-07
184	0x35091926	5.1073073e-07
185	0x3456715a	1.997154e-07
186	0x34b4cdac	3.367726e-07
187	0xb555a611	-7.959034e-07
188	0xb342c6f6	-4.53501e-08
189	0xb3b7068e	-8.522794e-08
190	0x33ca6ded	9.4263534e-08
191	0xb411625c	-1.353996e-07
192	0x348048c0	2.389479e-07
193	0x351576a6	5.567948e-07
194	0xb4002b77	-1.1936741e-07
195	0xb3e5fd38	-1.0709704e-07
196	0xb5468c2f	-7.396474e-07
197	0xb4e887cc	-4.3312173e-07
198	0x34c4b4b7	3.6639332e-07
199	0xb3125804	-3.4073324e-08
200	0xb9bdd739	-0.00036209243
201	0xbafa83ce	-0.0019112767
202	0xba24bbb6	-0.00062840746
203	0xb9ec7f00	-0.0004510805
204	0x39bb51f7	0.00035728488
205	0x39d4d50a	0.00040594517
206	0x34d4264e	3.9515947e-07
207	0x3772ea9a	1.44789465e-05
208	0x3acd2008	0.0015649805
209	0x35654514	8.540967e-07
210	0xb4a99327	-3.158577e-07
211	0x3b406f2a	0.0029363134
212	0xba5fe65b	-0.00085411005
213	0xb9cb5c07	-0.00038787743
214	0x3afa6b6e	0.0019105503
215	0xb9207ec8	-0.00015306019
216	0xb91dbbd8	-0.00015042664
217	0xb94a938b	-0.00019319185
218	0xb58d67d9	-1.0535542e-06
219	0x38825325	6.21437e-05
220	0xb8bace6c	-8.90762e-05
221	0xb5382ab0	-6.860746e-07
222	0x350c03f2	5.2159805e-07
223	0x39c9f634	0.00038521143
224	0xb8247bcd	-3.9215945e-05
225	0xb82e6fe6	-4.1589046e-05
226	0x34900bb4	2.6830605e-07
227	0xb3976dd7	-7.051465e-08
228	0xb8cb279b	-9.6871714e-05
229	0xb486b31f	-2.5089773e-07
230	0xb967d5a2	-0.00022109461
231	0xb54ae09d	-7.557772e-07
232	0xba084499	-0.000519821
233	0xb852bfe1	-5.0246603e-05
234	0xb59b27fd	-1.1560038e-06
235	0xb9be5d00	-0.00036308914
236	0x39915eb1	0.00027727106
237	0xb53b8538	-6.985679e-07
238	0x34f7b6cd	4.614034e-07
239	0xb8ed5b0c	-0.000113179995
240	0xb90a4e8c	-0.00013189967
241	0xba79aaf9	-0.0009524073
242	0xb9bdd40e	-0.00036206882
243	0x3987b623	0.0002588491
244	0x34fa3e5f	4.661151e-07
245	0x34d52216	3.9699142e-07
246	0x34b07f0b	3.287499e-07
247	0xb6a53822	-4.923918e-06
248	0xb321ac1e	-3.7642273e-08
249	0xb4ac43ed	-3.208692e-07
250	0xb46bb3a8	-2.1951439e-07
251	0x3555f013	7.969804e-07
252	0xba708b9e	-0.0009176078
253	0xb7641555	-1.3594826e-05
254	0xb52942ed	-6.3054796e-07
255	0x38a55e44	7.8853715e-05

layers.2.bias f4 [20]
0	0x3e3fd739	0.18734445
1	0xbd9c0f67	-0.07620125
2	0xbd6aca18	-0.057321638
3	0xb889c5af	-6.5694905e-05
4	0x3e8f7b68	0.2802384
5	0xbe39325a	-0.18085614
6	0xbd163d7a	-0.036679722
7	0x3e50c68c	0.2038824
8	0xbd934b75	-0.07192127
9	0xb51785c0	-5.6446515e-07
10	0xba8533cb	-0.001016253
11	0xb9983a50	-0.00029035145
12	0xb63ef1bf	-2.845292e-06
13	0x3f0ee897	0.55823654
14	0xbec5cb58	-0.386317
15	0xbe56c2ef	-0.20972799
16	0xb6522647	-3.1314719e-06
17	0x3f8e4232	1.1113951
18	0x3ea6a102	0.32544714
19	0xbe8bc7e8	-0.27300954

layers.4.weight f4 [10, 20]
0	0x3e33937d	0.17536731
1	0x3ec20a12	0.37898308
2	0xbe3b7068	-0.18304598
3	0x3581eca0	9.680116e-07
4	0xbe7d2b34	-0.24723512
5	0x3c77a0ad	0.015113992
6	0x3b935914	0.004496703
7	0x3f2fa663	0.6861326
8	0x3b1156fa	0.0022177086
9	0xb4ed02fb	-4.414686e-07
10	0xba0b3e13	-0.0005311679
11	0xb54cf60e	-7.635398e-07
12	0x381fac54	3.8069047e-05
13	0xbeaa462d	-0.33256665
14	0xbf12eefd	-0.5739592
15	0x3d8ad8b2	0.067796126
16	0x3559ec20	8.1182407e-07
17	0xbec2f970	-0.3808093
18	0xbe632476	-0.22181877
19	0xbedebab9	-0.43501833
20	0x3e2d8267	0.16944276
21	0xbe8408b4	-0.2578789
22	0xbee2a1eb	-0.4426416
23	0x39be48b2	0.00036293786
24	0xbf41bcae	-0.7567853
25	0x3f17436a	0.5908724
26	0xbe8450a1	-0.25842765
27	0xbe0d7967	-0.13815843
28	0x3dae386a	0.08506854
29	0x34408f1e	1.7933459e-07
30	0x3a013084	0.0004928189
31	0xb69473a8	-4.424208e-06
32	0xb90d4a8b	-0.00013474577
33	0xbec0e2db	-0.37673077
34	0x3f1800f7	0.5937647
35	0xbe3d5c9d	-0.1849236
36	0xb56e9a29	-8.888624e-07
37	0xbd5fc4a1	-0.05463088
38	0x3d2d175b	0.0422586
39	0xbf73d368	-0.95244455
40	0x3ddae9dc	0.106891364
41	0x3f07a570	0.5298681
42	0x3ea0ffd6	0.31445187
43	0xbac4e0b7	-0.0015020584
44	0x3eb881d8	0.36036563
45	0xbf01e7fd	-0.5074461
46	0x3efd867f	0.49516675
47	0x3e42d570	0.19026732
48	0x3d08500c	0.033279464
49	0xb54c7b1b	-7.6175064e-07
50	0xbab19e12	-0.0013551137
51	0x3956704b	0.00020450463
52	0xb991df2e	-0.00027822837
53	0x3e6353ab	0.22199886
54	0xbf098fc4	-0.53734994
55	0x3f2c3697	0.672708
56	0xb650cf0e	-3.1114937e-06
57	0xbe95895d	-0.29206362
58	0xbf588214	-0.84573483
59	0xb98e9330	-0.00027194014
60	0xb861da95	-5.384775e-05
61	0xb830fd3b	-4.219751e-05
62	0xb8f153ec	-0.00011507407
63	0xb519fe38	-5.736688e-07
64	0x3882fd5c	6.246075e-05
65	0x36b0aa82	5.2650585e-06
66	0xb707f2be	-8.103145e-06
67	0xba1499b3	-0.0005668655
68	0x36ade5c0	5.182548e-06
69	0x349e0718	2.9434955e-07
70	0x39529bd1	0.00020085207
71	0xb45ca2ed	-2.0548369e-07
72	0xb523bd32	-6.099755e-07
73	0xb4f5559a	-4.569709e-07
74	0xb7022c08	-7.758856e-06
75	0xb51cfecf	-5.8485324e-07
76	0xb49d17ff	-2.9260988e-07
77	0xb7382ca9	-1.0977653e-05
78	0x34923fbd	2.7240995e-07
79	0xb8bfaf20	-9.140209e-05
80	0x37d640cd	2.5540963e-05
81	0xb9e0071c	-0.00042729906
82	0xba96a5e8	-0.0011493536
83	0x399110ce	0.00027669076
84	0xbad21c1f	-0.0016030109
85	0xba03bfae	-0.0005025816
86	0x38d11e31	9.97152e-05
87	0x39de26c0	0.0004237201
88	0x36b97bdb	5.5278483e-06
89	0x353dd605	7.0719426e-07
90	0x3b12e5ed	0.0022414878
91	0xb876d8de	-5.8852944e-05
92	0xb7d164d9	-2.4961702e-05
93	0xb8aa00b0	-8.10636e-05
94	0xb849a025	-4.807128e-05
95	0xb7476cd3	-1.1886662e-05
96	0xb5a8bece	-1.2572507e-06
97	0xb83da6a5	-4.521631e-05
98	0x34fffef2	4.7682948e-07
99	0xb9ee428e	-0.00045444485
100	0xbd31da43	-0.04342104
101	0xbdf1813b	-0.11792227
102	0xbea653f2	-0.3248592
103	0x39b5993f	0.00034637187
104	0xbe6ac4f0	-0.22926688
105	0xbca160fc	-0.019699566
106	0xb81224d1	-3.48434e-05
107	0xbe03ec88	-0.12883198
108	0x35d613cc	1.5950004e-06
109	0x350e403a	5.2992584e-07
110	0x39d83352	0.00041236967
111	0x363ab2ab	2.7820158e-06
112	0x39a47cf8	0.00031373627
113	0x3d90346b	0.07041248
114	0xbd65730d	-0.056017924
115	0xbe15c28c	-0.14624995
116	0xb31bc5f1	-3.6268776e-08
117	0x3f8270d2	1.019068
118	0xbb3d54e6	-0.0028889715
119	0xbd6e94f3	-0.058247518
120	0xbad88c57	-0.0016521317
121	0xbebf6d98	-0.373883
122	0xbccaf628	-0.02477558
123	0xba292489	-0.00064522825
124	0xbf26757c	-0.65023017
125	0x3e16c343	0.14722924
126	0x3dcb22af	0.09918725
127	0x3f2d1e36	0.67624223
128	0xbb1c49a9	-0.0023847616
129	0x34eedc97	4.4491455e-07
130	0xbac2f052	-0.0014872646
131	0xb9e27479	-0.00043192858
132	0xb9868713	-0.0002565911
133	0xbf4582e6	-0.7715286
134	0xbebe9bba	-0.37228185
135	0xbc3d22ee	-0.011543972
136	0xb659e02a	-3.2466e-06
137	0xbb0ea1bc	-0.0021763882
138	0x3eac5903	0.3366166
139	0x3f2d6135	0.6772645
140	0xbf25b22f	-0.6472501
141	0xbe067639	-0.13131036
142	0xbf7932ba	-0.9734303
143	0x34d21e4d	3.9137595e-07
144	0x3e33c1d3	0.17554407
145	0x3e7f2ac1	0.24918653
146	0xbe81d38d	-0.25356713
147	0x3dbb6d5e	0.091517195
148	0x3df5cb7b	0.120017014
149	0xb48523b5	-2.479916e-07
150	0x39556738	0.00020351715
151	0x39d95981	0.0004145615
152	0x39947381	0.00028314817
153	0x3f2577e1	0.64636046
154	0x3e8ddfaf	0.2770972
155	0xbdef7278	-0.11691755
156	0xb65753b0	-3.208621e-06
157	0x3cb45b75	0.022016266
158	0xbdc4e974	-0.0961484
159	0xbe03e550	-0.12880445
160	0xbc84c4eb	-0.016207179
161	0xbdc2cea9	-0.095120735
162	0x3edfcec4	0.43712437
163	0xb9f92400	-0.00047519803
164	0x3e952b05	0.29134384
165	0xbeef3737	-0.46721813
166	0x3dbaf6d2	0.091291085
167	0xbdc0aa5a	-0.09407492
168	0x3d81a0ca	0.06329496
169	0x33e97cf6	1.0872638e-07
170	0xba831ee7	-0.0010003716
171	0xb83d10a8	-4.5076624e-05
172	0xb8207bcf	-3.826228e-05
173	0xbe69b0da	-0.2282137
174	0x3f164133	0.58693236
175	0xbc31406b	-0.010818581
176	0xb57022a5	-8.945738e-07
177	0xbee81e20	-0.45335484
178	0xbd9c9092	-0.07644762
179	0xbec9258c	-0.39286458
180	0xbeb11d0b	-0.3459247
181	0xbe8dfddb	-0.2773274
182	0xbf936606	-1.151551
183	0x3a98f10d	0.0011668518
184	0xbf6850aa	-0.90748084
185	0x3e4559ad	0.1927249
186	0xbd033093	-0.032028746
187	0xbed20a7e	-0.4102363
188	0xba8bf10c	-0.0010676696
189	0x351bf697	5.8100835e-07
190	0xb9167138	-0.00014347292
191	0xb70255c9	-7.768577e-06
192	0x39d63dcf	0.00040863312
193	0x3ec6cb19	0.38826826
194	0xbc6cc941	-0.01445228
195	0xbd678f83	-0.056533348
196	0x379c8b7b	1.86616e-05
197	0x3fda7deb	1.7069677
198	0x3f36f44f	0.71466535
199	0xbf5259b3	-0.8216812

layers.4.bias f4 [10]
0	0x3f051f57	0.52000946
1	0x3e28e85a	0.16494885
2	0x3ecfe546	0.4060461
3	0xb9e62cf0	-0.000439025
4	0xb9f01f04	-0.00045799476
5	0xbd4435a1	-0.047902707
6	0xbf21d9ff	-0.6322326
7	0xbe1866b1	-0.14882924
8	0xbf077b35	-0.52922374
9	0x3f077ba7	0.52923054

layers.6.weight f4 [1, 10]
0	0xbfa13aab	-1.2596029
1	0xbfc8ad29	-1.5677844
2	0xbfbd9cef	-1.4813517
3	0x39f54892	0.0004678411
4	0xbb0ce147	-0.002149658
5	0x3f88c166	1.068402
6	0xbfc39475	-1.527968
7	0xbfb0c5e7	-1.3810395
8	0xbf99759b	-1.1989015
9	0x40227010	2.5380898
