F16_AeroData/model_20240420/delta_Cnbeta.pth (torch, 3911 bytes, 5 tensors)

layers.0.weight f4 [20, 1]
1.1923327 -0.66875917 0.056847338 0.99584484 -0.43489417 1.0514833 -0.17971724 -0.57893586
0.02351543 -0.65317804 0.06292561 -0.8475816 0.2386457 0.020376476 1.9339895 3.9674785
1.1382089 -0.5302596 -0.86711794 0.04000498
00000000: 5c9e 983f cd33 2bbf c1d8 683d b0ef 7e3f
00000010: 73aa debe 0197 863f cc07 38be 2435 14bf
00000020: 6ea3 c03c ad36 27bf 24df 803d 1cfb 58bf
00000030: 8a5f 743e 91ec a63c f88c f73f 2beb 7d40
00000040: d4b0 913f 18bf 07bf 71fb 5dbf 43dc 233d

layers.0.bias f4 [20]
0.18311942 0.7732667 -0.09370166 0.31342676 -0.13766454 0.33091906 -0.056888662 -0.1832855
-0.05560982 0.12473467 -0.09968292 -0.4055705 -0.0022341553 -0.050691128 0.91662234 1.24784
0.17485741 -0.16785689 0.99975026 -0.021078069
00000000: a883 3b3e cef4 453f a8e6 bfbd 7979 a03e
00000010: eff7 0cbe 396e a93e 1604 69bd 32af 3bbe
00000020: 1fc7 63bd e474 ff3d 8f26 ccbd f0a6 cfbe
00000030: e86a 12bb 80a1 4fbd c3a7 6a3f 39b9 9f3f
00000040: d20d 333e ade2 2bbe a2ef 7f3f eaab acbc

layers.2.weight f4 [10, 20]
0.20365435 0.011296351 0.018374043 -0.06444047 -0.19634095 -0.05983869 -0.08210296 -0.23416606
0.0073060617 -0.2174744 -0.007352411 0.022162277 -0.20731074 -0.018888725 0.44696835 -0.2856966
0.2096162 -0.3695739 -0.00023322964 0.012298228 0.017599368 0.010482462 0.021744514 -0.015003231
0.0044719037 -0.021878766 -0.016831068 0.010337282 -0.0056893006 -0.00036796558 0.0067904927 -0.01832295
0.015222531 -0.014711829 -0.00012492022 -0.00774243 0.0003408141 0.043258715 -0.0059823496 0.01097228
-1.1828762 0.91697806 -0.0019821692 -0.11327345 0.16433905 -0.13376193 0.06556555 0.20841908
-0.018337032 0.5857082 -0.022931451 -0.4808193 0.016292768 0.018797986 -1.7037684 -0.5417355
-1.1257172 0.4271165 1.1868693 0.005295522 0.00085407 0.6157242 -0.004789128 -1.0271361
-0.33977145 -1.0823776 -0.13887429 -0.4641087 0.022715572 0.34789917 -0.01995414 0.6755698
-0.0051372238 -0.0032502646 1.1288422 -4.082694 0.006435356 -0.22682272 0.79682416 -0.011462304
-0.054184914 -0.0035468638 0.0051736417 0.028329415 -0.0050343 0.0071968324 0.029361814 -0.005647382
0.013260976 0.03438531 -0.0071988255 -0.010676871 0.06190308 -0.005285198 -0.10181577 0.113808356
-0.064561896 0.047351755 0.0066147507 0.012274164 -0.018820513 0.0073711304 0.019968415 -0.016380884
0.0019967179 -0.018599872 0.005728851 0.03887107 0.012824385 0.022093877 0.008922664 -0.035072107
-0.014226497 -0.021993572 -0.112089 -0.023959579 0.015867503 0.018811932 0.011526105 -0.0068957107
0.003944506 -0.0052356683 -0.010283233 -0.02111958 -0.008715539 -0.037104517 0.0072856187 0.014916071
0.020496683 0.019908471 0.014795226 -0.02642091 0.01497052 -0.011143493 -0.020522512 -0.010108229
0.007073546 0.058351208 -0.008744833 0.0025469407 -0.044033248 0.039704584 -0.023943461 -0.020337489
-0.008586972 -0.018776868 0.01831561 0.0034121769 -0.0049685086 -0.0005646345 0.0076491362 0.0039877878
-0.013487158 -0.020096483 -0.054403976 -0.0022706073 -0.050005727 -0.005557623 0.04979369 -0.018690398
-0.020126501 0.0014672802 -0.0013302297 0.009171798 0.0048162146 0.00042873336 -0.015988657 0.01335516
-0.00391346 -0.008130188 0.011455488 0.0056168847 -0.018846096 0.022211874 -0.017086083 -0.014903387
0.005772395 -0.017064102 -0.0161558 -0.0213584 -0.009683136 0.025574798 0.023449812 0.019121414
0.003045813 0.004636725 0.023341203 0.007511545 0.020296542 0.022288743 0.010203576 -0.003927003
-0.0020156275 -0.008773354 -0.0711701 -0.021683086 0.017506946 -0.009187454 -0.019828077 0.019420521
00000000: c48a 503e 5514 393c 2985 963c 5df9 83bd
00000010: 9a0d 49be 6a19 75bd 9925 a8bd 3ac9 6fbe
00000020: b067 ef3b 9cb1 5ebe 7eec f0bb aa8d b53c
00000030: 4449 54be 87bc 9abc 09d9 e43e d346 92be
00000040: a1a5 563e ca38 bdbe 1b8f 74b9 827e 493c
00000050: 8d2c 903c a2be 2b3c 8d21 b23c 1dd0 75bc
00000060: 0c89 923b 193b b3bc 4fe1 89bc b45d 293c
00000070: 506d babb 81eb c0b9 c882 de3b 031a 96bc
00000080: ec67 793c e209 71bc 04fd 02b9 36b4 fdbb
00000090: 4baf b239 0d30 313d 9607 c4bb 14c5 333c
000000a0: 7d68 97bf 13bf 6a3f 48e7 01bb e9fb e7bd
000000b0: 7f48 283e e3f8 08be 3b47 863d d06b 553e
000000c0: 8b37 96bc f9f0 153f bdda bbbc f32d f6be
000000d0: 6978 853c 3cfe 993c 1515 dabf 2daf 0abf
000000e0: 8017 90bf 04af da3e 55eb 973f 0f86 ad3b
000000f0: abe3 5f3a 1aa0 1d3f 1eee 9cbb 3279 83bf
00000100: 86f6 adbe 598b 8abf 1035 0ebe a89f edbe
00000110: 0216 ba3c d71f b23e dd76 a3bc 24f2 2c3f
00000120: 2856 a8bb 6402 55bb e77d 903f 6ea5 82c0
00000130: aedf d23b 3744 68be abfc 4b3f 63cc 3bbc
00000140: 00f1 5dbd 8072 68bb a787 a93b 1713 e83c
00000150: c5f6 a4bb 68d3 eb3b 3088 f03c ac0d b9bb
00000160: 9144 593c 9cd7 0c3d 20e4 ebbb 0bee 2ebc
00000170: 168e 7d3d 742f adbb c984 d0bd 5b14 e93d
00000180: 0739 84bd eaf3 413d 8dc0 d83b 9319 493c
00000190: 7a2d 9abc 8689 f13b cd94 a33c 3431 86bc
000001a0: 5edb 023b c25e 98bc 16b9 bb3b 4537 1f3d
000001b0: 5f1d 523c 38fe b43c 5e30 123c c5a7 0fbd
000001c0: 4116 69bc dd2b b4bc eb8e e5bd e146 c4bc
000001d0: 91fc 813c 7b1b 9a3c fdd7 3c3c 6af5 e1bb
000001e0: ea40 813b f88f abbb 017b 28bc f802 adbc
000001f0: 9fcb 0ebc e8fa 17bd 33bc ee3b 8962 743c
00000200: a9e8 a73c 1717 a33c ad67 723c aa70 d8bc
00000210: e946 753c 3293 36bc d41e a8bc fc9c 25bc
00000220: 34c9 e73b ad01 6f3d 7d46 0fbc 93ea 263b
00000230: 355c 34bd 46a1 223d 1425 c4bc ce9a a6bc
00000240: 5fb0 0cbc f2d1 99bc 9e0a 963c d49e 5f3b
00000250: dfce a2bb fb03 14ba 9ba5 fa3b fdab 823b
00000260: 3ef9 5cbc 61a1 a4bc b4d6 5ebd 78ce 14bb
00000270: ced2 4cbd b91c b6bb 78f4 4b3d 9b1c 99bc
00000280: 55e0 a4bc c151 c03a 1a5b aeba 4f45 163c
00000290: 56d1 9d3b 9ec7 e039 a5fa 82bc 9acf 5a3c
000002a0: 7b3c 80bb 7b34 05bc cdaf 3b3c d80d b83b
000002b0: 2163 9abc adf5 b53c 1df8 8bbc 562d 74bc
000002c0: 5c26 bd3b 04ca 8bbc 2b59 84bc d0f7 aebc
000002d0: 04a6 1ebc 3d82 d13c d219 c03c 83a4 9c3c
000002e0: 439c 473b abef 973b 0d36 bf3c 6823 f63b
000002f0: ef44 a63c e296 b63c e62c 273c 17ae 80bb
00000300: 9e18 04bb 1dbe 0fbc a1c1 91bd baa0 b1bc
00000310: ba6a 8f3c fa86 16bc 7e6e a2bc c917 9f3c

layers.2.bias f4 [10]
0.15103154 -0.032217532 0.77633566 0.6545318 0.025769135 0.0048080636 -0.023643555 0.0021315874
-0.0023358567 0.014322761
00000000: 03a8 1a3e 88f6 03bd efbd 463f 658f 273f
00000010: cb19 d33c f68c 9d3b 21b0 c1bc 1ab2 0b3b
00000020: 2c15 19bb 04aa 6a3c

layers.4.weight f4 [1, 10]
-0.82488084 0.018593812 3.0526001 -4.67442 0.17593892 0.1193935 0.014506786 0.096477486
0.014711499 0.07194898
00000000: 642b 53bf 0d52 983c cd5d 4340 d994 95c0
00000010: 5529 343e 9484 f43d dfad 6d3c fd95 c53d
00000020: 8008 713c fd59 933d
