F16_AeroData/model_20240420/delta_Clr_lef.pth (torch, 3919 bytes, 5 tensors)

layers.0.weight f4 [20, 1]
000000 2a 58 dc be 75 c4 9b 3e f5 0f 86 3e bf a9 1b 3f
       -0.43036014 0.30423322 0.2618405 0.60805887
000010 7a 11 cb bc 21 9d ed bd ef 0f 0b bc 8b 13 e7 3e
       -0.024788607 -0.116022356 -0.008487686 0.45132098
000020 35 e8 48 3f 7f a5 22 bf 9b 98 88 3e 2f 77 14 3f
       0.7847932 -0.63533777 0.2667893 0.5799436
000030 c8 4d 07 bd 46 fc 35 bf 65 40 02 3f 7a 90 0d 3f
       -0.033033162 -0.71088064 0.5087951 0.5529858
000040 52 e3 9d bf 33 cf d5 bd 2b ae f8 3e e9 0b 47 bf
       -1.2334998 -0.10439911 0.4857038 -0.7775255

layers.0.bias f4 [20]
000000 57 61 2f 3e 0e ad 4f be 8a 02 f6 bc 46 f0 bc 3d
       0.17126976 -0.20280859 -0.030030508 0.09225516
000010 a0 4e 67 bd eb 63 9a bc c1 48 8f bd f4 11 54 bd
       -0.056471467 -0.018846473 -0.069962986 -0.051774934
000020 14 9c 74 bf 16 97 47 bf 5e 32 26 3e 65 18 c6 be
       -0.95550656 -0.77964914 0.16230151 -0.38690487
000030 3a c5 bf bd 2a d9 90 3e 54 0e fa 3c 90 af 03 3f
       -0.0936379 0.28290683 0.03052441 0.5143976
000040 79 6e e6 3f e1 d1 85 bd 10 6a 96 3e 50 05 38 bf
       1.8002464 -0.06534172 0.29377794 -0.71883106

layers.2.weight f4 [10, 20]
000000 13 74 24 bd d3 31 b0 3c 7f cf 4b bd c2 5b b7 bd
       -0.04014976 0.021508133 -0.04975843 -0.08953048
000010 e8 14 2a 3b 30 1e a3 bd 0b 0c 73 3c 87 34 59 bd
       0.0025952403 -0.07964742 0.014834414 -0.05302861
000020 0f 2c af 3c 71 de 34 3c 87 ca 86 bd 05 68 93 bc
       0.021383313 0.011039362 -0.06581598 -0.017993936
000030 37 32 93 3c 51 44 8f bd 5b c7 a2 bd 1d 08 92 3d
       0.01796828 -0.06995452 -0.0794818 0.07130454
000040 c0 c2 93 3c 38 40 85 bd 30 df bb bd 5f 74 77 bb
       0.0180372 -0.065063894 -0.09173429 -0.0037758572
000050 f1 ae 84 bc bf a0 87 bd d1 fc 87 3c b6 2c eb 3d
       -0.0161967 -0.06622457 0.016600044 0.11483137
000060 2b 9d aa 3c 59 01 c5 3c a7 69 c6 3b 01 f8 fd 3b
       0.020826897 0.024048494 0.006055075 0.0077505116
000070 56 0b 13 bf d2 d1 88 bc 92 bd c5 3d 23 15 1a be
       -0.5743917 -0.016701613 0.09655298 -0.15047126
000080 2e 30 12 bc 09 28 98 bc 00 16 3b 3d 50 ff 48 3e
       -0.00892262 -0.018573778 0.045675278 0.19628644
000090 1b 87 b2 bf 56 45 c6 bb b4 cb 1f 3e a8 4c 70 3c
       -1.3947481 -0.006050746 0.1560505 0.014666714
0000a0 97 10 84 3c b8 2a 6e bd 9c ae d7 3b 21 39 8c 3d
       0.016121192 -0.05814621 0.0065820944 0.06846834
0000b0 00 a2 bf bc 67 9c 1c bc 29 0a b0 3c ec 5f 56 3a
       -0.023392677 -0.009558774 0.02148922 0.00081777456
0000c0 a1 32 f0 be 22 f8 35 bc ff 94 8e 3d 0e 01 da bd
       -0.46913627 -0.011106523 0.069620125 -0.106447324
0000d0 c7 fe 2a bc 9a 78 b7 bc 73 08 4e 3d 3a ae 36 3e
       -0.01043672 -0.022396374 0.050301027 0.178399
0000e0 4d b1 96 bf 5a e2 27 3c e3 4c 03 3e 20 3a 1d bc
       -1.1772858 0.0102468375 0.12822299 -0.009596378
0000f0 7d 0f ea be 31 dd 96 3e 0f 40 82 3e e0 e4 10 3f
       -0.45714942 0.2946563 0.25439498 0.56599236
000100 3b 31 bd bc f3 7e d7 3c 61 34 6a bc e9 fb de 3e
       -0.023094764 0.026305651 -0.014294715 0.43551567
000110 49 41 4e 3f f7 b4 7e 3f 1c fb 82 3e 20 07 0e 3f
       0.8056837 0.9949488 0.25582206 0.5547962
000120 27 4c a6 3b 56 93 41 bf d2 84 f2 3e b5 73 16 bf
       0.005074996 -0.7561544 0.4736696 -0.58770305
000130 c1 d7 35 3f 9b e1 b3 3d 54 e4 f1 3e f3 66 85 bf
       0.7103234 0.08783265 0.47244513 -1.0422043
000140 d3 0a 88 bc 4d 9e 97 bc e7 d0 88 bc ed 74 c4 bc
       -0.016606724 -0.0185081 -0.016701175 -0.023981536
000150 a6 34 87 3c 21 aa 98 3b ff a5 03 3c e5 6a 87 bc
       0.016504597 0.004658953 0.008035182 -0.016530463
000160 6d 83 bb ba a1 5b 1e 3c ea 32 2a 3b 67 aa 66 bb
       -0.0014306136 0.009665401 0.0025970289 -0.0035196783
000170 87 60 51 bb 27 7a 96 3c d8 42 8b 3c 71 b3 85 bc
       -0.0031948404 0.018368794 0.016999647 -0.016320916
000180 bd c6 9f bc 65 9d 96 bc af ee a4 ba bb 3e cd bc
       -0.019503945 -0.018385598 -0.001258334 -0.025054326
000190 0c e9 9f bc af dc b7 bd 24 4b 3a 3d 4a a7 0a 3e
       -0.019520305 -0.08977639 0.045481816 0.13540378
0001a0 b4 53 36 3c c4 ec 13 bc 1f a8 9d 3c 53 b1 4a 3d
       0.011128355 -0.009028617 0.019245205 0.049485516
0001b0 9a d7 94 be f0 ef 17 bc a7 50 dd 3d 9b 82 5d be
       -0.2907074 -0.009273514 0.10806399 -0.21631853
0001c0 08 0f a4 3c fc 11 8f bc 36 65 f7 3d 39 f5 6f 3e
       0.020026699 -0.01746463 0.12079851 0.23433389
0001d0 d7 4e 13 bf 7a 62 89 3c a1 c9 3d 3e bb 8a 4e 3b
       -0.57542175 0.01677059 0.18533947 0.0031515795
0001e0 8c 4f 7e ba 15 4a 85 bc c6 50 8d bc e1 4a 7a bc
       -0.00097011845 -0.016270677 -0.01725043 -0.015276642
0001f0 a7 16 9b ba c6 a3 18 3c f3 49 b0 3c 20 9b 90 3c
       -0.0011832312 0.00931639 0.021519637 0.017652094
000200 d6 3f f1 3a 9b 2d be bb 46 ca b0 3c a4 00 df bc
       0.0018405865 -0.0058037764 0.021580826 -0.027221985
000210 4f 82 ce ba 0b 52 4f bb ce c7 ff 39 17 34 1d 38
       -0.0015755388 -0.0031634595 0.00048786256 3.748023e-05
000220 e7 0d bd 3b 08 52 3e 3c 21 36 d7 3b 28 da ad bc
       0.0057694796 0.011616237 0.006567732 -0.02122219
000230 8c fa 86 bc ed 38 90 bc 97 2b 68 bc ad 6d b0 bc
       -0.016476892 -0.01760527 -0.014170549 -0.021536672
000240 7d a3 ae bb 05 4d b4 bc 33 d9 24 bb b2 c4 a4 bc
       -0.005329548 -0.022009382 -0.0025153875 -0.020113323
000250 71 bb 02 bc 72 7f f8 3b 07 88 8b bc 11 89 a9 bc
       -0.00797926 0.007583552 -0.017032636 -0.020695241
000260 a1 5f 95 bc ee 20 89 3c 94 7a bf 3c c4 9c 6b bc
       -0.018234076 0.016739335 0.02337388 -0.014380638
000270 01 19 68 bb c0 ed 11 3c ce 5f a3 3c d6 21 b1 bc
       -0.0035415294 0.008906782 0.019943144 -0.02162258
000280 d8 75 9b bc a0 68 09 be a5 39 f1 3c ce 8b 4e 3e
       -0.01897709 -0.13418818 0.029446432 0.20170519
000290 0b 4b c7 3a f0 06 70 3c c5 e4 c9 ba 02 1f c2 3d
       0.001520486 0.0146500915 -0.0015403262 0.094785705
0002a0 00 1c bd be fe d4 15 3b 05 05 ea 3d 1b 1a 67 be
       -0.36935425 0.002286255 0.11426739 -0.22568552
0002b0 a0 3d 8e bc 15 bb 51 bb f3 37 1d 3e 8a d7 9d 3e
       -0.01736337 -0.0032002379 0.15353374 0.30828506
0002c0 28 78 30 bf e0 3b ad 3c b4 7d 63 3e 2f 9e 92 bc
       -0.68933344 0.021146715 0.2221592 -0.017897693
0002d0 6f 1b 8d 3b ce eb 32 3c 13 66 9e 3c ab 45 ad bc
       0.004306249 0.010920478 0.019335782 -0.021151384
0002e0 1b 2c 0f bc 56 cf a1 bc 26 6a 39 39 29 32 8a 3c
       -0.008738543 -0.019752186 0.00017682518 0.016869621
0002f0 6a f8 a6 3c 06 06 ba bb 70 93 11 3a 25 01 6f bc
       0.020382125 -0.0056769876 0.0005553281 -0.014587675
000300 12 a9 1b bc 94 fa e6 3b 7d 31 aa bc ee cc bc bc
       -0.009500759 0.007048914 -0.020775551 -0.023046937
000310 43 c0 c1 3b e8 3b ca bc 26 51 80 ba 89 11 75 bc
       0.005912812 -0.024686769 -0.0009789809 -0.014957794

layers.2.bias f4 [10]
000000 be 57 38 3d 6a d0 f0 3e 90 62 cf 3e 32 c3 24 bf
       0.045005552 0.47034007 0.40504885 -0.64360344
000010 4a 32 16 3c 59 e0 be 3e ba da c5 bc d0 f7 bc 3b
       0.009167263 0.3728054 -0.024152149 0.0057668462
000020 93 07 d3 3e 11 20 c4 bc
       0.41216716 -0.023941072

layers.4.weight f4 [1, 10]
000000 9f f9 6c be 1e 9e cb bf 1a 4f ab bf 93 8a 1a 40
       -0.23142098 -1.5907629 -1.3383515 2.414708
000010 ef 1a d6 3c 0d 99 5a bf 7b 47 d0 3c 30 cd f1 bc
       0.02613589 -0.85389787 0.02542471 -0.029516786
000020 ab 64 83 bf 34 2f f8 bc
       -1.0265096 -0.030295946
