F16_AeroData/model/Cl.pth (torch, 3951 bytes, 5 tensors)

layers.0.weight f4 [20, 3]
0	0xbe14debe	-0.14538094
1	0x3e8fb3d6	0.2806689
2	0x3e085b85	0.13316162
3	0xbd8b225c	-0.06793663
4	0x3cbee067	0.023300363
5	0xbe2e8798	-0.17043912
6	0x3d3855f2	0.04500384
7	0xbc4f7ae1	-0.012663574
8	0xbeaef174	-0.3416859
9	0xbee891b9	-0.45423678
10	0x3e2de413	0.16981535
11	0x3d0c6e7e	0.03428506
12	0xbec5e3c4	-0.38650334
13	0xbf123636	-0.5711397
14	0xbd71bd35	-0.059018333
15	0x3f4ab165	0.7917693
16	0xbe6178b5	-0.22018702
17	0x3cfa7d5e	0.030577358
18	0xbf159770	-0.584342
19	0xbea56670	-0.32304716
20	0xbcb5392b	-0.022121986
21	0xbf05165b	-0.51987237
22	0x3e4aa6a5	0.19790132
23	0xbd51a1a7	-0.051179554
24	0x3f7b0642	0.98056424
25	0xbe0c1ca6	-0.13682804
26	0xbc22252d	-0.009896559
27	0x3f497491	0.7869349
28	0x3dc553f6	0.09635155
29	0xbb9aa065	-0.0047188275
30	0x3f3c3e0f	0.73532194
31	0x3d9dbd15	0.0770208
32	0xba2b687a	-0.00065387005
33	0x3dc1a6dd	0.09455655
34	0x3db22540	0.08698511
35	0xbe03136c	-0.12800378
36	0xbe81e9c2	-0.25373656
37	0xbeb28147	-0.34864256
38	0xbba1b274	-0.0049346033
39	0x3f8b5cff	1.0887755
40	0xbe720ee3	-0.23638491
41	0xbb8d699e	-0.004315569
42	0x3e678f8a	0.2261335
43	0x3e952d18	0.29135966
44	0xbd562626	-0.052282475
45	0x3e0e723a	0.13910761
46	0x3f045203	0.5168764
47	0xbc7b2072	-0.01532756
48	0x3c1bff2c	0.009521287
49	0x3e9fd167	0.3121445
50	0xbdaa4bae	-0.08315216
51	0x3b9bb6bb	0.004752008
52	0x3f15202a	0.58252203
53	0xbbaa6703	-0.0052002682
54	0x3f76dff2	0.96435463
55	0x3ea485d0	0.3213334
56	0x3c394905	0.011308913
57	0xbf5fc8e5	-0.87415916
58	0x3ecfb3aa	0.4056676
59	0xbc8155e8	-0.015788034

layers.0.bias f4 [20]
0	0xbe57397f	-0.21018027
1	0xbdf75789	-0.12077243
2	0x3d05dd8b	0.032681983
3	0xbed56e41	-0.4168568
4	0xbd93ee6d	-0.072232105
5	0x3f0784c3	0.52936953
6	0x3e85fdca	0.26170188
7	0xbeffcfa6	-0.4996311
8	0x3e5f22ba	0.21790591
9	0x3e0943b4	0.13404733
10	0xbdf6bf8c	-0.120482534
11	0x3d4e0d73	0.050305795
12	0xbf305bed	-0.6889027
13	0xbdeeaa94	-0.11653629
14	0x3e90b106	0.28260058
15	0xbe1ffc5d	-0.15623613
16	0xbe6cae01	-0.23113252
17	0x3e0b5446	0.13606367
18	0x3f5044e5	0.81355125
19	0xbe1f8867	-0.15579377

layers.2.weight f4 [10, 20]
0	0x3d3dc418	0.046329588
1	0x3d97e0cc	0.074159235
2	0x3e039bb6	0.12852368
3	0x3edd6365	0.43239895
4	0xbdecda89	-0.1156512
5	0x3f12f1e0	0.5740032
6	0xbe2b8803	-0.16751103
7	0x3ef79cd8	0.4836185
8	0xbf06e672	-0.5269538
9	0x3e5e3b2b	0.21702258
10	0xbefc70a2	-0.49304682
11	0xbe02b6b6	-0.12765011
12	0xbee7cf17	-0.45275185
13	0x3f16004c	0.58594203
14	0x3e229a4d	0.15879174
15	0xbbabeede	-0.005246981
16	0x3cbb39c2	0.02285469
17	0xbe5c01fc	-0.21485132
18	0xbee64480	-0.44974136
19	0x3e87855f	0.26468942
20	0xbd025ce1	-0.031826857
21	0x3cb4ed6c	0.022085868
22	0x3df43a38	0.11925167
23	0xbbd064ff	-0.006359696
24	0xbed511e3	-0.4161521
25	0xbc50f374	-0.012753356
26	0xbf2a026c	-0.66409945
27	0xbc73072c	-0.014833253
28	0x3e74fcff	0.23924635
29	0x3e16887e	0.14700505
30	0x3d0687d1	0.03284437
31	0x3d397d86	0.045285724
32	0xb7cdce28	-2.4533903e-05
33	0xbe841a56	-0.25801343
34	0x3dcf12ff	0.10111045
35	0x3c0a52ee	0.008442624
36	0xbd967c1e	-0.07347892
37	0xbcd93e1f	-0.02651888
38	0x3f0b61c8	0.5444608
39	0xbec0bc0c	-0.37643468
40	0xbd016a95	-0.031595785
41	0x3e1dbd4a	0.1540424
42	0x3c33a1b0	0.010963842
43	0x3ca1df18	0.0197597
44	0x3ebb5e7e	0.3659553
45	0x3ede2324	0.43386185
46	0xbd8bb438	-0.068214834
47	0x3bed07f9	0.0072336164
48	0xbdf6dde6	-0.120540425
49	0x3de66a68	0.11250764
50	0xbe06984a	-0.13144031
51	0xbda817c2	-0.082076564
52	0xbea0467b	-0.31303772
53	0x3ed83c58	0.4223354
54	0x3d7f5d65	0.062344927
55	0xb80998c8	-3.2805634e-05
56	0xb9045366	-0.0001261957
57	0xbd5339f2	-0.051568933
58	0xbf1f4244	-0.6221049
59	0xbd6246b4	-0.05524321
60	0x3d939fe3	0.0720823
61	0x3d067fc0	0.032836676
62	0x3dcd709c	0.10031244
63	0xbe90cdff	-0.28282163
64	0x3d8e93d5	0.069617905
65	0xbe8c489e	-0.27399153
66	0x3dc83b41	0.09776927
67	0xbea25c62	-0.31711107
68	0x3e78d79c	0.24300998
69	0xbe257da6	-0.16161212
70	0x3e1fe08c	0.15613002
71	0x3d86f42d	0.065895416
72	0x3e96a277	0.29420826
73	0xbe690776	-0.22756752
74	0x3d10d4b8	0.035359114
75	0x3cb32882	0.021869902
76	0xbd83118d	-0.06399832
77	0x3ea20bf1	0.31649736
78	0x3f16ab83	0.58855456
79	0x3e74456e	0.2385461
80	0xb82645ce	-3.9642495e-05
81	0x37da6200	2.603326e-05
82	0xb7f2931a	-2.8917148e-05
83	0x37d08e3e	2.4861769e-05
84	0xb823ac1b	-3.9022514e-05
85	0x380ea80f	3.4011955e-05
86	0xb83b0876	-4.4592154e-05
87	0x37c0b0c6	2.29705e-05
88	0x36ac2414	5.1301995e-06
89	0xb84b6846	-4.8496084e-05
90	0xb820cc23	-3.833709e-05
91	0xb8605b69	-5.3490894e-05
92	0x36d172cb	6.242049e-06
93	0xb852f181	-5.029282e-05
94	0x3839a9e2	4.4265653e-05
95	0x376343de	1.3546056e-05
96	0x37f578f4	2.92626e-05
97	0xb6e1da11	-6.730909e-06
98	0xb7d0f402	-2.4909157e-05
99	0xb8072c69	-3.222787e-05
100	0xbd1f4392	-0.0388828
101	0x3d87173b	0.06596228
102	0x3e31ebeb	0.17375152
103	0x3d3c919d	0.046037305
104	0x3dcba1e8	0.099429905
105	0x3e927923	0.28608045
106	0x3dad114b	0.08450564
107	0xbde12977	-0.10994237
108	0xbe90f147	-0.2830908
109	0x3e784f73	0.24249057
110	0xbe36b4c1	-0.1784239
111	0x3c3d66b9	0.0115601355
112	0xbe9cf3aa	-0.3065465
113	0x3e5987ca	0.21243206
114	0x3e0469ea	0.12931028
115	0xbd671586	-0.05641701
116	0xbde33120	-0.11093354
117	0xbe55307f	-0.20819281
118	0xbe32d61d	-0.1746449
119	0xbee17525	-0.44034687
120	0xb7c2ac85	-2.3206938e-05
121	0xb749a21e	-1.2018279e-05
122	0xb7bff3fc	-2.2882588e-05
123	0xb7c97712	-2.4016514e-05
124	0x36b539e9	5.400962e-06
125	0x3724690a	9.799618e-06
126	0xb70db45a	-8.446246e-06
127	0x382565cd	3.9433875e-05
128	0x364aae6a	3.0201868e-06
129	0xb8388268	-4.399047e-05
130	0x37c0e57d	2.2995047e-05
131	0xb7e1c5cd	-2.6914198e-05
132	0x366d2705	3.5338464e-06
133	0x3554780d	7.915085e-07
134	0x384a106f	4.8175858e-05
135	0x3795474e	1.7795388e-05
136	0xb84a6054	-4.8250266e-05
137	0xb84329dc	-4.6530608e-05
138	0xb7d8f3d8	-2.5862755e-05
139	0x37678ff7	1.3802192e-05
140	0x3da2fcc4	0.079583675
141	0x3d14718d	0.036241103
142	0x3de2856c	0.110606045
143	0xbe9fa324	-0.31179154
144	0x3d9d2812	0.076736584
145	0xbe9a9a21	-0.30195716
146	0x3ddc9817	0.10771196
147	0xbeb2f7b6	-0.34954613
148	0x3e8922c1	0.26784328
149	0xbe366201	-0.17810823
150	0x3e303298	0.172068
151	0x3d94fd0b	0.072748266
152	0x3ea60d69	0.32432106
153	0xbe8075de	-0.25089926
154	0x3d1ff87a	0.039055325
155	0x3cc4c0bf	0.02401769
156	0xbd909521	-0.07059694
157	0x3eb29b62	0.34884173
158	0x3f261673	0.64878005
159	0x3e86b347	0.26308653
160	0xbcaa8a63	-0.020817941
161	0x3cad316a	0.021141727
162	0x3da0ddb7	0.07854789
163	0x3c938341	0.018006923
164	0x3ccd6ca0	0.02507621
165	0x3e348cfc	0.17631906
166	0x3d31b6db	0.043387275
167	0xbdc287ac	-0.094985336
168	0xbe3ba920	-0.18326235
169	0x3e0882c0	0.13331127
170	0xbdec85c5	-0.11548952
171	0xbba59478	-0.0050530992
172	0xbe4bc341	-0.19898702
173	0x3e0e0292	0.13868168
174	0x3db1d3a8	0.08682948
175	0xbd80d11a	-0.06289883
176	0xbdbce1e4	-0.09222773
177	0xbdf615f9	-0.1201591
178	0xbe05e8f7	-0.1307715
179	0xbe89e0e7	-0.269294
180	0xbec14143	-0.37745103
181	0x3de057ff	0.10954284
182	0x3e4e3473	0.20137195
183	0xbdb09027	-0.08621245
184	0xbed0154f	-0.40641257
185	0x3edd5f4f	0.43236777
186	0xbe7fa32a	-0.24964586
187	0xbe435406	-0.19075021
188	0x3f1799b4	0.5921891
189	0xbf1a7b12	-0.6034404
190	0x3ebe6e42	0.37193495
191	0x3bde193e	0.0067779114
192	0xb9133493	-0.00014038598
193	0xbf1e2bfc	-0.61785865
194	0xbec056e2	-0.37566286
195	0xbf0c9605	-0.5491641
196	0xbeaf6a3a	-0.34260732
197	0xbe085950	-0.1331532
198	0x3d260624	0.0405332
199	0x3f15355c	0.58284545

layers.2.bias f4 [10]
0	0x3f046bfc	0.5172727
1	0xbce21114	-0.027596034
2	0xbd764e3a	-0.060133196
3	0x3ddeb1ae	0.108737335
4	0xb862f2bb	-5.410866e-05
5	0x3f1deb9a	0.61687624
6	0xb8556bd2	-5.0883573e-05
7	0x3df57a22	0.119861856
8	0x3ee4927b	0.44643006
9	0x3e56cb57	0.20976005

layers.4.weight f4 [1, 10]
0	0x3fc3af32	1.528784
1	0x3f8799f4	1.0593858
2	0x3f821740	1.0163345
3	0xbf7966e3	-0.9742262
4	0x37bdb147	2.2613107e-05
5	0x3f818b58	1.0120649
6	0x3856ce66	5.12138e-05
7	0xbf89768f	-1.0739306
8	0x3f2b24c5	0.6685298
9	0xbfcf8944	-1.6213765
