F16_AeroData/model/Cnp.pth (torch, 3775 bytes, 5 tensors)

layers.0.weight f4 [20, 1]
3.2423735 -0.44002995 -0.16170447 -1.149679 0.03150873 -0.8655317 -0.4643957 -0.49159512
-0.69428885 -0.058921803 -2.2174969 0.002855697 -0.009089537 0.106178224 -1.5438119 -0.044151824
-0.014001758 2.0510375 0.081254184 0.12953638
00000000: 0c83 4f40 9b4b e1be db95 25be ae28 93bf
00000010: 4c0f 013d 7c93 5dbf 46c5 edbe 5bb2 fbbe
00000020: eabc 31bf fd57 71bd 78eb 0dc0 a526 3b3b
00000030: 48ec 14bc f873 d93d a19b c5bf 8bd8 34bd
00000040: a167 65bc 3344 0340 9868 a63d 2fa5 043e

layers.0.bias f4 [20]
-1.0202446 -0.0846149 -0.15536644 1.2788141 0.74715763 -0.26265126 -0.5702921 0.015395555
-0.15240592 0.98817974 0.69527537 -0.021862704 -0.094870545 0.68692386 1.2157655 -0.105185546
-0.051790852 -0.96333414 0.5534607 1.1998929
00000000: 6097 82bf 944a adbd 6118 1fbe 2eb0 a33f
00000010: b945 3f3f 3a7a 86be aafe 11bf a33d 7c3c
00000020: 4c10 1cbe 59f9 7c3f 91fd 313f 6a19 b3bc
00000030: 7d4b c2bd 3eda 2f3f 349e 9b3f 856b d7bd
00000040: a522 54bd 119d 76bf 9aaf 0d3f 1796 993f

layers.2.weight f4 [10, 20]
-0.24545766 0.27964732 0.035567448 -0.051913362 0.4200895 0.6291798 -0.023653077 -0.38711035
0.4688466 0.4881971 -1.0768913 0.012164642 -0.0017542123 0.45642602 -0.26729316 0.008487668
-0.02054253 -1.8283812 0.36192024 0.7255737 -1.4490366 0.00054931577 -0.003717187 0.061465025
0.07917008 -0.045290805 0.06731379 0.102762185 -0.024504399 0.13321348 -1.0725474 0.013154383
-0.0001648239 0.10687938 0.0074435966 0.02121907 0.008329397 -0.011146221 0.0705564 0.17351745
-2.2254124 -0.034895957 0.04880066 0.094742544 0.1569834 -0.073687516 0.06413699 0.16447784
-0.035662778 0.18018518 -1.6578503 0.014662444 0.012919494 0.13109517 0.020388482 0.01445456
-0.012429448 -0.025391959 0.10748051 0.25959134 -0.012548391 0.03719564 0.033683155 -0.006847428
-0.046703987 0.022143781 0.022057403 0.017741498 0.05016133 -0.058558457 0.05349272 0.020782588
0.0044525918 -0.007802746 0.02024274 -0.0054530944 0.01315814 -0.019882975 -0.0342093 -0.06529668
0.5809986 0.102283046 -0.15899397 0.29508403 -0.1394904 0.19564441 -0.59566975 0.09291188
0.16773596 -0.12293215 0.5882679 -0.01709247 -0.0133674275 -0.109859146 -0.54556936 0.0045619453
-0.02128499 0.41243538 -0.08330459 -0.20850126 -0.96322125 -0.273895 0.011289447 -0.56033707
0.44172657 -0.4930128 0.013031244 0.090194896 -0.4077815 0.61990404 0.076774 -0.020809136
-0.01614912 0.41424856 -0.7133075 0.015555462 -0.014335494 0.22418727 0.3259515 0.7042745
-0.000638063 0.13794442 0.11002416 -0.08937115 -0.19440597 0.28639477 0.33091298 0.15858519
0.23045948 -0.22700943 0.28724483 -0.0028224245 -0.011520411 -0.19853358 -0.019267488 -0.002083175
0.0063070524 -0.020770889 -0.17560129 -0.36192393 -0.0113333855 0.10629701 0.07937131 -0.048620544
-0.14997366 0.18539955 0.19988804 0.07986907 0.15260324 -0.18143366 0.18672375 0.01037607
0.019080142 -0.12711005 -0.0072796806 0.0019371442 -0.0057837195 -0.017818326 -0.10250639 -0.2375512
1.2435234 -0.0054068444 0.0068099666 0.053085044 -0.1899264 0.01690628 -0.008198277 -0.031209297
0.023289466 -0.29372853 0.038596716 -0.0030050047 0.0145427 -0.15475075 -1.7732624 -0.01617181
0.015766123 0.795603 -0.13624142 -0.26333785 1.4795293 -0.023986468 0.023814462 -1.6068658
-0.36757576 0.009224674 0.0027284645 0.0070887376 -0.008657157 -0.5189296 0.018664688 0.0044690296
0.013675456 -0.2782622 -0.010930931 -0.0016523914 0.003123822 0.96559304 -0.22562665 -0.540836
00000000: 4159 7bbe ef2d 8f3e 2caf 113d 1ba3 54bd
00000010: f915 d73e ed11 213f 19c4 c1bc 5433 c6be
00000020: a90c f03e f8f4 f93e 93d7 89bf 354e 473c
00000030: 99ed e5ba acb0 e93e a6da 88be dc0f 0b3c
00000040: cf48 a8bc 6508 eabf 9c4d b93e 33bf 393f
00000050: 087a b9bf f5ff 0f3a 0d9c 73bb c0c2 7b3d
00000060: ec23 a23d da82 39bd d0db 893d fb74 d23d
00000070: 73bd c8bc 1d69 083e 3c49 89bf 7b85 573c
00000080: 94d4 2cb9 94e3 da3d 6ae9 f33b 9dd3 ad3c
00000090: 0678 083c a49e 36bc e07f 903d 8fae 313e
000000a0: 286d 0ec0 10ef 0ebd 33e3 473d 6108 c23d
000000b0: 42c0 203e 7be9 96bd 415a 833d e16c 283e
000000c0: 2213 12bd 7782 383e 7034 d4bf bf3a 703c
000000d0: 49ac 533c d03d 063e bf05 a73c d2d2 6c3c
000000e0: e2a4 4bbc cc02 d0bc be1e dc3d 28e9 843e
000000f0: c497 4dbc 755a 183d 59f7 093d 6460 e0bb
00000100: ae4c 3fbd e066 b53c bab1 b43c 9e56 913c
00000110: f775 4d3d feda 6fbd 2f1b 5b3d 3f40 aa3c
00000120: 0ce7 913b 2dae ffbb 1ad4 a53c dfaf b2bb
00000130: 3d95 573c 9fe1 a2bc 0d1f 0cbd 44ba 85bd
00000140: 53bc 143f c679 d13d 51cf 22be 4115 973e
00000150: 92d6 0ebe 0257 483e d07d 18bf 9548 be3d
00000160: fac2 2b3e dac3 fbbd ba98 163f 8205 8cbc
00000170: 0e03 5bbc d5fd e0bd 6faa 0bbf 5f7c 953b
00000180: dc5d aebc bb2a d33e 999b aabd 5b81 55be
00000190: ab95 76bf f73b 8cbe 5ff7 383c 4072 0fbf
000001a0: fc29 e23e 2c6c fcbe 0081 553c 1ab8 b83d
000001b0: bdc8 d0be 08b2 1e3f b03b 9d3d ec77 aabc
000001c0: 294b 84bc 6318 d43e 529b 36bf 56dc 7e3c
000001d0: 6bdf 6abc 5991 653e 1de3 a63e 554b 343f
000001e0: af43 27ba 4d41 0d3e 5954 e13d 3908 b7bd
000001f0: 5c12 47be 56a2 923e 6d6d a93e 2864 223e
00000200: 92fd 6b3e 2975 68be c111 933e 6df8 38bb
00000210: 1bc0 3cbc 634c 4bbe dad6 9dbc e085 08bb
00000220: 64ab ce3b b627 aabc d3d0 33be 184e b9be
00000230: aaaf 39bc 3fb2 d93d 6d8d a23d 5626 47bd
00000240: b292 19be 61d9 3d3e 73af 4c3e 6592 a33d
00000250: 0644 1c3e bfc9 39be 8334 3f3e 6400 2a3c
00000260: f54d 9c3c 2329 02be 638a eebb c6e7 fd3a
00000270: 5b85 bdbb bdf7 91bc dfee d1bd 9f40 73be
00000280: c62b 9f3f e62b b1bb 2426 df3b b46f 593d
00000290: 117c 42be 0a7f 8a3c 1152 06bc a4aa ffbc
000002a0: 8dc9 be3c 9663 96be 9717 1e3d 9def 44bb
000002b0: 8144 6e3c fb76 1ebe 43fa e2bf be7a 84bc
000002c0: f527 813c a3ac 4b3f df82 0bbe 38d4 86be
000002d0: 3761 bd3f 457f c4bc 8c16 c33c c7ad cdbf
000002e0: e432 bcbe 1623 173c 0ad0 323b a448 e83b
000002f0: c0d6 0dbc 92d8 04bf b0e6 983c f070 923b
00000300: 050f 603c 6278 8ebe a617 33bc 0e95 d8ba
00000310: 09b9 4c3b 1b31 773f ac0a 67be 3a74 0abf

layers.2.bias f4 [10]
0.6100602 0.1363072 0.23456018 -0.06335432 -0.1566765 0.579805 -0.2933565 -0.17881948
-0.2220662 -0.4932222
00000000: e82c 1c3f 1d94 0b3e 8b30 703e e9bf 81bd
00000010: ce6f 20be 1a6e 143f d332 96be 741c 37be
00000020: 5265 63be 9f87 fcbe

layers.4.weight f4 [1, 10]
2.5680184 -1.8160383 -2.7949953 -0.13753895 1.2044955 -1.9128802 -0.8390047 -0.5483963
2.2982202 -2.5299978
00000000: 6a5a 2440 f173 e8bf 34e1 32c0 03d7 0cbe
00000010: e92c 9a3f 42d9 f4bf 03c9 56bf b363 0cbf
00000020: 0a16 1340 7ceb 21c0
