F16_AeroData/model/Cy.pth (torch, 3895 bytes, 5 tensors)

layers.0.weight f4 [20, 2]
0.42501852 -0.3876303 -0.16095544 -0.15574108 0.5078411 0.38263142 -0.04105043 0.081014626
0.15431297 -0.20523848 0.294177 -0.20680307 0.56605333 0.11029281 1.0075762e-07 -3.6877495e-07
-0.40993145 -0.22847635 -0.31993264 0.13132724 -0.10033421 0.19722413 -0.4221196 0.009396379
-0.56985307 0.12777826 -0.40601248 -0.08292484 -0.6559605 -0.4729548 -0.07270956 0.15273371
0.31155556 0.31287402 -0.8599386 0.34564212 -0.43372723 -0.14856647 -0.252928 0.2034564
00000000: 079c d93e 7b77 c6be 81d1 24be 977a 1fbe
00000010: e001 023f 44e8 c33e 7f24 28bd ffea a53d
00000020: 3804 1e3e 092a 52be 5e9e 963e 2fc4 53be
00000030: dfe8 103f 32e1 e13d 1660 d833 0bfc c5b4
00000040: 89e2 d1be b4f5 69be 36ce a3be a67a 063e
00000050: 067c cdbd 1ff5 493e 0f20 d8be 45f3 193c
00000060: e4e1 11bf 4ed8 023e dee0 cfbe 80d4 a9bd
00000070: 07ed 27bf 2227 f2be c0e8 94bd 3a66 1c3e
00000080: 3684 9f3e 0631 a03e f024 5cbf 01f8 b03e
00000090: 7f11 debe cf21 18be c77f 81be e056 503e

layers.0.bias f4 [20]
0.055444475 -0.36316475 0.13385999 -0.018090073 -0.13218082 -0.02541252 0.7559663 -8.079723e-07
-0.14603879 0.2035685 -0.04390417 0.184246 -0.77063406 0.5440023 -0.030092184 0.041490257
-0.35509947 -0.29998252 -0.26983768 0.23628701
00000000: bf19 633d bbf0 b9be 9812 093e a231 94bc
00000010: 695a 07be eb2d d0bc 0287 413f 6fe3 58b5
00000020: 318b 15be 4374 503e dcd4 33bd fcaa 3c3e
00000030: 4648 45bf bc43 0b3f e283 f6bc b0f1 293d
00000040: 99cf b5be 4f97 99be 2a28 8abe 39f5 713e

layers.2.weight f4 [10, 20]
-4.7682676e-07 1.6309569e-07 3.7644813e-08 -1.4048514e-07 -5.3661796e-07 -7.292757e-07 2.0327131e-07 5.2853625e-07
7.75553e-08 -2.7025344e-08 2.949256e-07 2.162972e-07 7.473547e-07 -5.4205077e-07 6.1782714e-07 -4.3992875e-07
-6.4318743e-07 1.5698609e-07 -7.6392564e-07 -8.9633346e-07 0.0004367985 6.461036e-07 -0.0005648997 -1.8000213e-07
0.00024156492 0.00024964262 -0.000118810596 -5.4285687e-07 -0.00065966335 -1.1415031e-05 -1.3491368e-07 -0.0006807355
9.61608e-09 -2.0461364e-05 -0.00010790448 -7.8111555e-07 6.491203e-07 8.136928e-08 2.223041e-08 -1.5163079e-06
0.20473906 -0.08120023 0.14368892 -8.975332e-07 0.10717377 0.08578724 -0.13248092 6.7735033e-07
0.07550342 -0.09830744 -5.4806964e-07 0.07758624 5.3840125e-07 -0.14529143 0.22403987 -4.900953e-07
-0.04851603 -0.1761744 -0.123030014 -0.107175976 -0.07637767 -0.2553072 -0.05573539 -0.033724245
0.071689144 -0.17859994 -0.6686459 -1.5799094e-07 0.42208418 -0.33113363 -0.08099294 0.21405414
0.58610934 0.38640833 0.5754018 -0.14378646 7.868167e-07 0.115348876 0.36107153 -0.35295305
-0.14709228 0.11395166 0.110004984 -0.018338623 -0.12848459 -0.09297242 0.25166604 3.7260602e-07
-0.09927362 0.09819207 -0.04514687 -0.016286418 -0.25880563 0.121434845 0.035204697 0.02959343
-0.16881752 0.3227065 -0.11736794 0.067259185 -0.35069895 0.1942061 0.39096043 -0.031553328
-0.08935856 -0.19057582 0.26649666 2.6863012e-07 0.12530215 0.0590481 -0.0776776 0.16138625
-0.44636673 0.096027054 0.2161184 0.06767028 -0.2942512 0.55726504 0.014443154 0.05216334
-0.056050383 0.043423615 0.041922785 -0.0069871508 -0.048961524 -0.035429925 0.095894665 -2.0483436e-07
-0.037822846 0.037414756 -0.017203787 -0.0062027494 -0.0986184 0.04627929 0.013424504 0.011277359
-0.06432724 0.12296641 -0.04472687 0.02562787 -6.263214e-07 3.0462866e-07 -1.2562736e-08 -2.7933086e-07
-2.7051075e-07 5.846788e-07 -4.6321253e-07 7.665612e-07 7.6339255e-08 -5.4719396e-07 -5.057873e-07 3.0291105e-07
7.830691e-07 -7.499362e-07 -4.6344138e-07 -7.204426e-08 1.6666209e-07 1.7978823e-07 5.5407236e-07 3.9103e-07
-0.21400176 0.23541042 0.45696488 -0.038347054 -0.19626117 -0.12035164 0.44664446 -2.8732666e-07
0.17227557 0.145566 -0.09439043 0.30745834 -0.5411541 0.083692 0.20743653 0.062082753
-0.35297078 0.6750363 -0.33557358 0.12758452 0.3042578 5.033125e-07 0.13479361 0.067984395
-0.017145079 0.17301895 0.2758243 -2.6785017e-07 -0.01964374 -0.059883125 0.1650584 -0.208963
2.4177163e-07 -0.5277102 -0.4374585 -0.0060843974 0.26305893 -0.01974971 -4.1242106e-07 -2.7924778e-05
00000000: 92fe ffb4 671f 2f34 e9ae 2133 43d8 16b4
00000010: 1b0c 10b5 72c3 43b5 cb42 5a34 bce0 0d35
00000020: 7a8c a633 5c25 e8b2 4456 9e34 523f 6834
00000030: d39d 4835 7281 11b5 c2d8 2535 592f ecb4
00000040: 81a7 2cb5 0290 2834 9210 4db5 919b 70b5
00000050: 1a02 e539 e76f 2d35 c715 14ba 9c46 41b4
00000060: 974c 7d39 77e2 8239 f429 f9b8 d7b8 11b5
00000070: 42ed 2cba 2f83 3fb7 cadc 10b4 6373 32ba
00000080: f833 2532 72a4 abb7 c74a e2b8 daad 51b5
00000090: 353f 2e35 3cbd ae33 30f5 be32 f183 cbb5
000000a0: 1ea7 513e 4e4c a6bd 3023 133e 03ee 70b5
000000b0: ec7d db3d 38b1 af3d 14a9 07be 29d3 3535
000000c0: 89a1 9a3d 6955 c9bd 0f1f 13b5 89e5 9e3d
000000d0: a786 1035 47c7 14be b56a 653e 188f 03b5
000000e0: bfb8 46bd 1067 34be 29f7 fbbd 147f dbbd
000000f0: e56b 9cbd a0b7 82be cb4a 64bd 6f22 0abd
00000100: c2d1 923d e7e2 36be 612c 2bbf 38a4 29b4
00000110: 6b1b d83e 598a a9be a0df a5bd 0231 5b3e
00000120: 430b 163f 50d7 c53e 884d 133f c23c 13be
00000130: a235 5335 083c ec3d 5ede b83e 43b6 b4be
00000140: 5c9f 16be 7d5f e93d 4b4a e13d e13a 96bc
00000150: 7791 03be 5368 bebd 5fda 803e 950a c834
00000160: f84f cbbd ed18 c93d edeb 38bd 186b 85bc
00000170: 2c82 84be d5b2 f83d cd32 103d ec6d f23c
00000180: 80de 2cbe c939 a53e 9a5e f0bd 2fbf 893d
00000190: d08e b3be f7dd 463e f72b c83e 103e 01bd
000001a0: 9f01 b7bd 4f26 43be 4072 883e 3e38 9034
000001b0: 354f 003e 6cdc 713d 6f15 9fbd 7042 253e
000001c0: 2e8a e4be d5a9 c43d 244e 5d3e b796 8a3d
000001d0: 18a8 96be eca8 0e3f fba2 6c3c 3aa9 553d
000001e0: 1695 65bd f6dc 313d 3ab7 2b3d 78f4 e4bb
000001f0: e18b 48bd f81e 11bd 6c64 c43d 71f0 5bb4
00000200: 21ec 1abd 3740 193d f5ee 8cbc 6f40 cbbb
00000210: 72f8 c9bd 5a8f 3d3d 73f2 5b3c acc4 383c
00000220: 00be 83bd d0d5 fb3d 8633 37bd 8af1 d13c
00000230: 7b20 28b5 d88b a334 7fd3 57b2 f1f6 95b4
00000240: b73a 91b4 d2f2 1c35 72af f8b4 afc5 4d35
00000250: f3ef a333 e2e2 12b5 70c5 07b5 c79f a234
00000260: 1934 5235 394f 49b5 e6ce f8b4 c0b6 9ab3
00000270: baf3 3234 d00b 4134 90bb 1435 c1ee d134
00000280: 4723 5bbe 6e0f 713e 4df7 e93e cd11 1dbd
00000290: b0f8 48be ec7a f6bd 95ae e43e e041 9ab4
000002a0: 0269 303e 410f 153e c54f c1bd 2e6b 9d3e
000002b0: 1389 0abf b666 ab3d 3e6a 543e 7c4a 7e3d
000002c0: 96b8 b4be 2ecf 2c3f 4dd0 abbe 84a5 023e
000002d0: aec7 9b3e 5f1b 0735 5607 0a3e 673b 8b3d
000002e0: d673 8cbc e12b 313e d838 8d3e 0ccd 8fb4
000002f0: e9eb a0bc 0248 75bd 1205 293e 66fa 55be
00000300: d7cc 8134 0418 07bf 8ffa dfbe a05f c7bb
00000310: a9af 863e 25ca a1bc b86a ddb4 0140 eab7

layers.2.bias f4 [10]
-1.6514677e-07 -9.846614e-05 -0.09234572 0.30573457 -0.048379235 -0.31430224 -0.01843259 -5.7361393e-07
-0.31459588 -0.07885544
00000000: 3353 31b4 9b7f ceb8 c11f bdbd 3e89 9c3e
00000010: 4e29 46bd 39ec a0be f1ff 96bc 73fa 19b5
00000020: b612 a1be f67e a1bd

layers.4.weight f4 [1, 10]
8.9150575e-07 -0.0012397768 0.5140239 1.4388033 -0.61818314 -1.10072 -0.23555583 8.9744356e-07
-1.3503964 0.91297406
00000000: cf4f 6f35 0280 a2ba 1297 033f b52a b83f
00000010: 4041 1ebf 65e4 8cbf 8c35 71be dae7 7035
00000020: cad9 acbf abb8 693f
