F16_AeroData/model/delta_Cnp_lef.pth (torch, 3919 bytes, 5 tensors)

layers.0.weight f4 [20, 1]
0	0x3f014d3e	0.5050849
1	0x3d337730	0.043814838
2	0x3dff7851	0.124741204
3	0xbc0dbc40	-0.008650839
4	0xbf2f6cbd	-0.68525296
5	0xbe542240	-0.2071619
6	0x3cf1c039	0.029510604
7	0xbe9de5d3	-0.30839404
8	0x3fa1883d	1.2619702
9	0xbe6da8ec	-0.2320897
10	0xbf3f9c75	-0.7484811
11	0x3c9c9912	0.019115958
12	0x3fb9547e	1.447891
13	0x3e88bb4a	0.2670539
14	0x3f27e6ce	0.65586555
15	0xbd4eeba2	-0.050517686
16	0xbeecddcc	-0.46262968
17	0xbe568abf	-0.20951365
18	0x3b3ddf4e	0.0028972211
19	0xbd129a2a	-0.035791554

layers.0.bias f4 [20]
0	0x3ef288c9	0.47369984
1	0x3f101522	0.56282246
2	0x3eff8ecc	0.49913633
3	0x3f289b77	0.6586222
4	0x3e8e9d2e	0.27854294
5	0x3dabb926	0.08384924
6	0xbd9d0eea	-0.0766886
7	0x3ee6f2e3	0.45107183
8	0xbfc01a0c	-1.5007949
9	0x3eadd1a2	0.33949
10	0x3e9c1e23	0.30491742
11	0xbd4dfb74	-0.050288633
12	0xbfad5c00	-1.3543701
13	0xbd28d5da	-0.04121957
14	0xbedfd099	-0.43713835
15	0x3e1bb70a	0.15206543
16	0x3e41bdcb	0.18920057
17	0x3e9cf917	0.3065879
18	0x3eea3309	0.45742062
19	0x3f021a89	0.5082174

layers.2.weight f4 [10, 20]
0	0xbcc4f680	-0.024043322
1	0xbbc7100b	-0.0060749105
2	0xbca655dd	-0.020304615
3	0x3c857d4b	0.016295096
4	0xbca95c6f	-0.020673959
5	0xbc28bb40	-0.01029855
6	0x3c893527	0.016748978
7	0xbb415db8	-0.0029505324
8	0xb9cf9d6c	-0.00039599405
9	0xbc846ff4	-0.016166665
10	0xbc894810	-0.016757995
11	0xbc940133	-0.018066978
12	0xbc0986d3	-0.008393961
13	0x3be2d37e	0.0069221845
14	0xbbf94edb	-0.0076082773
15	0x3c635bc1	0.013876856
16	0x3b0e6e59	0.0021733253
17	0xbc348e3d	-0.01102024
18	0xbc2ed564	-0.0106709935
19	0xbc0bf283	-0.008541706
20	0x3f17f42b	0.59356946
21	0x3ee2d043	0.44299516
22	0x3ed2fe35	0.4120957
23	0x3f03f593	0.5154659
24	0x3df0fe3d	0.11767242
25	0x3cd9d80f	0.026592283
26	0x3bcc488a	0.0062342333
27	0xbecb61d3	-0.3972307
28	0xbfb69aa6	-1.4265945
29	0xbe944041	-0.28955272
30	0x3deb602a	0.11492951
31	0x3cbc4cf9	0.022985922
32	0xbf83ceb3	-1.0297455
33	0xbe48a880	-0.19595528
34	0xbe641d8e	-0.22276899
35	0x3defb652	0.11704697
36	0x3dc081bb	0.09399744
37	0xbe8be545	-0.27323356
38	0x3eb5693f	0.3543186
39	0x3ec89f84	0.391842
40	0xbb8561c7	-0.004070494
41	0x3b754951	0.0037427733
42	0x3ca1ef06	0.019767296
43	0xbc366201	-0.011131764
44	0xba859c95	-0.001019376
45	0x3bba1fc4	0.0056800563
46	0xbc455b36	-0.012045672
47	0xbb9ba3c5	-0.0047497475
48	0x366b0350	3.5019657e-06
49	0xbc02c214	-0.007980842
50	0xbc9403da	-0.018068243
51	0xbc7a7652	-0.015286999
52	0x3b94a223	0.0045359298
53	0xbc4c8737	-0.01248341
54	0x3c657306	0.0140044745
55	0x3c510554	0.012757618
56	0xbc08a2ce	-0.008339597
57	0x3a6f2e74	0.00091240485
58	0xbca6b8ed	-0.020351851
59	0x3c8d70d0	0.017265707
60	0xbc2903d1	-0.010315851
61	0xbc420789	-0.011842617
62	0xbc4cb381	-0.012493969
63	0xbc503d71	-0.012709961
64	0xb9eb0d6f	-0.00044832702
65	0x3cb68539	0.022280322
66	0x3c5558e8	0.013021685
67	0x3c4dbfc2	0.012557926
68	0x3ca10da4	0.019659825
69	0xbb911dcc	-0.004428601
70	0xbbb300aa	-0.0054627256
71	0xbbab2515	-0.0052229264
72	0xbbe4ee88	-0.006986443
73	0x3c8e9405	0.017404566
74	0x3c0c58a1	0.008566053
75	0xbc7bf794	-0.015378851
76	0x3c8da3ad	0.01728996
77	0x3c36f317	0.011166356
78	0xbcc8412a	-0.024445135
79	0xbc3e41cf	-0.01161237
80	0x3ec2ca4d	0.38044968
81	0x3d9ac507	0.07557111
82	0x3e13b036	0.14422688
83	0x3d240908	0.040047675
84	0xbf344b55	-0.7042745
85	0xbe5494a6	-0.2075983
86	0xbcaedede	-0.021346506
87	0xbe55ad1e	-0.2086682
88	0xbf19eaaa	-0.60123694
89	0xbe1ce01d	-0.15319867
90	0xbf48a352	-0.7837421
91	0xbc334367	-0.010941363
92	0xbf323c74	-0.69623494
93	0x3e2d6f77	0.16937052
94	0xbe79826f	-0.24366163
95	0xbcd94b24	-0.026525088
96	0xbef966cb	-0.48711237
97	0xbde96eb0	-0.11398065
98	0x3d04619c	0.03231965
99	0x3c30e478	0.010796659
100	0xbdc095ca	-0.0940357
101	0x3eaa0f48	0.33214784
102	0x3e8045b1	0.2505317
103	0x3ed18cbd	0.40927687
104	0xbe4488b4	-0.19192773
105	0xbd6a2863	-0.057167422
106	0x3cb3614e	0.021896984
107	0x3e5ca873	0.21548633
108	0xbf46f2a8	-0.77714014
109	0x3e175905	0.14780052
110	0xbe6fe94c	-0.2342884
111	0xbc8fe96a	-0.017567355
112	0xbf86b766	-1.0524719
113	0xbd0daa4d	-0.03458624
114	0xbef72c87	-0.4827616
115	0x3dd87571	0.10569275
116	0xbdf392e1	-0.11893249
117	0x3e2425d9	0.16030063
118	0x3e8eed1a	0.2791527
119	0x3e9fce79	0.31212214
120	0xbdc8f381	-0.0981207
121	0x3e8847d3	0.26617298
122	0x3e682e73	0.22673969
123	0x3ea8ca37	0.32966778
124	0xbe28968b	-0.16463678
125	0xbd6d159a	-0.05788193
126	0x3c995d31	0.018721195
127	0x3e4920d5	0.1964143
128	0xbf3465d0	-0.70467854
129	0x3e1ef363	0.15522532
130	0xbe2a1b67	-0.16612016
131	0x3c6df0b1	0.014522717
132	0xbf60957d	-0.877281
133	0xbb4a1826	-0.0030837147
134	0xbec838cc	-0.39105833
135	0x3dd6f404	0.10495761
136	0xbdec26f9	-0.11530871
137	0x3df8b8a0	0.121445894
138	0x3e6a16f9	0.22860326
139	0x3e839405	0.25698867
140	0xbd82204d	-0.06353817
141	0x3e32a8da	0.17447224
142	0x3e06dde2	0.13170579
143	0x3e49eadf	0.19718502
144	0xbde21062	-0.11038281
145	0xbd31e769	-0.04343358
146	0x3cb03a58	0.021512195
147	0x3de2b50b	0.110696875
148	0xbee17e65	-0.44041744
149	0x3dd85cc0	0.10564566
150	0xbdbf4b77	-0.09340566
151	0xbca91842	-0.02064145
152	0xbf0728b0	-0.5279646
153	0xbc443b43	-0.01197702
154	0xbe846292	-0.25856453
155	0x3d4904af	0.049076732
156	0xbd55768b	-0.052115005
157	0x3d71c9f6	0.059030496
158	0x3e153e9d	0.14574666
159	0x3e35df90	0.17761064
160	0xba23e25e	-0.0006251688
161	0xbe5f4d85	-0.21806915
162	0xbe5acc42	-0.2136698
163	0xbe643abf	-0.22288035
164	0x3e8bf9f3	0.27339134
165	0x3dc97099	0.098359294
166	0x3b87e8ea	0.0041476386
167	0x3c14379c	0.009046461
168	0xbcb1855b	-0.021670034
169	0x3c95eaf5	0.018300513
170	0x3e90be4e	0.2827019
171	0xbc631bda	-0.013861621
172	0xb8811427	-6.154953e-05
173	0xbc946d5c	-0.018118553
174	0xbc37b40f	-0.011212363
175	0xbc8da8e6	-0.017292451
176	0x3e1da768	0.15395892
177	0xbc1cf033	-0.009578752
178	0xbe2a6f5b	-0.16644041
179	0xbe1f1705	-0.15536125
180	0xbd4da1a5	-0.050202984
181	0x3deb3107	0.114839606
182	0x3dea4196	0.11438291
183	0x3e2112f0	0.1572988
184	0xbd8c348e	-0.068459615
185	0x3b21b749	0.0024675897
186	0xbc9cedfd	-0.01915645
187	0x3d7eff80	0.062255383
188	0xbe9fd9a0	-0.31220722
189	0x3d9bad6b	0.07601436
190	0xbda3fff9	-0.08007807
191	0x3c216070	0.009849653
192	0xbecca441	-0.39969066
193	0xbcb0eb6e	-0.021596637
194	0xbe413f2a	-0.18871751
195	0x3cfdcd31	0.030981632
196	0xbd88898d	-0.06666861
197	0x3d682931	0.05667991
198	0x3dc7df2a	0.09759362
199	0x3e15cc21	0.1462865

layers.2.bias f4 [10]
0	0xbcc1fc75	-0.023679951
1	0x3f2fec68	0.687201
2	0xbcb76233	-0.022385692
3	0x3b256054	0.0025234418
4	0x3e18e907	0.14932643
5	0x3f077dc5	0.52926284
6	0x3ef278cc	0.47357786
7	0x3e9664f7	0.29373905
8	0xbeab7101	-0.33484653
9	0x3e5c16f4	0.21493131

layers.4.weight f4 [1, 10]
0	0x3c9c224a	0.019059319
1	0x400713a7	2.1105745
2	0x3c98cc33	0.018652057
3	0xbc89f6d0	-0.016841322
4	0xbfca8224	-1.5820966
5	0xbfca5280	-1.5806427
6	0xbface388	-1.3506937
7	0xbf556929	-0.83363587
8	0xbf325eee	-0.696761
9	0xbf1de5b1	-0.61678606
