F16_AeroData/model/delta_Cn_a20_lef.pth (torch, 6373 bytes, 7 tensors)

layers.0.weight f4 [20, 2]
000000 eb a7 d1 bf 42 c6 8a bd a0 81 49 b5 75 21 48 b5
       -1.637937 -0.06776096 -7.5066964e-07 -7.455449e-07
000010 bc c1 0d 3e e7 09 43 bc dd ac 94 3e 36 60 cc bc
       0.13843435 -0.011904216 0.29038134 -0.02494822
000020 79 0e 8c 3d cc 0a 9b bc 75 62 30 bf 5c 42 17 bf
       0.06838698 -0.018926047 -0.68900234 -0.5908563
000030 fc ad 89 bd 48 35 c2 3f 40 d1 01 3f 5b 3b 22 be
       -0.06722638 1.517251 0.50709915 -0.15842955
000040 5b 18 97 3f ff ee e7 3d 84 22 4e bf f4 64 89 3f
       1.1804308 0.11324882 -0.80521417 1.0733933
000050 3f f3 b6 3e 4e 53 18 3f 6f 27 cd 3e 41 f4 80 bf
       0.35732457 0.5950211 0.40069148 -1.007454
000060 b0 19 3e 3f 73 73 88 3f b1 72 d9 3e 40 6a 12 3c
       0.74257946 1.0660232 0.42470315 0.008936465
000070 7d 73 62 3f 0e a5 fc 3b 0b 20 c3 3f 37 70 1e bd
       0.8845747 0.0077101057 1.5244154 -0.038681235
000080 26 48 49 be 99 a6 6d bf 19 cd 20 be f4 e6 09 3f
       -0.19656429 -0.9283233 -0.15703239 0.5386803
000090 fd 24 a2 3e c9 49 81 bf 50 ef 57 3f 2a 18 22 bf
       0.31668845 -1.0100642 0.84349537 -0.6331812

layers.0.bias f4 [20]
000000 9f eb af bf 91 6f 2c b6 0d 5e e8 3d b4 bd 73 3e
       -1.3743781 -2.5694937e-06 0.11346064 0.23802835
000010 b2 3b 88 bc 2b c6 d9 3e 35 76 b0 bf ca 27 6e 3e
       -0.016630027 0.42534003 -1.3786074 0.23257366
000020 7b a9 9c be a7 ec ca be af 37 70 3e b6 44 a0 bf
       -0.30598053 -0.39633676 0.23458742 -1.2520969
000030 56 e3 8e bf 6e 78 7a bd 68 53 f3 bd 6d 66 be bf
       -1.1163127 -0.061150007 -0.11881143 -1.4875008
000040 da 38 8f bf 20 4d 12 3f 61 03 6c bf 95 0a 8e be
       -1.1189225 0.57148933 -0.92192656 -0.27742448

layers.2.weight f4 [20, 20]
000000 42 01 38 be e2 78 53 35 99 62 10 be db 64 97 be
       -0.1796923 7.8779533e-07 -0.14100112 -0.29569134
000010 e0 5c 6f b8 80 38 6b 3d cd d1 19 3e 86 36 dc be
       -5.7068537e-05 0.05742693 0.15021439 -0.43010348
000020 26 34 d4 3d e7 7c 0d 3f 93 0d a2 bd 68 3f c9 bc
       0.10361509 0.5526871 -0.07912745 -0.024566367
000030 5e ee e6 bd 21 44 98 3c 38 40 1d 3d 51 09 b7 34
       -0.11275934 0.018587174 0.038391322 3.4093185e-07
000040 a3 74 96 3e d1 2b 29 bd 3b c5 d1 3d 10 a9 3f be
       0.29385862 -0.041301552 0.10242697 -0.18716836
000050 ee a7 8d 3d cd a8 06 35 55 de 93 3d ff f6 1a 3e
       0.06916796 5.016453e-07 0.07220141 0.15133284
000060 62 b1 15 bd 95 aa a0 3e 7a 6d 2a 3d cb 45 12 3e
       -0.03654612 0.31380144 0.04160831 0.14284436
000070 37 0a 46 bf b6 12 2f bd 79 e7 8d 3d 58 28 02 bd
       -0.77359337 -0.042742454 0.069289155 -0.031776756
000080 ec a0 0b 3e f1 f2 62 be d1 3d ea be 71 24 a8 b7
       0.13635606 -0.22162987 -0.45750287 -2.004413e-05
000090 ad e9 a3 bc 7e 99 55 3e e7 6f 0e bd 22 e8 95 be
       -0.020008886 0.20859334 -0.034774687 -0.29278666
0000a0 e9 89 16 3f 00 eb 82 34 a4 6a 2c 3d e7 18 b5 3d
       0.58804184 2.4385372e-07 0.042093888 0.0884264
0000b0 c4 a0 46 bb dd 64 17 bf f9 37 5c 3f 82 6d 79 3e
       -0.0030308226 -0.5913828 0.8602291 0.2435818
0000c0 3b ba 82 3e 0d 4b 05 3e 91 61 52 bc 6d 86 18 bf
       0.25532708 0.13016911 -0.012840644 -0.5958012
0000d0 6a 08 96 be 35 ae d4 3d 20 ae 5d 3e 3d ae e0 3d
       -0.29303294 0.1038479 0.21648455 0.10970733
0000e0 8e 04 21 3a 5b 17 2a be 91 1c dc be b6 5c c8 3d
       0.00061423413 -0.16610472 -0.42990544 0.09783308
0000f0 d7 55 bc 3d bf 84 2d 35 ce 94 4e 3b 56 fe d3 3b
       0.0919606 6.4640693e-07 0.00315218 0.006469528
000100 d4 2f 98 ba 0d 2c 1b be 45 32 12 3a 26 22 96 3d
       -0.0011610934 -0.15153523 0.0005576949 0.07330732
000110 94 1a ad 3d 4b 9d f7 be ca ae bd be 21 92 de 3d
       0.08452335 -0.48362193 -0.37047416 0.108677156
000120 31 de 74 bf b5 9e 8d 3d ee b6 0f 3e 55 96 25 bf
       -0.9565154 0.069150366 0.14034626 -0.64682513
000130 d4 e0 b3 be 07 59 f8 bc a3 70 0c be 53 4b 49 3e
       -0.35132468 -0.030315889 -0.13714842 0.1965764
000140 ca bd c4 3e 16 fd b0 34 19 22 1e bb 3c 20 a9 bb
       0.38426048 3.29667e-07 -0.002412921 -0.0051613133
000150 c5 d5 c2 32 77 15 5a 3d a2 d3 bf 37 79 df 99 bb
       2.2681784e-08 0.053243127 2.2867524e-05 -0.0046958295
000160 96 a5 53 34 c1 e9 02 bf ef 39 b8 b4 b0 51 54 bd
       1.9711146e-07 -0.5113793 -3.4314823e-07 -0.051835716
000170 a8 aa d8 34 8b 89 09 34 8a fb ba b4 1a f2 3a b5
       4.0357304e-07 1.2809157e-07 -3.4828219e-07 -6.9642704e-07
000180 8e 39 9a 3d b4 a8 85 be 46 e4 eb 3c f2 42 3b bb
       0.07530509 -0.26105273 0.028795373 -0.0028573838
000190 91 63 81 3f 97 6b b1 34 3d 80 a5 bb ac 36 31 bc
       1.010851 3.30471e-07 -0.0050506876 -0.010816257
0001a0 cf 40 7c 34 2e 65 24 3e 2f 2c 0b 3e 90 7a ff bb
       2.3492906e-07 0.16054222 0.13591073 -0.007796593
0001b0 46 d8 9f b3 ae 1f 86 bd d0 82 85 be ad 3c b2 bd
       -7.4433544e-08 -0.06549011 -0.26076365 -0.08702979
0001c0 40 67 e4 b8 c3 ad 0c b5 28 27 1f b4 08 2d 19 b5
       -0.00010891119 -5.240692e-07 -1.4822274e-07 -5.706247e-07
0001d0 e7 df fc 3c 79 70 31 be 6c 51 01 be 75 31 60 bb
       0.030868484 -0.17328061 -0.12628716 -0.0034209166
0001e0 aa 1b 0c be 8a 5c 98 34 3c f5 8e ba f9 4f 24 bb
       -0.13682428 2.8379537e-07 -0.0010906826 -0.0025072081
0001f0 9a 81 83 3b 63 73 84 bc 26 ef 69 ba 52 38 3b 3e
       0.0040132524 -0.016168302 -0.00089238805 0.18283203
000200 1c 93 a5 be 71 b1 82 3d bd 1a 62 3d 91 1f 16 bf
       -0.32338798 0.063815005 0.05520128 -0.58641917
000210 f9 74 45 bf 0f cb b9 bd e7 7c 3f be 58 f6 df bd
       -0.7713161 -0.090719335 -0.1869999 -0.10935658
000220 8c 2e 64 3e 93 7e d4 be 52 0f 3f bf da 7f 18 3f
       0.22283381 -0.41502818 -0.7463275 0.59570086
000230 08 ed 20 be a5 7b 0a 35 d4 1e ca 3d 9f 01 54 3e
       -0.1571542 5.158893e-07 0.09869161 0.20703743
000240 01 7c eb bc bb f5 7d 3d 49 5c 25 bf 69 6e 9a 3e
       -0.028745653 0.062001925 -0.6459394 0.3016236
000250 8f f1 00 be 42 2e b1 3e 67 cd 30 be 05 b6 8d 3c
       -0.12592147 0.34605604 -0.17265855 0.017298708
000260 5f b3 20 bf cd 23 7e be 8d 9a 07 bf 5b 92 27 33
       -0.627737 -0.24818344 -0.529702 3.9015827e-08
000270 1f 94 be be 25 5a ac 3e 85 d2 c8 bc 90 20 17 bf
       -0.37222382 0.33662525 -0.024514446 -0.5903406
000280 fc 68 35 3f 56 89 53 b5 3c 00 67 3c d6 8c f2 3c
       0.7086332 -7.8803475e-07 0.014099177 0.029608171
000290 49 ff ab bc 72 59 99 be 92 b6 2f 3e 5c 0d 5d bd
       -0.020995753 -0.29951054 0.17159489 -0.05396782
0002a0 dc a5 5f be 1f 6d 65 be a4 7e e3 3d 54 68 e5 3c
       -0.21840614 -0.22404908 0.11108139 0.02800385
0002b0 7a 73 98 3e a7 17 33 bb 24 16 2f ba cf d2 8f bf
       0.29775602 -0.002732733 -0.00066790194 -1.1236209
0002c0 f6 11 20 bf 3d 66 c4 3c 6c 83 0a 3f f1 aa c6 3e
       -0.62527406 0.023974532 0.54106784 0.38802293
0002d0 97 2a 26 3e 09 0c 10 b5 56 88 86 3d 7e 55 0d 3e
       0.16227184 -5.3661694e-07 0.06568973 0.13802144
0002e0 f8 d6 49 bc ce 31 58 bc 97 48 58 3f 3c 74 b1 3e
       -0.012319319 -0.013195468 0.84485763 0.34658992
0002f0 1d 13 6a be 31 0d ec bd ea ca 06 be 07 73 be 3e
       -0.22858854 -0.115259536 -0.13163343 0.37197134
000300 43 fc c7 3d a1 4a b5 bc 8d 2d 34 bd 23 f2 4b bf
       0.09764912 -0.022130312 -0.043988753 -0.79666346
000310 4d 29 a2 be d7 c8 80 3d 08 03 9d 3e 27 ea a1 3d
       -0.31672135 0.06288307 0.30666375 0.07905989
000320 3d 20 61 b8 60 25 19 b5 c7 c0 bf 3c 78 3d 49 3d
       -5.3674205e-05 -5.705133e-07 0.023407353 0.049130887
000330 b8 80 90 ba ae b4 da be c8 48 5e bf 7f 20 b5 3d
       -0.0011024689 -0.42715973 -0.86829805 0.08844089
000340 45 a8 13 3e 19 d6 2a bf c9 c1 58 3e b2 e4 c2 34
       0.14419658 -0.6673294 0.21167673 3.6301714e-07
000350 7e 81 e9 3c 86 7b de bc 53 eb 74 bd 0a 1d 35 be
       0.02850413 -0.02715851 -0.059794735 -0.17686859
000360 83 3b 96 b4 c2 52 47 3e 53 ae 3a b5 6d 06 16 bf
       -2.7982978e-07 0.19465163 -6.9544075e-07 -0.58603555
000370 91 b3 5e bf 2d 19 26 b5 a8 29 64 3d cc 96 ef 3d
       -0.86992747 -6.1876455e-07 0.05570379 0.11698684
000380 af e3 65 bd 8f 55 a8 be 44 4e 27 bf 9b af 52 3e
       -0.05612534 -0.32877776 -0.653538 0.205748
000390 73 fb c7 3c 78 db 5a 3e e8 ec 01 3f ad f8 c4 3e
       0.024411893 0.21372783 0.50752115 0.38470975
0003a0 42 0a b7 be 8f 7a 9b 3c 31 a5 0b 3d 4c 13 38 bf
       -0.35750014 0.018979339 0.034093086 -0.71904445
0003b0 89 db ef 3d fe 60 6e 3e 93 3e 0f 3f 6a 4c 92 3b
       0.11711795 0.23279187 0.55954856 0.0044646757
0003c0 bd 4b 27 35 0a 23 e8 34 c5 55 bf b4 34 19 4c b5
       6.232256e-07 4.3238862e-07 -3.5638928e-07 -7.60326e-07
0003d0 97 fe 01 b5 ce fb aa b5 10 10 2c 35 c3 15 2d b6
       -4.842672e-07 -1.2739272e-06 6.4098367e-07 -2.5791676e-06
0003e0 c2 4a 08 35 97 d7 92 35 df e1 41 b6 17 83 30 35
       5.0772735e-07 1.0940593e-06 -2.8890715e-06 6.575587e-07
0003f0 e9 f7 82 b4 58 b6 18 b5 6f 0c 89 34 84 45 3c b5
       -2.4394765e-07 -5.688976e-07 2.5527285e-07 -7.0136616e-07

layers.2.bias f4 [20]
000000 43 8e 21 be 1c 20 ec 3e ac 5a 62 be 08 89 11 3f
       -0.15776925 0.46118248 -0.22104901 0.5684972
000010 bd dc 8a be a4 46 0f bf e0 98 e4 3e 0e c8 69 3d
       -0.27121535 -0.55967164 0.44647884 0.057075553
000020 17 e5 68 bd 6d f9 55 bd 42 6a 8d 3e 4b 71 d2 3e
       -0.056859102 -0.052239824 0.2762013 0.4110206
000030 d5 75 d1 b4 92 c1 60 3e 38 4f df 3e 1e ed 52 be
       -3.9015018e-07 0.21948841 0.43615127 -0.20598266
000040 34 2b 72 3d 0f 59 80 be 36 da 92 bf 8a b3 8f be
       0.059123233 -0.25067946 -1.1472843 -0.28066665

layers.4.weight f4 [10, 20]
000000 95 5c 33 3d 7f aa 0f 3e 84 78 8e 3e 5f 4b 5a 3f
       0.043789465 0.14029883 0.2782632 0.8527126
000010 d4 fa b7 3e f3 43 9c 3e 69 fb 4d bc c0 1b 08 be
       0.35933554 0.3052059 -0.012572148 -0.13291836
000020 40 87 8a 3f bf 4f da be c5 50 0b 3f f8 af 08 3e
       1.0822525 -0.42638966 0.5442012 0.13348377
000030 45 5e 48 b5 53 a3 c7 3e 8f 4a 9c bf 10 5c fa 3d
       -7.4642986e-07 0.38991794 -1.2210253 0.12224591
000040 4e 15 8e 3e ce 43 c6 3d 84 c2 87 bd 63 59 09 3f
       0.2775063 0.096809015 -0.06628898 0.5365202
000050 5d bf 4c be e8 a2 bd bd 83 7b 07 3f 99 1f 76 3e
       -0.19994874 -0.092595875 0.5292284 0.24035491
000060 10 23 5c 3e 34 2e 9e 3d 69 f7 ef 3c 64 a7 9e 3e
       0.2149775 0.07723656 0.029292779 0.30987084
000070 83 a7 00 3f ef 7e 1c 3e 27 3a 45 3f 39 35 be 3e
       0.502556 0.15282796 0.7704186 0.3714998
000080 fe ac 84 32 5b 55 18 3f 21 a1 e0 bd ff 5d 0f 3e
       1.544549e-08 0.5950524 -0.10968233 0.140007
000090 20 61 02 3e 33 2c c5 be 50 f2 de be ff 48 e4 be
       0.12732363 -0.38510284 -0.43544245 -0.44586942
0000a0 6f 11 62 3e 57 7a 97 3d 9d b7 c9 3e 54 32 4f 3d
       0.22076963 0.07396381 0.39397898 0.050585106
0000b0 a5 11 70 be 1a c2 5f bf 30 65 16 be 44 17 aa be
       -0.23444231 -0.8740555 -0.14687037 -0.33220875
0000c0 76 19 2d bd be 5e 65 3d 79 3f 4a be 23 33 6e bf
       -0.04226061 0.055998556 -0.19750775 -0.9304678
0000d0 6f 2e 9b 35 8c e7 b0 3e 3a 1e 0b 3e 23 05 9c bd
       1.1561914e-06 0.34551656 0.1358575 -0.07618167
0000e0 25 1e 8d 3e 16 8c a4 3d 5b b9 a8 3e 1f 5d 05 3e
       0.2756206 0.08034532 0.32953915 0.13023804
0000f0 fe 0b a1 3e cd 8a 60 bf 58 b8 3f 3e cd 53 86 3d
       0.31454462 -0.87711793 0.18722665 0.065589525
000100 1b 4c 5a b8 06 1e 39 b9 1a d0 1c be 50 19 6c bf
       -5.204613e-05 -0.0001765416 -0.1531376 -0.92226124
000110 5b 25 ca be 13 43 7b 3f 31 3a 18 bd 79 30 52 3f
       -0.39481625 0.9814922 -0.03716487 0.82105213
000120 28 a2 db 34 f6 d2 38 bf 85 0b 19 3e be 5e c9 38
       4.0909913e-07 -0.721969 0.149458 9.602074e-05
000130 8c e5 81 bf 8a d2 9d 36 08 8d c2 be 2f 20 2a bf
       -1.0148177 4.7034746e-06 -0.37998223 -0.6645536
000140 9e 78 cb 3e df e3 9d 3d 3a b3 52 bd a8 05 99 be
       0.3974046 0.077094786 -0.051440455 -0.29887128
000150 fe 05 e6 be ad c8 e2 be 7e 40 ea be f5 54 e5 3e
       -0.44926447 -0.44293728 -0.4575233 0.4479138
000160 a1 a6 a8 3e 61 9d 74 be 45 30 26 be 3d 13 16 bf
       0.32939628 -0.2388816 -0.16229351 -0.58623105
000170 09 29 a1 35 82 4a 8f be 2f cf 44 3e 8a 53 c6 bd
       1.2007378e-06 -0.27986532 0.1921966 -0.096839026
000180 05 ce 15 3f 9c 0d a5 3e ba cc 8e bb 1c 09 c7 bd
       0.58517486 0.32236946 -0.0043579014 -0.09718534
000190 04 2a f8 be 81 e6 e5 3e 82 39 59 3f c2 7c 16 3f
       -0.48469555 0.44902423 0.84853375 0.58784115
0001a0 45 86 90 3e 0b cb f5 3c f9 5f 7c bd 61 f6 c2 3e
       0.2822744 0.030004045 -0.061614964 0.38078597
0001b0 b3 a1 99 3e 97 0b 91 3e 11 c1 e3 3d 7e f6 31 3e
       0.3000618 0.28329155 0.11120809 0.17379186
0001c0 6c 2d 0a b6 a0 06 9d 3e 73 7d fc bd 7c b1 39 3e
       -2.0590041e-06 0.30669117 -0.12328615 0.18134111
0001d0 33 8e a0 3e 5f 8b 05 bf 23 4e 9f bf 2a a2 3b bd
       0.3135849 -0.5216579 -1.244572 -0.04580895
0001e0 73 db 06 be 9e 2b b5 3e 3f 09 31 3f d6 37 02 bf
       -0.1316965 0.3538484 0.69154733 -0.5086645
0001f0 0b 86 1b 3d ae 56 be be 2d 9a 6d bf 57 87 09 bf
       0.03796963 -0.37175506 -0.9281338 -0.5372214
000200 8b 1e 6e be a3 7a 95 be dc e4 91 be 1a d1 ce be
       -0.23253839 -0.29195127 -0.28494918 -0.40393907
000210 b8 d5 e5 35 09 c2 6f 3e 45 43 fd bd aa de e4 bd
       1.712403e-06 0.23413862 -0.12366346 -0.11175282
000220 82 21 82 3d d1 e5 65 3e e1 89 2f 3f f6 b2 82 be
       0.06354047 0.22450949 0.6856976 -0.2552716
000230 a4 b9 02 3e 50 9a 4c 3d 9c 75 17 3e eb 74 3f bc
       0.12766129 0.04995185 0.14790958 -0.01168559
000240 7e 99 20 35 08 d5 15 3e 4c 2f 87 bf c1 11 81 3d
       5.9828005e-07 0.14632046 -1.0561309 0.063022144
000250 e6 b7 50 3e 68 6b 2c bb 38 79 d6 be ce da ef 3e
       0.20382652 -0.0026309136 -0.41889358 0.46846622
000260 ef 85 16 33 f0 38 1c bd 5f fc 4c bf a4 36 64 3d
       3.504641e-08 -0.038140237 -0.8007259 0.05571617
000270 97 5d c9 bd b1 43 dc b3 36 d0 24 bf df 7b b3 be
       -0.09832304 -1.0256861e-07 -0.64380205 -0.35055444
000280 62 e7 7d 34 e5 9a 7c b5 bc 4c eb 3d 9c f8 b0 3b
       2.3646638e-07 -9.4102717e-07 0.11489245 0.0054007303
000290 0e f5 1d 34 21 36 48 b5 7a 5f b6 3b d2 0c e5 33
       1.4710915e-07 -7.4584574e-07 0.005565581 1.06659755e-07
0002a0 06 e7 9d bc f2 3e 99 be c0 3f 82 be 82 12 21 bf
       -0.0192752 -0.29930836 -0.25439262 -0.62918866
0002b0 98 60 14 35 56 b6 85 33 98 4e 43 34 f1 00 02 35
       5.527486e-07 6.226462e-08 1.8189382e-07 4.8430144e-07
0002c0 b0 73 c8 b4 3f 80 56 35 c1 4b 77 be ef 07 17 3f
       -3.7337077e-07 7.9907835e-07 -0.24149992 0.5899648
0002d0 3f bd 6a be 8a 55 c1 3d 6d b5 68 bd 1d ea 9f be
       -0.22923754 0.094401434 -0.056813646 -0.31233302
0002e0 44 b2 be 3d aa ba 03 bd 8a 85 ae bd a5 71 64 3e
       0.09311345 -0.03216044 -0.08521564 0.22308977
0002f0 58 88 d4 bd 99 ff 78 3d 78 8d 70 3e 77 5c c4 3e
       -0.10377568 0.060790632 0.23491466 0.38351795
000300 08 d2 e0 b4 79 96 03 bc e2 4e 86 3d bb 85 46 3d
       -4.187607e-07 -0.008031481 0.065580145 0.04846738
000310 f4 87 71 3e 6e 94 db be 58 a7 a0 3b e5 1a 7c be
       0.23587018 -0.4288668 0.0049027614 -0.24619634

layers.4.bias f4 [10]
000000 85 dc 8e be 98 20 b4 be e6 57 94 be 1b 97 59 3f
       -0.27902618 -0.35181117 -0.2897331 0.84996194
000010 f8 23 50 3e 03 ff 3a be 41 e3 ad 3d cc 01 f4 bd
       0.20326221 -0.18261342 0.08490611 -0.11914405
000020 15 ea 90 be 12 cf 95 3c
       -0.2830359 0.018287215

layers.6.weight f4 [1, 10]
000000 fa 14 03 40 70 7a bc 3f 58 59 c4 bf 8b 14 16 c0
       2.0481553 1.4724865 -1.5339766 -2.3450038
000010 c6 ad b0 bf d4 24 e8 3f cb c4 db bf 70 2e d0 3f
       -1.3803031 1.8136239 -1.7169431 1.6264172
000020 9d 7a 80 3f b5 aa 47 3f
       1.0037419 0.77994853
