F16_AeroData/model/delta_Cl_a20_lef.pth (torch, 6521 bytes, 7 tensors)

layers.0.weight f4 [20, 2]
00000000: a1a2 2ebf 7606 283f 307d 333e 838c 31bf
00000010: 253b 82bf b564 2b3e f9c4 af3e e797 813f
00000020: 661d 55bf 99e8 0ebe e733 9bbe d53c e53c
00000030: e8c8 44be f275 0cba cc93 c5be 9d99 67bf
00000040: 2956 a036 041f 8eb6 4536 b53f f942 08be
00000050: dca3 6c3e 0324 f73e 42ce 763e 02fb 0e3f
00000060: 4885 a63f 6bce e93d cba1 5dbe 04aa 24ba
00000070: 8baa 0a3e ebc8 8e3e 7a78 63bf 6a13 863d
00000080: 4ebc 2e3e cece 04be 6b21 e5be 76f7 6bbf
00000090: 6d7a 3bbf bccf be3e 1d0e ed3d ec74 6e3f
-0.682169 0.6563486 0.17528224 -0.6935503 -1.01743 0.16737635 0.34329966 1.0124482
-0.83247983 -0.13955916 -0.30313036 0.027983109 -0.19217265 -0.00053581514 -0.38589323 -0.9046877
4.778402e-06 -4.2355405e-06 1.4157187 -0.13306798 0.23109382 0.48269662 0.24102119 0.5585176
1.3009424 0.11416324 -0.2164375 -0.0006281438 0.1354162 0.27887663 -0.8885571 0.06546672
0.1706402 -0.12969515 -0.44752058 -0.9217447 -0.7323368 0.37267864 0.115749575 0.9314716

layers.0.bias f4 [20]
00000000: db60 b9bd 0612 293e 5003 aabf 6884 2ebf
00000010: 179d d33d ca32 aa3e 5c34 6a3e 0264 81bf
00000020: 8b71 58b7 f91a c6be 032f b63e af70 fc3e
00000030: 22fd bbbe a3f0 833e 36bb b73e 4f2e d93e
00000040: 7c98 463e cccf fcbd 210d 8d3d 3a1f e93c
-0.09051677 0.16510782 -1.3282261 -0.68170786 0.10332697 0.33241874 0.22871536 -1.0108645
-1.290104e-05 -0.38692454 0.35582742 0.4930472 -0.36716563 0.2576953 0.35885018 0.42418143
0.19394106 -0.123443216 0.0688727 0.028457273

layers.2.weight f4 [20, 20]
00000000: c6f0 273e 84f6 c9be 458f 32bf 9e93 2dbe
00000010: 8e88 97be c9cb fd3d d1ee a23d 0f33 36be
00000020: c48d 50b5 c18f dabd 56d1 10be 98a6 5e3d
00000030: 6d80 20bf f334 b83d b6cf 393e 1789 a03e
00000040: ad0b 0bbe 8401 94be 444b c3bd 4c51 39be
00000050: fcb0 1c35 0605 aeb4 331f 9fb4 53f9 a534
00000060: de3c fbb4 ef7d 45b5 f184 d7b4 092f 22b5
00000070: eba3 9a33 19d1 4bb5 a504 58b5 a333 c834
00000080: b339 8db4 1cbe 37b4 ea46 3bb5 d430 1a35
00000090: 815f 11b4 3b43 c2b4 75cc 63b5 bcc4 2f35
000000a0: 46cc 14bf 03b2 1ebe c3d3 fb3e 2831 82be
000000b0: 7f92 b23d 6885 093e 89e4 e13d 211b 313e
000000c0: 13b9 0435 4d48 f6be 0034 a13d 46db 583e
000000d0: 7218 03bf db15 fe3d 321e 05be 2a16 14be
000000e0: 265f 303d 02b2 de3e 6225 b2bc 146e 14be
000000f0: fd8b 8b3e 4450 ae3d b47a 27bf 6676 92be
00000100: 7ac9 b3bd f040 7c3e 46a9 273e a546 cfbc
00000110: 267a e934 0b11 7ebf f076 913e c9e5 4d3e
00000120: ef69 00bf 714b 3d3e 4087 9a3d 1807 f33e
00000130: fd07 9538 cbd8 0bbe 379a fc3d 8645 0cbe
00000140: 0d51 8136 a39d 4d34 ebac 0034 ae74 ae36
00000150: 3261 23b7 d4c2 abb5 1f63 27b5 ef3f 0835
00000160: 2a52 1034 17fd 2bb4 a60b d9b4 513a a1b5
00000170: d173 aab7 79dd 31b5 e73b 2fb5 ceda db35
00000180: 4812 d6b5 64cf 32b5 5224 8136 f08b 2936
00000190: 5555 84b4 9382 063e 96ca bbb3 52e6 4335
000001a0: cb07 e3be a2e0 803d c8f5 f4bd 702a 21be
000001b0: 99a8 1ab7 379f 5a3e ebca dfbe 2679 ddbe
000001c0: 81e6 d4be ecc9 08be a416 2d3d 50ac ecbe
000001d0: 40af 4a3d 2905 f2bb b140 0c33 04c6 26b5
000001e0: e351 91be 2005 41bc 2d6a 20b8 3bc5 9c3b
000001f0: e813 9bbe 0174 3fbd d464 10bd ac1b 89bb
00000200: afa2 4835 22b3 bcbe c414 e83d 0c15 053e
00000210: 2d88 353d 9dc9 22bd 7e0d a33d 4c60 d1be
00000220: 0d2d a83d b298 973d 5642 23be 904f d73c
00000230: 28b4 0d3e ee04 51b8 8ff1 c434 b9f4 e63e
00000240: 964e 22b5 23ee ecbc 9158 cfbc 61db e3b5
00000250: e5f9 6134 34a9 afbd 36db 86bd ce8b cfbd
00000260: 8f83 573d 59b4 e8bc 07d7 a0bd c58f 67ba
00000270: c290 d0bd 0dd6 eeb5 8b95 c7be 4598 1d3e
00000280: 77eb a73e 8de5 15bd 5707 21be fb8b 9bbe
00000290: 47c0 87bd 6e62 c03d 1d42 103e d92d 4c36
000002a0: 21b2 2d35 bd92 b2be 3269 7c3e 5eaf d23e
000002b0: 620f 64be 47fc 213e 7759 5c3e fe13 41be
000002c0: 4d4f 4ebd 27a4 15bf 539c b1be 7583 c3be
000002d0: b7f3 ef34 3a6b e23d cc65 15b5 5ec0 ff33
000002e0: eac1 d3be 45af 19bd 184b aebb 7f5c 2cbe
000002f0: 617e 9432 5b51 653d 0ba3 7cbe 0641 6ebe
00000300: f097 05bf 7f5d ddbb 92d4 bb3c 3ea2 e0be
00000310: 82e2 0a3d a31a 273b f68c 0035 f0e9 6cb4
00000320: 99c5 b23c ae00 82b8 5494 34ba 9070 02be
00000330: 0e73 75be b70c 16bd a244 dfbc 80c3 c734
00000340: 461a 0eb5 2fa2 8139 1818 5d3d d859 583d
00000350: f961 a4be 84b6 fbbc 2c07 9b3c d605 97bd
00000360: 1dd1 d8bd 7bc0 0335 3aa3 2d3a 0c33 d63d
00000370: 522f 6bbe 286f 2c3e 9238 c43e 92bd 0e3f
00000380: 438e 183e a1b7 19bd ce94 1bbd 5d19 b6be
00000390: 6b79 e3b4 a9ee 36bf 2c36 033d e98b bcbd
000003a0: 8e70 303e 73ab 2ebd 4b0a 8fbd 3a5b 73bd
000003b0: 7294 e7bc b0e2 973e 9418 c13d ad28 de3e
000003c0: a632 823e 7bfb 003e 53c2 1e3e 9688 133f
000003d0: 757c c7bd 2b0c 073e f940 c23d c1ee 693e
000003e0: b6bc 55b4 6e60 0abe 598e 213e e4f4 6c3e
000003f0: 5610 99be 7431 db3d f92d 063d daef 43be
0.16400442 -0.3944589 -0.6974986 -0.16950843 -0.2959637 0.123923846 0.07955707 -0.17792915
-7.7692334e-07 -0.1067195 -0.14142355 0.054358095 -0.6269596 0.08994474 0.18145642 0.3135459
-0.13578673 -0.28907406 -0.0953584 -0.18097419 5.8372075e-07 -3.241368e-07 -2.9638758e-07 3.0915052e-07
-4.679668e-07 -7.3571476e-07 -4.0143598e-07 -6.041815e-07 7.201e-08 -7.592767e-07 -8.047303e-07 3.7290474e-07
-2.6305278e-07 -1.7112365e-07 -6.976612e-07 5.7440525e-07 -1.3538921e-07 -3.6184232e-07 -8.4861614e-07 6.5478866e-07
-0.58124197 -0.15497594 0.49185 -0.25428128 0.08719348 0.13429797 0.11029918 0.17295505
4.944315e-07 -0.48102036 0.07871246 0.21177396 -0.51209176 0.12406512 -0.129998 -0.1446158
0.04305949 0.43495184 -0.021746341 -0.14495116 0.2725524 0.08511403 -0.65421605 -0.28605956
-0.08778663 0.24634147 0.16373166 -0.02530224 4.3488507e-07 -0.99244756 0.28411055 0.20107187
-0.5016164 0.1848581 0.07545328 0.4746635 7.1063616e-05 -0.13656919 0.12334102 -0.13698396
3.853935e-06 1.914946e-07 1.1983836e-07 5.1991874e-06 -9.738187e-06 -1.2797195e-06 -6.235659e-07 5.0756984e-07
1.3440936e-07 -1.601769e-07 -4.0427875e-07 -1.2012407e-06 -2.031951e-05 -6.6259923e-07 -6.527975e-07 1.6380452e-06
-1.5949563e-06 -6.661196e-07 3.848728e-06 2.5264417e-06 -2.4649003e-07 0.13135748 -8.744716e-08 7.297832e-07
-0.44341883 0.06292845 -0.119609416 -0.15738845 -9.21837e-06 0.21349798 -0.43709502 -0.4325649
-0.4158211 -0.13358277 0.04225792 -0.46225214 0.049483538 -0.007385869 3.2655127e-08 -6.212797e-07
-0.28382787 -0.011781007 -3.8245857e-05 0.004784254 -0.30288625 -0.04674149 -0.035252407 -0.004184207
7.474254e-07 -0.36855417 0.11332086 0.1299631 0.04431932 -0.039743055 0.07961558 -0.4089378
0.08211718 0.07402171 -0.15943274 0.026283056 0.13838255 -4.9834074e-05 3.6683602e-07 0.45108584
-6.046406e-07 -0.028922146 -0.025310786 -1.6976666e-06 2.1045669e-07 -0.08577195 -0.0658478 -0.101340875
0.0526157 -0.028406309 -0.07853513 -0.0008833374 -0.1018386 -1.7794679e-06 -0.3898128 0.15390117
0.32796833 -0.03659587 -0.15725456 -0.30380234 -0.06628471 0.09393774 0.1408772 3.0425056e-06
6.4706734e-07 -0.34877577 0.24649504 0.4114942 -0.22271493 0.15818892 0.21518503 -0.18855283
-0.050368596 -0.584536 -0.34689578 -0.3818623 4.4694545e-07 0.11055608 -5.565496e-07 1.1909354e-07
-0.41358882 -0.037520666 -0.0053190105 -0.1683216 1.7286938e-08 0.05598579 -0.24671571 -0.23266992
-0.52184963 -0.0067555304 0.02292851 -0.4387378 0.03390742 0.0025498054 4.788884e-07 -2.2064319e-07
0.021822738 -6.19901e-05 -0.00068885577 -0.12738252 -0.23969671 -0.03663322 -0.027254406 3.7208883e-07
-5.2937355e-07 0.00024725634 0.053978056 0.052820057 -0.32105997 -0.030726679 0.018924318 -0.0737416
-0.1058676 4.90814e-07 0.0006623749 0.10458955 -0.2296727 0.16839278 0.3832441 0.5575801
0.14898019 -0.037528638 -0.037983708 -0.35566226 -4.2370388e-07 -0.71457916 0.032034084 -0.09206373
0.17230436 -0.042643975 -0.06984385 -0.059413172 -0.028269026 0.29665136 0.09428516 0.43390408
0.25429267 0.12595932 0.15503816 0.5763029 -0.09740535 0.13188235 0.09485049 0.22844984
-1.9905823e-07 -0.13513348 0.15776958 0.23140293 -0.29895276 0.10702792 0.032758687 -0.19134465

layers.2.bias f4 [20]
00000000: edec bf3e f614 1eb5 8c6f a53e 2a6e a23e
00000010: aa02 90b6 5108 cf3d 4785 4f3e 6d0f ccbe
00000020: 7323 e13e 3b70 d83d de77 50bd 8bff 1abe
00000030: 82dc 9ebd 70e8 353f 27a7 c3be 9fec 183e
00000040: f6ef 0fbe 1f79 033f f479 69be cde7 07bf
0.37485448 -5.889009e-07 0.32311666 0.31724674 -4.2918446e-06 0.10109008 0.20265685 -0.3985552
0.43972358 0.10568281 -0.050895564 -0.15136544 -0.07756902 0.71057796 -0.38213465 0.14934014
-0.14056382 0.5135669 -0.22800428 -0.53088075

layers.4.weight f4 [10, 20]
00000000: 0611 41be bb2f 10b5 efa2 c83e 3c95 92bf
00000010: 01e4 9032 6000 0a3f 2e21 ed3e b422 413e
00000020: 66f3 f53e 4654 f83e 8729 343c b3db 48bf
00000030: 971a 063f f7ec 733e 42a0 2ebf a3e8 3d3d
00000040: 6916 3b3e 57a8 a03e d40a a5be 922c 1fb5
00000050: 694f 033f ffc4 a1b4 5374 1f3e 0bed f0be
00000060: 0595 8437 ebbd e43e 7117 acbe fabd c83e
00000070: 4003 253f ca69 ca3e 6c22 a43e e40e b9be
00000080: 7928 f53e 1d81 393f 92e3 cabe 90d3 8c3e
00000090: 84cf 363e 6b0c 023f da46 debe 91d6 4ebf
000000a0: 4368 dabe b595 0db5 282f 2b3d c12a 583e
000000b0: ca7b fab6 6934 8cbe 8e33 503e 1e2a 81be
000000c0: 6c5d 2b3e 9e57 82be b44a 53be 1be7 b23e
000000d0: 644b a0bd 98bf 6a3f f2d4 763c aac7 37be
000000e0: 4286 49be 229d bcbe 50c6 863e 2486 733d
000000f0: 9e70 33bf dbc2 a0b4 4046 19bf dabe 1c3d
00000100: 7f50 61b7 0af6 b2be 445e 973e 9c8f a2be
00000110: 3826 9fbe d16e 9bbe bb70 f8bd 22ea d03e
00000120: a05e 43be 22cc a23e d58b bcbe 6dae bbbd
00000130: 56d8 c8be 179e 163e b04f 1c3e ce8d 37bc
00000140: 1469 b1be d4e5 4235 090f 0b3d ad97 2f3e
00000150: c8df acb6 16d2 63be 551f 293e 40d7 51be
00000160: 6d32 0b3e 54c1 53be 39a2 2bbe 5853 913e
00000170: 8935 82bd 1daf 3e3f a08b 483c a049 15be
00000180: cf99 23be d83c 99be d8f6 5a3e 1ad0 453d
00000190: 7a8a 213e 8cc0 f2b4 8d97 afbd fb1b 7b3e
000001a0: 9e05 1936 03c2 37bd cc73 00be efce b6ba
000001b0: 8d03 d9bd d86c 9ebb 2dc3 9d3d 22ee 1cbd
000001c0: 5ce4 563d e1d1 39be 4f75 853d 2a47 543d
000001d0: 9be6 59bd bf26 e33d 4915 0fbe 7fec 0fbd
000001e0: a217 84b4 af0c 36b5 70aa 0534 9659 8234
000001f0: 3a36 76b3 c1f3 ddb4 f4ae 92b4 564a 0fb5
00000200: 0803 0eb5 1cd4 2fb5 54d2 b034 50a3 8234
00000210: 21cd 4db5 4111 38b5 4888 36b5 bb96 12b5
00000220: f615 0bb5 689f 9434 e1b7 4835 fa38 27b5
00000230: f504 35be 78b6 bdb4 81b5 8c3c 0e80 b63d
00000240: 29eb 52b6 5de2 efbc bdcf ad3d 8204 d7bd
00000250: f299 913d f87e d9bd 1221 b0bd a9ed 143e
00000260: f022 00bd b2ba bf3e ef86 9c3c ff73 99bd
00000270: 90aa 61be 633f 6cbd f6d8 b63d f4c9 cd3c
00000280: 104b 093f d69c f234 97c7 86be 323c 13be
00000290: 07df 2c35 9541 5b35 67ad 0833 3f6d 0fb5
000002a0: a4df 87be 565e 4eb4 db86 5635 87fd 25be
000002b0: a371 ddbe 8584 a6be f300 343f 31e7 c034
000002c0: 4062 a133 2613 8bbf fa35 8f33 f3f9 4a3e
000002d0: a98b 003e 57a5 0535 c930 733f 7472 3dbf
000002e0: 7d1a 3433 3a2f be3e 13d0 4fbe a737 a43e
000002f0: 6465 133f 4e6a a43e b16a b1bc 5f2a 913e
00000300: 8a40 8f3c 5d31 ddbd c07a 113f 5d3a 283e
00000310: 40cb 1c3e 8a27 babd 6c29 76be 15f1 d3be
-0.1885415 -5.371364e-07 0.39186808 -1.1451793 1.686749e-08 0.5390682 0.46314377 0.18860894
0.4803726 0.48501796 0.010996229 -0.78460234 0.5238432 0.23820864 -0.68213284 0.046364438
0.18270268 0.31378433 -0.32234824 -5.9296974e-07 0.51293045 -3.013192e-07 0.15571718 -0.4705585
1.5805019e-05 0.44676146 -0.33611634 0.3920744 0.64458084 0.39533836 0.32057512 -0.36144173
0.4788244 0.72462636 -0.39626747 0.2750516 0.17852598 0.508002 -0.4341343 -0.8079615
-0.4265767 -5.2744446e-07 0.04179302 0.2111006 -7.4649915e-06 -0.27383736 0.20332167 -0.25227445
0.16734856 -0.25457472 -0.20633966 0.34941944 -0.078268796 0.916986 0.015065419 -0.1794726
-0.19680122 -0.36838633 0.26323175 0.0594541 -0.70093715 -2.9944098e-07 -0.5987282 0.038267948
-1.3429787e-05 -0.34953338 0.29564106 -0.3175019 -0.31083846 -0.30357984 -0.12130877 0.4080363
-0.19079065 0.31796366 -0.36825433 -0.091641285 -0.3922755 0.14708744 0.15264773 -0.0112032425
-0.3465048 7.2605076e-07 0.033949886 0.17147703 -5.152051e-06 -0.2224811 0.16515858 -0.20492268
0.13593455 -0.20679218 -0.16761102 0.283839 -0.06357867 0.7448595 0.01224032 -0.14578867
-0.15976642 -0.29929233 0.21383226 0.048294164 0.15775481 -4.521611e-07 -0.08573828 0.24522392
2.2802046e-06 -0.04486276 -0.12544173 -0.0013947169 -0.105963804 -0.0048347525 0.077032425 -0.03831304
0.052463874 -0.18146469 0.065165155 0.05182568 -0.05319844 0.110913746 -0.13972963 -0.03513765
-2.460411e-07 -6.781874e-07 1.2448595e-07 2.427957e-07 -5.7325657e-08 -4.1341812e-07 -2.7321914e-07 -5.3379824e-07
-5.2903533e-07 -6.550124e-07 3.2935588e-07 2.4333212e-07 -7.6666953e-07 -6.857045e-07 -6.79986e-07 -5.460858e-07
-5.181349e-07 2.7683132e-07 7.4773385e-07 -6.229526e-07 -0.17677672 -3.5336757e-07 0.017176392 0.08911143
-3.142932e-06 -0.029282743 0.084868886 -0.10498907 0.07109441 -0.106199205 -0.08600058 0.14543785
-0.03128332 0.37447125 0.01910731 -0.074928276 -0.2203772 -0.057677638 0.08928101 0.025120713
0.5363016 4.5190126e-07 -0.2632415 -0.14378431 6.439954e-07 8.167929e-07 3.1822676e-08 -5.3430625e-07
-0.26537812 -1.9219564e-07 7.9917453e-07 -0.16209994 -0.4325076 -0.3252298 0.7031395 3.5931e-07
7.515018e-08 -1.0865219 6.668775e-08 0.1982191 0.12553276 4.978696e-07 0.94996315 -0.74002767
4.1933607e-08 0.37145406 -0.20294218 0.3207371 0.57576585 0.32112354 -0.02165732 0.2835264
0.01748683 -0.10800431 0.56827927 0.16428514 0.15311909 -0.09089573 -0.24039239 -0.41394868

layers.4.bias f4 [10]
00000000: 2977 96bd 45ed c03d 1df8 0c3e 4a84 103e
00000010: 5209 e53d e28d 0f3d 4e77 41b5 7e16 a5bb
00000020: 3e82 3dbe f6b6 0e3e
-0.07346947 0.094202556 0.13766523 0.14112964 0.11183418 0.03504742 -7.2071714e-07 -0.0050380817
-0.18506715 0.13936982

layers.6.weight f4 [1, 10]
00000000: e8a1 fd3f 46c2 f03f 1825 a1bf 95ac b0bf
00000010: c6e5 82bf 5009 dc3e 92c2 1635 5698 05bf
00000020: 808f c73f f22d d13f
1.9815035 1.8809288 -1.2589445 -1.3802668 -1.0226371 0.42975855 5.616249e-07 -0.5218557
1.5590668 1.6342146
