F16_AeroData/model/delta_Cx_lef.pth (torch, 4039 bytes, 5 tensors)

layers.0.weight f4 [20, 2]
000000 66 a4 8a be 39 59 3e bd 4d d6 be be 84 65 ce 3d
       -0.2707855 -0.046471808 -0.37272874 0.10077956
000010 3d dd 43 3f 9d 33 a8 3c 6e 94 7d be 96 22 80 3b
       0.7650946 0.020532424 -0.24763653 0.003910373
000020 c4 5c c6 3e db b7 0a be ea 3b 0b 3d eb 41 47 bd
       0.3874265 -0.13546698 0.033992685 -0.04864685
000030 7f a7 4d be c6 6c b3 be 8d 63 a6 bc 0c 64 73 3e
       -0.20083426 -0.35043925 -0.020311141 0.23768634
000040 5d c5 ee 3e 2b 04 02 3e 13 dd 87 be c4 48 97 3b
       0.4663495 0.12696902 -0.26535854 0.0046168286
000050 c5 5c 34 be fc 6f ae 3d 90 c3 cf 3c 47 d1 7b 3e
       -0.17613514 0.08517453 0.025361806 0.24591552
000060 64 71 ef ba 0b 5b 60 3b f9 63 b4 be dc 5c 3f 3b
       -0.0018268046 0.0034233953 -0.35232523 0.0029199636
000070 cb 55 af be a5 73 98 bd 83 9e 9e 3e 26 46 1e 3e
       -0.34245142 -0.074439324 0.3098031 0.15456447
000080 c0 ff 0c 3d 99 73 68 be 19 0f 17 be f1 5f 7c 3e
       0.03442359 -0.22700347 -0.14751853 0.24645974
000090 aa bd b1 3e a5 85 17 be 5e ba 7c 3d 67 54 a8 37
       0.34715015 -0.14797075 0.06170117 2.0066464e-05

layers.0.bias f4 [20]
000000 92 3d 9c be 58 5b 90 3d c4 4b a2 be 30 bd ce 3d
       -0.30515724 0.070486724 -0.3169843 0.100946784
000010 d9 48 d4 be 17 52 ac 3d f3 46 8a 3e cc a0 2c bc
       -0.41461828 0.08414095 0.27007255 -0.010536384
000020 ad e7 e4 3e cd 3f e9 3d 69 48 5d be 2b cf 44 3e
       0.44708005 0.11389122 -0.21609654 0.19219653
000030 9c c5 87 ba c5 9c 60 3e f5 13 bb 3d c2 d6 cb be
       -0.0010358575 0.21934803 0.09134666 -0.39812285
000040 23 66 4e 3e 3a 4f 41 3e e7 a8 98 3e 1a 66 d9 3d
       0.2015615 0.18877879 0.29816362 0.106151775

layers.2.weight f4 [10, 20]
000000 7e 46 35 bb b2 8d da bd 07 5f c5 bc 95 27 82 bd
       -0.0027660425 -0.106715575 -0.024093164 -0.06355206
000010 80 9d fd bd 27 5d f6 3c c8 b0 fb b9 50 e5 76 bb
       -0.12383556 0.030073715 -0.00048006163 -0.0037673302
000020 76 79 52 3e 86 3f 8c bd 2b 11 9e 3b 4b 6c d5 3d
       0.20554146 -0.06848054 0.004823824 0.10421046
000030 33 48 89 3a bf a5 bf bd 49 c1 c7 bd cf 8b 04 be
       0.0010473788 -0.093577854 -0.09753663 -0.12943958
000040 23 ec a3 3d 72 03 d3 bc 5b 62 22 3e 18 ec 39 3d
       0.08004024 -0.025758479 0.15857832 0.045391172
000050 67 cd d9 b4 5a 23 f6 b4 6f 9c e0 39 62 01 a8 b8
       -4.056885e-07 -4.5846792e-07 0.00042841161 -8.011122e-05
000060 3a b7 49 ba df 21 b7 38 8b 6f 43 b9 4a 82 be b9
       -0.00076948444 8.732429e-05 -0.00018638202 -0.00036336697
000070 fc d6 31 b6 c5 00 b8 b8 c1 08 35 35 d8 7f b3 b8
       -2.6500193e-06 -8.773947e-05 6.7440493e-07 -8.559198e-05
000080 6a 94 33 35 da 45 b5 b9 d4 8b a0 b8 94 f3 02 ba
       6.689867e-07 -0.00034575054 -7.6554395e-05 -0.00049954024
000090 61 6f d5 39 e3 f8 47 ba a6 5c f3 39 74 b6 00 38
       0.0004070951 -0.00076283346 0.000464176 3.06875e-05
0000a0 54 d6 73 33 7e 39 80 be 6e 6f 3c bd f9 2f 30 be
       5.6772777e-08 -0.25043863 -0.046004705 -0.172058
0000b0 ae ca 74 be 9f db 07 3d b7 7a 36 be 0b 66 00 be
       -0.23905441 0.03316843 -0.1782025 -0.12538926
0000c0 73 53 c5 3e 1a 0b 3e be ba 47 bc b5 db 05 f9 3d
       0.3854023 -0.18558922 -1.4027967e-06 0.1215932
0000d0 da f7 89 ba 4f d4 86 be 5e 97 80 be 3f ee 7f be
       -0.0010526136 -0.26333854 -0.25115484 -0.24993227
0000e0 6c a5 99 3d 74 21 1a be 65 df 8b 3e f5 2c 91 3d
       0.07502255 -0.15051824 0.27318874 0.07088653
0000f0 11 9e cb be 53 d8 37 3e de 45 3c 3f e3 5e 14 3e
       -0.39769033 0.17953615 0.7354411 0.14489321
000100 40 58 be 3e 50 7c 9b bd 27 56 cb 3e b0 cd 4e 3e
       0.37176704 -0.0759207 0.39714167 0.20195651
000110 b3 a8 ad be 23 eb 20 3e 11 ae 90 be 79 78 3f be
       -0.3391777 0.15714698 -0.28257802 -0.186983
000120 aa 1f 1b bb a0 cf 76 3e b1 1a f1 3d fb 00 c2 3e
       -0.0023669996 0.2410264 0.11772669 0.37891373
000130 d9 e9 58 be ed 62 93 3e e2 21 78 be 78 1f 5c 3d
       -0.21182956 0.28786412 -0.24231675 0.05374095
000140 2f 32 d0 3c ae c4 f4 bd b4 89 ba be 96 bf 73 bd
       0.025414554 -0.11951576 -0.36433184 -0.059508882
000150 6a 71 8d be 8a 2e be 3c ec 3e 58 3e 56 f0 c6 bb
       -0.2762559 0.02321555 0.21117753 -0.0060711307
000160 dd 1b 5a bd 47 66 82 bd ac 65 93 ba 33 3b 33 bd
       -0.05324923 -0.06367164 -0.001124551 -0.04375763
000170 da aa c0 b9 5f fe 84 bd 89 87 f9 bd 72 73 ad 34
       -0.00036748388 -0.0649383 -0.121840544 3.230776e-07
000180 18 f9 f9 3d 27 a4 a0 bd b7 9f a5 3c 5e 96 2f bb
       0.12205714 -0.078438096 0.02021776 -0.0026792507
000190 48 ec 25 3b 95 53 35 be 98 86 21 bd 96 e0 e1 bd
       0.0025317837 -0.17707665 -0.039435 -0.110291645
0001a0 9e b6 4f be 11 55 34 3d 93 6f 04 bd 60 bb 0f bc
       -0.20284507 0.04402644 -0.032332968 -0.008772701
0001b0 78 8d ab 3e bb 74 f3 bd e3 e6 25 3c 51 ad 38 3e
       0.3350637 -0.11887499 0.010125848 0.18034865
0001c0 7f 05 f4 3a e1 60 28 be 78 e8 2c be 6d 2f 59 be
       0.0018617361 -0.16443206 -0.16885555 -0.21209498
0001d0 84 d6 f0 3d eb 3c 3d bd 4d 99 82 3e e1 e3 90 3d
       0.117596656 -0.046200674 0.25507584 0.070747145
0001e0 ba 75 d4 34 99 79 24 b4 73 aa 0f 35 1c 51 fb b4
       3.9573735e-07 -1.5317927e-07 5.351969e-07 -4.6811408e-07
0001f0 16 e8 82 b3 f9 6f a9 b4 2b 6a 8a 34 a2 e8 2f b4
       -6.095813e-08 -3.1560174e-07 2.578175e-07 -1.6382776e-07
000200 59 fe 8a 32 78 7a 76 b4 7a ce cf 34 a9 65 aa 32
       1.6180978e-08 -2.2955089e-07 3.8706986e-07 1.9836834e-08
000210 cd 62 1e b4 38 54 c0 b4 80 aa 14 35 da 88 3a b5
       -1.475084e-07 -3.5824064e-07 5.5382407e-07 -6.9489545e-07
000220 4a 4b 77 b4 1a 48 d3 34 69 fd c5 b4 3a ff b6 34
       -2.3031058e-07 3.9354273e-07 -3.687849e-07 3.4085843e-07
000230 67 9b 61 b4 a4 42 8d 33 4f 26 ea b3 2c 56 bb 34
       -2.1011293e-07 6.577946e-08 -1.09034424e-07 3.4894163e-07
000240 2f a5 96 b4 54 8e f4 34 99 c4 9f b4 75 51 d1 b4
       -2.8059864e-07 4.55521e-07 -2.9759101e-07 -3.898855e-07
000250 ba e9 ca 34 55 a2 d1 33 71 0e 30 b5 04 c8 23 34
       3.779549e-07 9.761849e-08 -6.5586124e-07 1.5253323e-07
000260 32 4f b4 32 15 c0 26 b5 fc f8 ee 33 06 21 fc b4
       2.0990772e-08 -6.2119335e-07 1.11280286e-07 -4.6962685e-07
000270 51 ba 9f 34 63 47 18 35 d4 8b 42 b5 c5 69 ec b4
       2.975162e-07 5.6728294e-07 -7.247411e-07 -4.4035383e-07
000280 fa a0 78 34 bb fc 9f b7 17 9e 4b b8 b6 db 21 36
       2.3155363e-07 -1.9071964e-05 -4.8546204e-05 2.4118758e-06
000290 f1 d8 63 34 45 8d 86 35 06 46 03 b8 53 27 3e b8
       2.1219945e-07 1.0024893e-06 -3.129805e-05 -4.5336154e-05
0002a0 84 b0 7f b7 9b 34 8f 36 3a 10 95 b5 47 9c 5a b6
       -1.5240283e-05 4.267856e-06 -1.1106088e-06 -3.2575497e-06
0002b0 cd 65 27 b6 62 53 cf 37 df ec 3e b8 13 d2 28 b4
       -2.4944195e-06 2.4715151e-05 -4.5520133e-05 -1.5722644e-07
0002c0 60 4c a7 b6 96 f4 97 b6 19 78 f2 b6 99 fe 27 b5
       -4.985879e-06 -4.5286242e-06 -7.226143e-06 -6.2582836e-07
0002d0 fb d8 c5 bd 65 21 38 3d 3d 75 50 3d e3 ca 05 3d
       -0.09660526 0.044953723 0.050893057 0.03266419
0002e0 d2 ea b4 3d eb a1 82 bc 90 af 97 3b 47 f4 2f bc
       0.08833851 -0.01594635 0.004629083 -0.010739393
0002f0 4a 57 b3 bd d8 f7 10 3d fe 40 8d bd ba 6f 4c bd
       -0.087568834 0.035392612 -0.06897162 -0.04991124
000300 ed 1a 0c bb 43 30 88 3d 93 89 14 3d 01 28 bc 3d
       -0.0021378354 0.0664983 0.036264013 0.09187318
000310 2d f5 ae bd 64 79 62 3d 46 9d 99 bd af 6d 90 3c
       -0.08542857 0.05529155 -0.07500701 0.017630426

layers.2.bias f4 [10]
000000 24 21 4c 3e 62 f0 8f b9 9a 62 3d 3e d6 73 11 3e
       0.19934517 -0.00027454185 0.18494645 0.14204344
000010 24 1a b5 3d ae 6f 94 3e 09 1f 2b b5 c4 a8 57 b5
       0.088428766 0.28991455 -6.3747626e-07 -8.033933e-07
000020 1e db ec 37 60 7b 0c 3e
       2.8235427e-05 0.13718939

layers.4.weight f4 [1, 10]
000000 21 ca e3 be 02 14 c9 ba 7c bf 5a bf 1b c4 a9 3f
       -0.4449015 -0.0015341046 -0.8544843 1.3262972
000010 f7 c7 12 bf 7d da 37 bf 6e ce 84 b5 0f ce c9 32
       -0.5733637 -0.7181776 -9.894845e-07 2.3493184e-08
000020 ac f4 cc b8 6f 95 97 3e
       -9.773052e-05 0.29606196
