example/model/Clr.pth (torch, 3767 bytes, 5 tensors)

layers.0.weight f4 [20, 1]
000000 a8 02 17 40 38 8f c2 3a 4a 2e b2 be e8 95 00 3f
       2.3595371 0.0014843708 -0.3480094 0.5022874
000010 6b 0c e6 bf b9 72 0f bf b5 cb 33 3f f9 e7 c6 3c
       -1.797254 -0.5603443 0.7023271 0.024280535
000020 d8 e6 6a be 96 fb d6 3f 2b 29 98 3f 05 41 84 3f
       -0.22939622 1.6795528 1.1887563 1.0332342
000030 2c 43 9b bf 0b 55 ef bc 24 b6 e7 3f dc 5f a3 be
       -1.2129874 -0.029215356 1.810246 -0.31909072
000040 f5 1a 3a 3f e8 69 48 bf 45 7c 16 3f c6 39 36 be
       0.72697383 -0.782866 0.5878337 -0.17795476

layers.0.bias f4 [20]
000000 12 9d 8d b9 32 98 7d bd 75 b3 e1 be a0 f6 22 3f
       -0.00027010642 -0.061912723 -0.44082227 0.6365757
000010 bf bc 12 3f 1f 2b b5 bd 0b e2 63 3f 02 82 af bd
       0.57319254 -0.08846115 0.8901679 -0.08569719
000020 d0 4e 97 bd a9 b2 84 3e 5b 0f c0 be 2e ee 22 3e
       -0.07388079 0.25917557 -0.37511715 0.15911171
000030 7b 5e 08 bc 02 13 8f bd d9 c7 8e 3e d0 43 4e bd
       -0.008323307 -0.06986047 0.27886847 -0.05035764
000040 4f ea 6a be b8 ad 7f 3e 35 b7 3e 3f d5 2d af 3e
       -0.22940944 0.24968612 0.744983 0.34214655

layers.2.weight f4 [10, 20]
000000 41 05 50 bf 59 3e b4 bc 5c b6 98 bc 41 6f 90 3e
       -0.81258017 -0.022002386 -0.018641643 0.2820988
000010 da f1 81 bf 9b 50 ce 3c 95 e3 ca 3e ea 2a 00 39
       -1.0151932 0.02518492 0.39626756 0.00012223018
000020 a2 0f c8 3c 20 75 03 bc 8b c7 93 bf c5 c8 f7 bb
       0.024421517 -0.00802353 -1.1545271 -0.0075617754
000030 0d b2 74 bf cb 0b ed 3a 65 24 88 bc 8c bd 09 3d
       -0.95584184 0.001808518 -0.016618917 0.03362803
000040 12 bf 32 bf 6e 53 de be f9 7c ab 3e d9 11 0c 3e
       -0.698228 -0.43423027 0.33493784 0.13678683
000050 b7 94 06 c0 f9 16 fa ba bd 6e 75 be f5 bf 89 ba
       -2.1028268 -0.0019080333 -0.23968025 -0.0010509478
000060 b4 ea d2 3f 36 aa 65 bd ef fb ef 3c b5 ef 28 bc
       1.6477876 -0.05607053 0.029294936 -0.010311057
000070 a2 db 3e be c7 37 24 bf df 9e de 3e 2d 84 c8 be
       -0.18638471 -0.6414761 0.43480584 -0.39163342
000080 4b 51 3d bf 4c 09 78 3c 15 c4 31 bf 5a f5 f4 bc
       -0.7395217 0.015138935 -0.6943982 -0.029902149
000090 b1 79 91 3e 1f 1d 37 3f de 28 6c 3c 33 c9 b6 3e
       0.28413156 0.7152881 0.01441404 0.35700378
0000a0 50 f5 a9 3c e8 1a 08 bc c7 8d 97 3c 01 48 6f bc
       0.020746857 -0.008307196 0.018500222 -0.014604569
0000b0 13 37 08 bc bb 28 6f 3c d4 20 bf bc a0 c3 b5 3c
       -0.008313912 0.014597113 -0.023331083 0.022188008
0000c0 b6 a1 7b bc 25 c3 57 bc ee b3 29 3b 90 0f 13 bc
       -0.015358379 -0.013169085 0.00258946 -0.008975878
0000d0 a9 41 aa 3c b7 0a b9 3b 4c c1 5b 3b 60 37 0b 3c
       0.020783262 0.0056470293 0.0033531962 0.008497089
0000e0 76 ec 46 3c 39 d0 a6 3c 43 17 ba 3c 6d 52 a7 bc
       0.012141338 0.02036296 0.02271617 -0.020425046
0000f0 d9 3c f8 be bc 7a 9e 3c c3 91 9e 3e be 92 f3 3e
       -0.48483923 0.019345634 0.30970582 0.47572893
000100 3b 5d ad 3f 32 a5 7a be bf fb 31 3f 10 d4 95 bb
       1.3544077 -0.2447708 0.6952476 -0.004572399
000110 77 5e ba 3d 3d e4 90 bf 83 46 13 bc 12 c8 34 bf
       0.09100049 -1.1319653 -0.008988979 -0.70617783
000120 6a 02 5b 3e 88 31 70 3c 15 e7 9d bf f2 dd 0f be
       0.2138764 0.014660247 -1.2336146 -0.14049509
000130 dc a1 85 bc 81 6b 17 3f b8 56 13 3f f0 ed a2 3e
       -0.016312532 0.5914841 0.575542 0.31822157
000140 8a 0c f1 be db 43 a5 3c e8 ff 05 bc 98 79 4d 3e
       -0.4707988 0.020173958 -0.008178689 0.20065916
000150 e8 9b 6e be 67 8d 0f bf d2 15 99 3e db 4d d6 bb
       -0.23301661 -0.5607514 0.2989946 -0.006540043
000160 35 e2 bb 3d 09 ae 87 bf b4 8d 3d 3c aa e0 23 bf
       0.09174005 -1.0599986 0.011569429 -0.64014685
000170 33 30 cf be 83 55 6d 3c e2 cb 90 bf 7f fd 9f be
       -0.4046646 0.01448572 -1.131222 -0.3124809
000180 bc f7 20 3c bd 46 f7 bd 5a 5a 83 3e d7 53 ae 3b
       0.0098246895 -0.12074039 0.2565487 0.005320053
000190 4d 70 c8 bd 84 6d ab 3b 29 b5 7a 3d 33 09 e3 3d
       -0.09787045 0.005231561 0.061207924 0.11085739
0001a0 ce 84 96 3e d4 64 8f bd 64 04 1a 3e 09 b7 0a bb
       0.29398197 -0.07001653 0.15040737 -0.0021166226
0001b0 2a 4b 3c 3c 50 08 79 be f9 86 d1 3c e2 53 27 be
       0.01149253 -0.24319577 0.025577055 -0.16340593
0001c0 71 12 75 3d 9a 88 1d bc 62 e1 7b be 70 b9 56 bd
       0.05983204 -0.009615088 -0.24597695 -0.05242294
0001d0 73 11 a6 3c d6 79 12 3e 53 47 02 3e ca a3 b9 3c
       0.020271992 0.14304289 0.1272252 0.022661109
0001e0 b8 da c2 bc 60 5c ee 3b 6c 12 4c be 3c ba 10 bf
       -0.023785934 0.0072741956 -0.19928902 -0.5653417
0001f0 7a c7 c8 3d b2 08 32 3e b1 82 43 bf 3b 31 84 3c
       0.09803672 0.1738613 -0.76371294 0.016136756
000200 e9 b1 b9 3d 4f 17 8a bc d0 1e c1 3c a5 9e b4 3c
       0.09067137 -0.016856818 0.023574263 0.022048304
000210 05 bb 9c 3e e2 75 64 bc 84 81 aa 3c 2f 26 d1 3d
       0.30611435 -0.013944121 0.020813711 0.10212361
000220 37 aa 2f bb 15 85 48 3d da 67 22 bf 1e 3f 0b bd
       -0.0026804337 0.048955042 -0.63439715 -0.03399574
000230 5e d1 bc bc 43 25 bb 3c 46 b9 a6 bc 08 8d 0f 3c
       -0.023049053 0.022844916 -0.020352017 0.008761652
000240 b5 bc 57 bc 88 a9 17 3b bf f7 81 bb 86 fb 8f b9
       -0.01316755 0.002314182 -0.003966301 -0.00027462485
000250 5b eb 5a bc a4 c1 8b 3c 65 f4 f7 3b bc 1c 88 3b
       -0.013361777 0.017060108 0.007566976 0.004153816
000260 a4 e2 c8 bb d0 38 a6 bc ac ad d5 bb 0a 3f 48 bb
       -0.0061305333 -0.020290762 -0.0065209474 -0.0030555152
000270 29 48 4a 3c ac f4 e8 bb ce d7 b6 bc 94 10 11 bb
       0.012346306 -0.0071092453 -0.0223197 -0.0022135125
000280 d1 18 db 3b 6b da 1a bc 69 2b a4 bc 96 71 9b bc
       0.006686308 -0.009451489 -0.02004023 -0.01897506
000290 56 6e 97 ba bb 67 52 bc 7d cd 45 bc e0 d1 31 bc
       -0.0011553268 -0.012842114 -0.012072918 -0.010853261
0002a0 3a cf 5f 3c c2 61 58 bc 59 1d 91 bc cb 09 7a bc
       0.0136602465 -0.013206901 -0.01771419 -0.015261124
0002b0 40 d7 92 bc e8 8e bb bc 77 49 22 bc cb 1f 52 3c
       -0.017924905 -0.022895291 -0.009905211 0.012824963
0002c0 19 32 89 bc 2a 86 59 3c 7c ef aa bc 97 d9 9b bc
       -0.016747521 0.013276616 -0.020866148 -0.019024653
0002d0 77 cd 87 ba 5c 58 a6 3c d6 48 19 bd 17 95 a5 bd
       -0.0010360916 0.020305805 -0.037422977 -0.08085077
0002e0 c7 dc 2d 3d 43 05 3d 3d 8c 22 bc bd fd 56 a0 bb
       0.042446878 0.046147596 -0.09186277 -0.0048931823
0002f0 50 03 1b 3d a1 92 03 bd b2 fc ba 3b 3c 1e 0e 3c
       0.037844956 -0.032122258 0.005706393 0.008674201
000300 18 89 a0 3d 15 6a e0 3b 2c bd 61 bc ba 8b c4 3b
       0.078386486 0.0068485835 -0.013778012 0.005998102
000310 6d 83 21 3c 4e 60 44 3d b8 ed b1 bd a4 4d 31 3d
       0.0098579945 0.047943406 -0.086879194 0.043286934

layers.2.bias f4 [10]
000000 a3 1e e8 3e 41 86 65 3f d8 d4 f9 bc a2 c9 59 3f
       0.45335874 0.8965798 -0.030497 0.8507329
000010 35 07 8f 3e e6 4f 2d 3e 6f 8f c0 be a6 57 a4 bc
       0.27935186 0.1692501 -0.3760943 -0.020061325
000020 af 7c 82 bc 0f f0 51 bc
       -0.015928594 -0.012813582

layers.4.weight f4 [1, 10]
000000 71 ac 0b c0 6b 45 3a c0 14 a4 0f 3d 21 c5 23 40
       -2.1824 -2.910487 0.035068586 2.5589068
000010 e8 32 fb 3f b9 76 0b 3f 0e 1c 93 bf 6e 5f 47 3c
       1.962491 0.5447803 -1.1492937 0.012168748
000020 11 8c bf bb 17 20 e5 bd
       -0.0058455546 -0.11187761
