example/model/Cxq.pth (torch, 3767 bytes, 5 tensors)

layers.0.weight f4 [20, 1]
00000000: 088f ce3e d8b3 4f3e cb24 1cbf 42b3 df3e
00000010: 57e7 b9bf 7ee4 db3b e43f 1abe 8aff 40bd
00000020: 5117 4fbe e0db 253d 3404 30bc 4926 ad3f
00000030: 160d 2dbe 4352 d53e 724a c9bd 86db 853f
00000040: be7f 91bc 190c d43f 80ac 013e 8dfc 80bf
0.403435 0.20283449 -0.6099364 0.4369145 -1.4523724 0.006710588 -0.15063435 -0.0471187
-0.20223738 0.040492892 -0.01074319 1.3527309 -0.16899523 0.41664323 -0.098286524 1.0457618
-0.017761108 1.6566192 0.1266346 -1.0077072

layers.0.bias f4 [20]
00000000: b767 133f 47b9 dd3d 236b ecbe 1efe 6b3e
00000010: 8009 9abe 266b 4bbd 7cd1 843e d816 b4bd
00000020: a5b3 b23e 128c b4bd 262c c13d a9b4 8ebf
00000030: aa79 0f3e e270 603e 21ce 423e 3197 93bf
00000040: e11d a2bd c7ce e9bf d229 393e 7d50 23bf
0.5758013 0.108263545 -0.4617549 0.23046157 -0.30085373 -0.04966273 0.25941074 -0.087934196
0.34902683 -0.08815779 0.09432249 -1.1148883 0.14011255 0.21918061 0.19023944 -1.1530515
-0.07915855 -1.8266228 0.1808236 -0.6379469

layers.2.weight f4 [10, 20]
00000000: c2e7 be3e 0154 8b3d 8402 8c3b f207 1b3e
00000010: 8979 96bf cd77 b5bc 84ee ce3d 7dbe 63bc
00000020: 97c8 103e c546 ae3c 58eb 5e3d 7e8b 59bf
00000030: 3969 fdbd 4bd6 003e 1b1c b83d 99ba d83e
00000040: 279c a53c f013 2d3f 78fa ea3d 4169 263c
00000050: dfc0 07be f01e a9bc 5a86 c03d a8ca b4bc
00000060: 00d0 0a3e ea03 09bc bf2a 063c 0556 35b9
00000070: 210c 573b 32d8 783c 0d70 ccbc 37e8 05bc
00000080: 7647 073d 3b09 713c 5f40 9abb 0aa4 8c3c
00000090: abc2 9f3b 031f 6cbc 5853 25bd 3f8b 193e
000000a0: 0554 b2bc 5f0d 543b 80f3 5cbc f056 69bc
000000b0: fba8 4abc 0b69 8c3c 3c95 94bc e634 bebc
000000c0: 936c 6c3c e71f 8b3c dce4 a7bc c2b4 16bc
000000d0: 5031 85bc 8e53 643c 6c6f 063b c8b0 bc39
000000e0: 6dad df39 f6ca afbc cba0 97bb b7a3 19bc
000000f0: f063 0f3c 9fe0 19be 90c0 87be 02e0 aabe
00000100: c386 833e 8c3c 9f3c ee84 893d 30cc 133b
00000110: a07d 813d b66a 133c 2427 313b 7fb3 9cb9
00000120: dcd0 933d f676 a2be aa25 063d 9ad2 413c
00000130: 8e01 b5bb a94c 123c c753 bb3b b05d dbbe
00000140: 4e19 01bf eeab 8cbc dc02 a43e b71d fa3b
00000150: adcc 313f 3cab 753b 239c 5b3c 4fd7 b03c
00000160: 6106 72bc aada ac3c 17dd 0fbd a6c4 5bbc
00000170: d6e6 793d 13fc 893c 7b94 39bd f679 89b9
00000180: e400 9a3c a79e da3b 3629 24be a52d 0e3f
00000190: be52 bd3d 0238 25bc 0b18 05be a48e b9bc
000001a0: 03d4 ca3d 428a 6dbc 1e3b d73c 0133 b63a
000001b0: 9abe 2d3d e8a0 8c3b 549e a7bb 8603 9f3d
000001c0: d4c2 993a ebc6 fcbc c0f9 ae3c d1f3 43be
000001d0: 87c3 99bb 571c a6be cfd3 fb3c 74e7 28be
000001e0: e971 bd3e 3dcc 80bd f81e b9be 2579 c9bd
000001f0: c1fa aa3e fb77 e2bb ad1d ac3d 5945 b93c
00000200: 4fc7 e33d 36e6 5a3c b8f9 613d e991 b03e
00000210: 814d 8e3d dab8 02be 0223 5d3d c7b5 30bf
00000220: 1f0a 993b e85d 91bf 579f 013e c00d 17bf
00000230: 10b2 833e 9490 2b3e 0a01 8b3e 1a15 bd3e
00000240: 54dc b73e e6ea 66bb 9f8f 92be fcb4 273c
00000250: ed7a c5be e1ba 3ebc 2144 8dbd f3fe a63f
00000260: f679 14bc 251f b43e 8bab 49be aad2 9dbf
00000270: 3372 563c 4b4b f6bf cc18 743d e5f5 b53e
00000280: 6917 3d3e 96c6 64bd ffe2 c9be f05e e3bd
00000290: 224e 583e a81f 623a 84a1 d33c de6a 49bc
000002a0: 3ee8 1b3d f7ec ab3c 8ae8 a53c d970 093f
000002b0: c109 e83d a271 b6bd 0715 2a3d 8d77 8fbe
000002c0: 3d4f 8dbc 8c4b e6be 779c 803d 06d0 18bf
000002d0: 6cd8 f5bb 7718 963c 9f72 0bbc aad4 88bc
000002e0: ca80 54bc a049 173a a375 85bc 6e3e 3ebc
000002f0: ac44 82bc d702 043c 6786 2e3a 0bab 893c
00000300: fd7f 503c 18c5 933c dd66 e93b 3219 56bc
00000310: 2cc6 783c 578c 49bc 4c4e 63bb e410 803c
0.37286192 0.06803132 0.004272761 0.1513975 -1.175584 -0.022151852 0.10104087 -0.013900396
0.14139019 0.02127398 0.05442366 -0.84978473 -0.12373585 0.12581746 0.08989736 0.42329863
0.02021606 0.6760855 0.114735544 0.01015693 -0.13257168 -0.020644635 0.094006255 -0.02206929
0.13555908 -0.00836275 0.008188902 -0.0001729355 0.0032813626 0.015188264 -0.024955774 -0.00817304
0.033027135 0.014711673 -0.0047073807 0.017168064 0.004875501 -0.014411691 -0.040362686 0.14994524
-0.02176858 0.0032356603 -0.013485789 -0.014241919 -0.01236939 0.017139932 -0.018137567 -0.023218583
0.014430183 0.016982986 -0.02049487 -0.009198369 -0.016258866 0.013935937 0.002051319 0.00035989867
0.00042663087 -0.021459084 -0.0046273223 -0.009377412 0.008751854 -0.15027092 -0.265141 -0.3337403
0.25688753 0.01943805 0.067148075 0.0022552125 0.06322789 0.00899761 0.0027031386 -0.00029888374
0.07217571 -0.31731385 0.032750763 0.0118299965 -0.005523867 0.00892941 0.005716774 -0.42844915
-0.50429237 -0.017171826 0.32033432 0.007632937 0.69452935 0.0037486097 0.013403925 0.021587042
-0.014772029 0.02110036 -0.035122957 -0.013413584 0.061011158 0.016843831 -0.045307618 -0.00026221544
0.018799253 0.006671745 -0.16031346 0.555384 0.092442974 -0.010084154 -0.12997453 -0.022651024
0.09903719 -0.014498295 0.026273306 0.0013900698 0.0424181 0.0042916425 -0.0051153097 0.07764344
0.0011731037 -0.03085657 0.021359324 -0.19135977 -0.004692498 -0.32443497 0.030740647 -0.16494542
0.3700097 -0.06288955 -0.3615644 -0.098375596 0.33394435 -0.0069112754 0.08404098 0.022616075
0.111219995 0.013360551 0.05516979 0.3448632 0.069483764 -0.12765828 0.053988464 -0.6902737
0.004670396 -1.1356783 0.1265844 -0.59005356 0.25721788 0.16754371 0.2714923 0.36930162
0.35910285 -0.0035235225 -0.286252 0.010236021 -0.38570347 -0.011641235 -0.0689776 1.3046554
-0.009062281 0.3518001 -0.19694345 -1.2329915 0.013088751 -1.9241728 0.05959396 0.35539165
0.18465962 -0.05585345 -0.39430997 -0.11102092 0.21123555 0.0008625933 0.025833853 -0.0122935455
0.03806328 0.020987017 0.020252485 0.53687817 0.113299854 -0.089083925 0.04152396 -0.28020898
-0.017249698 -0.44979513 0.06279843 -0.5969242 -0.007502606 0.018322213 -0.0085112145 -0.016702969
-0.012970159 0.0005771164 -0.016291445 -0.011611564 -0.015901886 0.008057318 0.0006657601 0.016805192
0.012725827 0.018038318 0.007122858 -0.0130675305 0.015183967 -0.012301526 -0.003468412 0.015633054

layers.2.bias f4 [10]
00000000: 8d94 f13e f7ca 3bbd 8efc 82bb 1954 173d
00000010: 1bad 7dbe 397e cb3d d783 8d3e 96e1 13bf
00000020: 5620 2d3e 736d adbc
0.47183648 -0.04584786 -0.003997392 0.036945436 -0.24773066 0.099361844 0.27639648 -0.5776609
0.16906866 -0.021170354

layers.4.weight f4 [1, 10]
00000000: 56e6 dabf 7885 86be 8de8 8ebc 7ad1 3c3f
00000010: f415 8dbf b14c e83e fe04 cc3f fb8b 3540
00000020: 2ae3 853f c452 0abc
-1.7101543 -0.26273704 -0.017444873 0.73757136 -1.1022325 0.4537101 1.5939023 2.8366687
1.045995 -0.008442584
