example/model/Cyp.pth (torch, 3775 bytes, 5 tensors)

layers.0.weight f4 [20, 1]
0.0024546834 1.8543173 0.420181 0.3143448 0.039573263 -0.3130041 0.9942646 0.16522041
0.64307857 0.68850815 0.6731703 -1.4319892 1.0994582 -2.4384913 -0.09053816 -0.35496092
-0.8042388 -1.4143031 -1.0059581 0.2948704
00000000: c1de 203b 455a ed3f f721 d73e cdf1 a03e
00000010: 9317 223d 1342 a0be 2088 7e3f 8a2f 293e
00000020: cca0 243f 1242 303f e454 2c3f 6c4b b7bf
00000030: 0cbb 8c3f 3e10 1cc0 126c b9bd 70bd b5be
00000040: 98e2 4dbf e207 b5bf 3cc3 80bf 41f9 963e

layers.0.bias f4 [20]
-0.02830235 0.13381141 0.5047849 -0.24820235 -0.070838794 -0.24810141 -0.7850981 0.2629235
0.5077089 -0.543597 0.2521873 0.89970404 -0.86820394 1.1484555 0.27293214 0.28012654
0.5053719 1.115843 0.12358417 0.47799292
00000000: 54da e7bc dc05 093e 9539 013f c228 7ebe
00000010: ee13 91bd 4c0e 7ebe 30fc 48bf e99d 863e
00000020: 36f9 013f 2c29 0bbf b21e 813e 0153 663f
00000030: 9d42 5ebf 9700 933f c3bd 8b3e bf6c 8f3e
00000040: 0e60 013f f2d3 8e3f b319 fd3d 7dbb f43e

layers.2.weight f4 [10, 20]
-0.008758067 -0.009189984 0.07777267 -0.097980104 0.002801508 0.007730535 -0.3776533 0.048496075
0.045293484 -0.21341413 -0.0054013086 0.20222047 -0.38684088 -0.48242614 0.03421946 -0.05310384
0.1235698 -0.27932617 0.013664221 0.075056866 -0.017892623 -0.96913415 0.21566975 -0.007935814
0.021435494 -0.32918245 -0.05053767 0.13018541 -0.49934357 -0.01785703 0.41935748 0.10331423
-0.041899562 0.03205799 0.10820106 0.054510966 0.035895247 0.16211292 -1.0057069 0.21824862
0.016325291 -0.04839644 0.1565827 -0.27271655 -0.005542085 0.022858554 -0.85778207 0.06203286
0.12262303 -0.60990745 0.030838504 0.50045156 -0.95716906 -1.2593032 0.14636436 -0.16036856
0.28990218 -0.6953915 -0.014207162 0.15792024 -0.015002531 0.09924762 0.15301743 -0.23357852
-0.016462645 0.012319533 -0.71214557 0.074619405 0.16347584 -0.50433946 0.07403851 0.44479674
-0.7765467 -1.2418653 0.0951257 -0.15106563 0.25397694 -0.75501 0.00026047748 0.15900752
-0.007846102 -0.04656452 -0.3204692 0.016440865 0.02004022 -0.22374311 0.07991116 0.18563895
-0.048741776 0.03638989 -0.3658433 -0.24680766 0.113113634 -0.04523737 0.10305168 0.07089895
-0.13178702 0.23165943 -0.036751434 0.32445702 -0.016948951 1.0563498 0.45462304 0.0388151
-0.021413643 -0.0006401944 0.11686518 0.18366443 0.53586245 0.06620995 0.3530998 -1.4564351
0.12644592 -0.5349298 0.06993454 -0.03360219 -0.81883556 -0.13541019 0.0044735977 0.3417179
0.019120231 -0.02724635 0.013437549 -0.0035653152 0.020219162 -0.01025542 0.014582335 -0.013245876
0.014460228 -0.014955905 -0.006014925 -0.024406007 0.021083359 0.013762429 -0.0051840083 -0.022787133
-0.0026220302 -0.0010897493 -0.023023097 -0.0056635966 0.020940362 1.2731837 0.26173678 -0.039191052
0.008509816 -0.011455225 -0.15156445 0.09271262 0.3945183 -0.090843745 0.33509958 0.32665133
-0.17059228 -1.83 -0.14848103 -0.35979924 0.15782574 -1.369254 -0.0026583266 0.12064343
0.017530182 -0.025721649 0.059510488 -0.12120235 -0.0075285602 -0.017850375 -0.3655363 0.05488925
0.071959876 -0.25471956 -0.006821404 0.20211612 -0.43253002 -0.55108637 0.05920887 -0.08550292
0.12367216 -0.291361 -0.019353777 0.08702138 -0.022054913 -0.010207374 -0.020459946 0.01504145
0.0026959034 0.012134986 -0.015541667 0.005210298 -0.011719206 0.013334044 0.023017943 0.017616326
-0.016842198 -0.019996172 0.011085648 0.020509563 -0.0011348679 -0.02293484 -0.021850698 -0.0084627485
00000000: ff7d 0fbc 9691 16bc 4747 9f3d cba9 c8bd
00000010: 8199 373b 6e50 fd3b c65b c1be d2a3 463d
00000020: a985 393d 3c89 5abe 76fd b0bb e212 4f3e
00000030: 0210 c6be 8f00 f7be b429 0c3d 6a83 59bd
00000040: 2a12 fd3d d703 8fbe e6df 5f3c 6ab7 993d
00000050: 8d93 92bc 2d19 78bf 88d8 5c3e 3705 02bc
00000060: 7d99 af3c 9a8a a8be 9600 4fbd 534f 053e
00000070: f6a9 ffbe e848 92bc 06b6 d63e 6996 d33d
00000080: e09e 2bbd 3d4f 033d 8498 dd3d e446 5f3d
00000090: e506 133d ee00 263e 01bb 80bf 917c 5f3e
000000a0: 9ebc 853c 583b 46bd 3757 203e 81a1 8bbe
000000b0: 619a b5bb dd41 bb3c 9b97 5bbf 2b16 7e3d
000000c0: c821 fb3d e522 1cbf 08a1 fc3c 981d 003f
000000d0: 0809 75bf d930 a1bf 8ae0 153e a837 24be
000000e0: 0f6e 943e 2d05 32bf 28c5 68bc d8b5 213e
000000f0: 2dcd 75bc 5642 cb3d 9ab0 1c3e 352f 6fbe
00000100: abdc 86bc ded7 493c 2c4f 36bf 0fd2 983d
00000110: 3666 273e 641c 01bf 81a1 973d 66bc e33e
00000120: c4cb 46bf 71f5 9ebf 43d1 c23d f3b0 1abe
00000130: 4409 823e 5648 41bf b290 8839 ded2 223e
00000140: f08c 00bc 70ba 3ebd 8a14 a4be feae 863c
00000150: 632b a43c ea1c 65be 76a8 a33d 2318 3e3e
00000160: 75a5 47bd 910d 153d d04f bbbe 26bb 7cbe
00000170: 1fa8 e73d d24a 39bd c20c d33d 7833 913d
00000180: 2df3 06be 2138 6d3e ac88 16bd 3b1f a63e
00000190: 87d8 8abc 7836 873f 5ac4 e83e 95fc 1e3d
000001a0: aa6b afbc b8d2 27ba 0357 ef3d 8712 3c3e
000001b0: 482e 093f 1599 873d 7fc9 b43e 776c babf
000001c0: 0a7b 013e 29f1 08bf d739 8f3d 73a2 09bd
000001d0: 359f 51bf f8a8 0abe 4297 923b a6f5 ae3e
000001e0: 08a2 9c3c bd33 dfbc 2a29 5c3c 10a8 69bb
000001f0: a8a2 a53c 5906 28bc bfea 6e3c 3b05 59bc
00000200: 98ea 6c3c 9d09 75bc d918 c5bb 1bef c7bc
00000210: 02b7 ac3c d07b 613c 9dde a9bb 15ac babc
00000220: 5ed6 2bbb ebd5 8eba ef9a bcbc b195 b9bb
00000230: 1f8b ab3c aff7 a23f 5d02 863e cc86 20bd
00000240: c16c 0b3c b2ae 3bbc b633 1bbe 1de0 bd3d
00000250: 4dfe c93e 490c babd 2c92 ab3e d83e a73e
00000260: beaf 2ebe 713d eabf 690b 18be 9b37 b8be
00000270: 129d 213e b743 afbf 5237 2ebb e713 f73d
00000280: 759b 8f3c 35b6 d2bc 45c1 733d f038 f8bd
00000290: 24b2 f6bb f33a 92bc 9327 bbbe 8dd3 603d
000002a0: b35f 933d 9a6a 82be 1686 dfbb 87f7 4e3e
000002b0: 9374 ddbe ff13 0dbf 0085 723d 281c afbd
000002c0: d447 fd3d 452d 95be d08b 9ebc 4438 b23d
000002d0: 81ac b4bc d43c 27bc 9e9b a7bc 6a70 763c
000002e0: c1ad 303b d2d1 463c 7aa2 7ebc 26bb aa3b
000002f0: ea01 40bc 0977 5a3c 2090 bc3c 1d50 903c
00000300: a6f8 89bc 03cf a3bc 94a0 353c ac03 a83c
00000310: d9bf 94ba d8e1 bbbc 3c00 b3bc 57a7 0abc

layers.2.bias f4 [10]
0.11608595 0.35783663 0.3554022 0.27870536 0.49223128 0.43374488 0.013277716 -0.079706475
0.14537992 0.015494151
00000000: 78be ed3d 5d36 b73e 47f7 b53e 78b2 8e3e
00000010: bd05 fc3e cf13 de3e c78a 593c 263d a3bd
00000020: 79de 143e 2edb 7d3c

layers.4.weight f4 [1, 10]
0.8560959 1.6094834 2.1636817 1.9768431 -0.856248 -2.256 0.032337822 2.711535
0.9389618 -0.01046531
00000000: 1a29 5b3f 8d03 ce3f c379 0a40 3209 fd3f
00000010: 1233 5bbf 4e62 10c0 aa74 043d ca89 2d40
00000020: cd5f 703f b176 2bbc
