example/model/Cyr.pth (torch, 3767 bytes, 5 tensors)

layers.0.weight f4 [20, 1]
1.1031396 -0.74893475 -1.1721634 0.23670165 0.117394604 -0.0436755 -0.62122804 -0.5908479
-0.034355633 0.22184642 -0.84961 -0.22632188 -0.62147534 0.009231557 -1.6444093 0.6062685
-0.6644011 0.41403583 -0.012678246 -0.0064237993
00000000: ae33 8d3f 30ba 3fbf 7309 96bf eb61 723e
00000010: 956c f03d 15e5 32bd cd08 1fbf cf41 17bf
00000020: 7eb8 0cbd b52b 633e 0a80 59bf ecc0 67be
00000030: 0219 1fbf f53f 173c 017c d2bf 6a34 1b3f
00000040: 3116 2abf 81fc d33e 6bb8 4fbc bc7e d2bb

layers.0.bias f4 [20]
0.0001244346 0.8133265 0.19722511 -0.15084347 0.18578929 -0.08699628 0.39681607 0.64159626
-0.05470294 -0.07337958 0.14230303 0.24582916 0.39686593 -0.017237946 -0.0041802768 -0.17823456
0.42424953 -0.26389635 0.023627821 -0.012602921
00000000: a97a 0239 2a36 503f 61f5 493e b676 1abe
00000010: 8c3f 3e3e 1b2b b2bd 7a2b cb3e a73f 243f
00000020: 3110 60bd 0948 96bd e3b7 113e a4ba 7b3e
00000030: 0332 cb3e 9836 8dbc b4fa 88bb 1f83 36be
00000040: 3c37 d93e 6c1d 87be 228f c13c 7b7c 4ebc

layers.2.weight f4 [10, 20]
0.39033368 -0.71336055 0.0067614852 0.11064011 0.012426546 -0.0074297353 -0.015454393 -0.5581311
0.0030009267 0.098911814 0.007252622 -0.2202977 -0.0069525447 -0.007073984 0.000515404 0.20528917
-0.0029065153 0.16603406 -0.01681104 0.00070327485 -0.0654561 0.013286772 -0.010320576 0.00838738
-0.011378692 0.011506259 0.024216635 0.030318683 -0.0109309675 0.022980934 -0.01671338 0.020588253
-0.0010522442 0.013948593 -0.11595916 -0.008195541 0.0143058505 -0.0070832153 -0.00026175773 -0.010478074
0.01915686 -0.0027471446 0.046181247 0.007046824 -0.0339175 0.015694538 0.03595235 -0.00792435
-0.012398386 -0.010408099 0.028170628 -0.016011827 0.021968909 -0.019398747 0.021246422 0.002117206
0.038500194 -0.011105206 0.008770502 -0.009077212 0.46562958 0.45801494 -1.0247201 -0.14892134
0.12812863 0.0006666477 -0.5582941 0.35462335 0.014025031 -0.026456397 -0.7492355 0.14687382
-0.5693611 -0.0030907027 0.00030254349 -0.25903323 -0.6012894 -0.2680363 -0.01229826 0.021087484
0.24831907 -0.33780518 -0.00972517 0.030975614 0.022676997 -0.02405943 -0.0047713686 -0.28123942
-0.00834815 0.06548873 -0.018210696 -0.120373406 -0.023499545 0.0023512188 0.0067755287 0.11677685
-0.0021609652 0.06306792 -0.006112805 -0.014195219 -0.21576725 0.119233586 0.17616326 0.00950237
0.03946292 -0.005577818 0.09856487 0.11781698 -0.024635516 -0.044302117 0.110557154 0.06124558
0.08798662 0.01660227 -0.21482159 -0.01920444 0.09318554 -0.012616459 0.005953073 -0.009663455
0.013858862 0.0074121007 -0.016824536 -0.012718567 0.013067297 -0.0040171957 -0.014626679 -0.003632753
0.0116348695 0.005104174 -0.023872294 -0.011308918 0.0046699913 -0.010214925 0.003799348 -0.014105193
0.014960603 -0.016568586 0.013456352 -0.014644453 -0.5396749 -0.62187415 0.4627021 0.17914568
0.15806197 0.010639564 0.44517666 -0.48815987 0.021150457 0.18722354 0.30232486 -0.16175967
0.43152723 0.023563584 -1.5920312 0.48952055 0.46177796 0.31760976 0.026528576 0.02311505
-0.016111853 -0.013549007 0.014183455 -0.005309718 0.010779678 0.011352173 -0.019300949 0.008211778
-0.0016957264 -0.0198365 -0.017189011 0.0007916514 0.022951234 -0.016916355 0.016286753 0.017270353
-0.012126829 0.021935793 -0.0092880195 0.022916531 -0.71794844 0.16643924 0.36586297 0.0024408828
-0.09807924 0.0037927025 0.17818484 0.13496844 -0.00967611 0.0117686065 0.28961697 0.0470824
0.18222259 -0.005678611 -0.38653257 0.0009626717 0.20192492 -0.014453001 0.008748997 0.019937096
00000000: d1d9 c73e cc9e 36bf 738f dd3b 4897 e23d
00000010: b698 4b3c 2375 f3bb 6c34 7dbc aee1 0ebf
00000020: 32ab 443b 4792 ca3d 67a7 ed3b b895 61be
00000030: 2cd2 e3bb e1cc e7bb 2d1c 073a 5337 523e
00000040: 3c7b 3ebb d504 2a3e 4eb7 89bc fa5b 383a
00000050: d90d 86bd c3b0 593c a217 29bc 396b 093c
00000060: b26d 3abc c084 3c3c f761 c63c e35e f83c
00000070: cd17 33bc 8342 bc3c 80ea 88bc b2a8 a83c
00000080: 75eb 89ba a488 643c ff7b edbd 9746 06bc
00000090: 1663 6a3c 511a e8bb 873c 89b9 3aac 2bbc
000000a0: d9ee 9c3c 7009 34bb 8c28 3d3d 0be9 e63b
000000b0: 14ed 0abd d591 803c c542 133d 22d5 01bc
000000c0: 9a22 4bbc bb86 2abc 17c6 e63c 3c2b 83bc
000000d0: 24f8 b33c 1fea 9ebc fa0c ae3c d3c0 0a3b
000000e0: 61b2 1d3d 9cf2 35bc 27b2 0f3c 96b8 14bc
000000f0: 0067 ee3e ef80 ea3e 072a 83bf d67e 18be
00000100: 2734 033e f8c1 2e3a 5dec 0ebf 3191 b53e
00000110: 3ec9 653c 16bb d8bc e6cd 3fbf 1766 163e
00000120: a6c1 11bf 638d 4abb b39e 9e39 01a0 84be
00000130: 1aee 19bf 0e3c 89be a47e 49bc a9bf ac3c
00000140: 5b47 7e3e cdf4 acbe 5256 1fbc 92c0 fd3c
00000150: 1cc5 b93c 4818 c5bc 2459 9cbb 9dfe 8fbe
00000160: aec6 08bc f51e 863d 992e 95bc 5586 f6bd
00000170: 1e82 c0bc e816 1a3b 4105 de3b b328 ef3d
00000180: fb9e 0dbb c129 813d ed4d c8bb 1093 68bc
00000190: 17f2 5cbe bd30 f43d 2464 343e d4af 1b3c
000001a0: dfa3 213d 21c6 b6bb 61dc c93d 074a f13d
000001b0: 6cd0 c9bc 2376 35bd ca6b e23d a5dc 7a3d
000001c0: 5432 b43d 7c01 883c 31fa 5bbe a152 9dbc
000001d0: 0fd8 be3d 44b5 4ebc ff11 c33b 7853 1ebc
000001e0: 4810 633c 35e1 f23b 9cd3 89bc 8961 50bc
000001f0: 3718 563c aea2 83bb bda4 6fbc 7b13 6ebb
00000200: 2ea0 3e3c ea40 a73b d48f c3bc 0a49 39bc
00000210: ba06 993b 805c 27bc 7bfe 783b 7819 67bc
00000220: 511d 753c d8ba 87bc 0878 5c3c 4aef 6fbc
00000230: 2228 0abf 2533 1fbf 4ae7 ec3e f771 373e
00000240: ffda 213e 9151 2e3c 32ee e33e 17f0 f9be
00000250: b943 ad3c 87b7 3f3e 53ca 9a3e 54a4 25be
00000260: 23f1 dc3e 6b08 c13c aec7 cbbf 70a2 fa3e
00000270: 296e ec3e bf9d a23e 7552 d93c c65b bd3c
00000280: 01fd 83bc a7fc 5dbc b961 683c 25fd adbb
00000290: 3f9d 303c 77fe 393c 061d 9ebc b18a 063c
000002a0: 2343 deba 2880 a2bc f8cf 8cbc d386 4f3a
000002b0: 3a04 bc3c 2b94 8abc cc6b 853c 8e7a 8d3c
000002c0: 9baf 46bc b1b2 b33c c72c 18bc 73bb bb3c
000002d0: 78cb 37bf 0c6f 2a3e 6452 bb3e 38f7 1f3b
000002e0: c5dd c8bd fd8e 783b 1676 363e 2b35 0a3e
000002f0: 8c88 1ebc 1dd1 403c ad48 943e 7ad9 403d
00000300: 8f98 3a3e a413 babb 99e7 c5be ce5b 7c3a
00000310: 68c5 4e3e 48cc 6cbc f457 0f3c 1f53 a33c

layers.2.bias f4 [10]
-0.096583635 -0.011039426 -0.034683593 0.34536222 -0.019596899 0.07183294 -0.023025844 0.47511497
-0.019097432 -0.17614022
00000000: a4cd c5bd b5de 34bc 6210 0ebd 51d3 b03e
00000010: ad89 a0bc 261d 933d b2a0 bcbc 4542 f33e
00000020: 3872 9cbc 1a5e 34be

layers.4.weight f4 [1, 10]
1.0473459 0.13381161 -0.060391113 -1.8424884 0.5342218 0.3799229 0.024286479 2.2117143
-0.0061690444 0.86948293
00000000: 6e0f 863f e905 093e ac5c 77bd a9d6 ebbf
00000010: c3c2 083f 4185 c23e 70f4 c63c ba8c 0d40
00000020: b225 cabb 6f96 5e3f
