example/model/Cz.pth (torch, 3935 bytes, 5 tensors)

layers.0.weight f4 [20, 3]
000000 5c d8 83 3d 9f ba e7 be e3 25 4e 3d dd d5 32 3e
       0.06437752 -0.45259568 0.0503291 0.17464395
000010 7d ab 1d 3e b3 44 7a bd 57 54 a3 3e a5 0c d7 bb
       0.15397449 -0.061100673 0.31900284 -0.0065627866
000020 69 9b 5c bd bb 86 8f 3d 01 1a 27 b9 df 4b ac bd
       -0.05385915 0.0700812 -0.00015936048 -0.08412909
000030 aa 30 44 3e dd 13 bb 3e 9d 5f ad ba 58 6d 4a 3e
       0.19159189 0.36538592 -0.0013227348 0.19768274
000040 fc e0 51 be 35 c2 1c bd b8 a3 3f bf c0 eb a8 3c
       -0.20495981 -0.038271148 -0.7485919 0.020620227
000050 e8 28 97 bc ac de b3 3e 0e 95 5e be d0 4b 2d bd
       -0.018452123 0.35130823 -0.21736547 -0.04230863
000060 1f d2 8b be ac 39 63 be 92 e4 e5 bb b2 48 03 3d
       -0.27308747 -0.22189969 -0.007015773 0.03205175
000070 36 d7 9d 3a 7f a0 6d 3d 28 1f b7 be 63 4e 67 3e
       0.0012042287 0.05801439 -0.35765958 0.22588496
000080 6b 10 ee bd 1e a5 9b 3d 42 c5 ed b9 b7 97 53 3e
       -0.11624225 0.07599853 -0.0004535113 0.20663343
000090 f2 f4 99 3d 7f 86 c7 3b 97 fe 0a 3e b1 0b 2d be
       0.07517423 0.006089031 0.13573681 -0.16898991
0000a0 2f 59 28 be 90 13 09 3d f0 1e 6f be dc eb 58 bd
       -0.16440271 0.033465922 -0.23351645 -0.052959308
0000b0 53 52 c4 3b 48 8e a8 be 0d cc 36 be f9 68 ef bd
       0.005991259 -0.32921052 -0.17851277 -0.11689944
0000c0 64 67 96 3c b3 eb a1 bc 05 b3 9e be 58 2a d2 be
       0.018359847 -0.01976571 -0.30995956 -0.4104793
0000d0 f8 86 84 bd d7 0a 0f ba 72 cf 1b 38 f0 59 f5 b7
       -0.06471056 -0.00054566324 3.714808e-05 -2.9248156e-05
0000e0 fb 66 90 36 be 1e 92 3e ac e9 69 3a 92 78 e9 bd
       4.303523e-06 0.2853908 0.00089230645 -0.1139995

layers.0.bias f4 [20]
000000 16 6d ce bd a7 ce 36 bd fc 1a ea 3e c0 82 14 3e
       -0.100794 -0.044630673 0.45723712 0.14503002
000010 7a bd 07 be 1a 11 52 bd 51 08 aa 3d 9a 62 c7 3c
       -0.13255873 -0.05128584 0.083023675 0.02433901
000020 68 a5 bc 3c 9e 68 13 bd 5c 6c 70 3d 76 60 e6 3d
       0.02302809 -0.035988443 0.05869709 0.11248867
000030 38 66 a6 bd 06 0a a1 3e c4 1d 11 be 54 3b cc 3d
       -0.081249654 0.3145296 -0.14171511 0.099722534
000040 41 c4 8d ba 7c 24 a4 3e fe 6e f8 b8 f4 18 ee 3e
       -0.0010815935 0.32059085 -0.000118462354 0.46503413

layers.2.weight f4 [10, 20]
000000 62 35 43 3b aa f1 a0 3b 32 51 01 bc 0b 88 0a ba
       0.0029786457 0.004911621 -0.007892894 -0.0005284554
000010 e7 a0 84 3b 5d 57 4f 3b bd f5 96 3c 6c 85 9f 3b
       0.0040475014 0.0031637766 0.018427724 0.0048682
000020 a8 b9 61 3c 06 55 15 3b 95 97 30 3c af 79 c3 bb
       0.013777174 0.0022786274 0.0107783275 -0.0059654335
000030 a7 d5 ae 3b fc 6e 58 b8 fb c9 c9 3b 70 d7 84 3c
       0.005335528 -5.1601775e-05 0.006158111 0.01621601
000040 d3 99 81 3c a0 02 0e bb 0e 55 61 b8 0f 69 b6 bb
       0.01582042 -0.0021669045 -5.3723394e-05 -0.005566723
000050 92 be 99 be 95 34 4d be b6 70 c2 bb 65 e3 17 3d
       -0.30028206 -0.2003959 -0.0059338463 0.037082095
000060 c0 bc b0 be 7c d3 89 be d2 d7 a7 be c3 53 cb be
       -0.34519005 -0.26919162 -0.32781845 -0.39712343
000070 69 50 05 be e6 0c 10 bd 25 d2 12 be 53 c7 60 3d
       -0.13018955 -0.03516855 -0.14337976 0.05487759
000080 c2 30 af bd e3 b0 9d 3e 16 2f 06 be 7f c9 11 be
       -0.08554222 0.30799016 -0.131039 -0.14237021
000090 6f 66 aa bb 50 be 8c 3e b7 4f de b7 0e 10 44 3d
       -0.0052001993 0.27488947 -2.6501582e-05 0.047866873
0000a0 af 5e 1d bd 42 6f a1 bd e8 ab a5 3e 01 f2 f5 3d
       -0.038420375 -0.07882549 0.32357717 0.12009049
0000b0 15 e7 98 bd cf 4c 5e bd c6 93 61 be 5b 16 86 bd
       -0.074659504 -0.05427247 -0.22029027 -0.06547233
0000c0 41 e4 3d be 0d 8f 44 bd 12 e6 0d be 64 c3 32 3e
       -0.18544103 -0.047987986 -0.13857296 0.17457348
0000d0 69 6d e0 bd 56 cf 2e 3e e6 a0 f0 bd e3 09 16 be
       -0.10958368 0.1707128 -0.11749439 -0.14652209
0000e0 c8 1e 16 be 8b 54 71 3e 8a 80 d1 37 5e 54 b6 3e
       -0.1466018 0.23567407 2.4974597e-05 0.35611242
0000f0 b3 d1 57 38 88 dd d0 b7 2b 77 3f 38 ae 37 1f b8
       5.1455292e-05 -2.489869e-05 4.5648932e-05 -3.796041e-05
000100 ca 0e 36 b6 b2 0e 08 b8 d9 bc 02 b7 bb 73 8d 36
       -2.7128722e-06 -3.2438613e-05 -7.792573e-06 4.2156003e-06
000110 0f 2a df 37 0e df 5c b8 04 92 d9 b7 2d cd 3f b8
       2.6603257e-05 -5.2659823e-05 -2.593641e-05 -4.5729033e-05
000120 55 31 39 38 ab b6 3c 37 cb b2 06 38 65 d3 37 b8
       4.415338e-05 1.1248204e-05 3.2114604e-05 -4.3827476e-05
000130 15 c3 96 37 96 1f b4 37 70 97 1e b8 f2 2c 5d b8
       1.7972236e-05 2.147238e-05 -3.7811173e-05 -5.2732365e-05
000140 fb 46 25 bd 5d 65 74 bd 6c 7d 36 3e 6c a2 84 3d
       -0.040350895 -0.05966698 0.17821282 0.06476292
000150 90 48 85 bd fb 7e 07 bd 65 0d f4 bd 97 36 26 bd
       -0.06507981 -0.033080082 -0.11916617 -0.040579405
000160 db aa d7 bd 0c 06 e8 bc ed 66 9d bd fe ee ca 3d
       -0.10530635 -0.028323196 -0.07685647 0.099088654
000170 63 65 84 bd fa d0 cf 3d 41 26 80 bd d0 33 ab bd
       -0.064646505 0.10147281 -0.06257296 -0.08359492
000180 bd ff c0 bd ae db 0f 3e 9e d4 fe b5 df c9 45 3e
       -0.09423778 0.14048645 -1.8986354e-06 0.19315289
000190 a0 e0 53 be 61 06 22 bd 54 3e 93 be 2d c2 ae bd
       -0.20691156 -0.039556865 -0.2875849 -0.0853313
0001a0 e3 bf 17 be 14 55 4c bd 60 ff ca 3e c6 27 2d bd
       -0.14819293 -0.049885824 0.3964796 -0.04227426
0001b0 dd 18 aa 3d 62 c6 a6 bb 5f 25 5e 3e c5 14 4c bd
       0.083055235 -0.005089567 0.21693943 -0.049824495
0001c0 d2 41 fb bb 26 43 9b 3d 32 71 f6 3d 9b 8d 0e 3e
       -0.0076677585 0.07581167 0.12033309 0.13921206
0001d0 03 55 87 bd e5 60 63 3e 1a 58 e3 37 06 99 89 be
       -0.066080116 0.22204931 2.7101534e-05 -0.2687456
0001e0 de 42 27 3d dd a4 89 3d 3a 47 de bd e9 10 d3 bb
       0.040835254 0.06720898 -0.10853429 -0.006441225
0001f0 aa 39 64 3d db f1 31 3d 04 1e 81 3e 81 d6 87 3d
       0.055719055 0.043443542 0.25218213 0.0663271
000200 69 fe 40 3e f7 c5 02 3d 25 f2 16 3e de eb a6 bd
       0.1884705 0.031927075 0.14740808 -0.08150457
000210 55 c0 95 3d 17 d2 05 ba 26 bc ad 3d 1e f2 62 3e
       0.07312075 -0.0005104853 0.08483152 0.22162673
000220 6c 36 5d 3e 25 8f f2 bc 77 49 1f 38 89 35 9b bd
       0.21602792 -0.029609272 3.7976974e-05 -0.075785704
000230 00 36 5f be 52 2e 4b bd 9e 8d 7e be 22 77 89 bd
       -0.21797943 -0.04960472 -0.2485871 -0.06712176
000240 74 76 33 be a0 bb 3a bd 52 47 c9 3e aa d8 e2 bc
       -0.17525655 -0.04558909 0.39312226 -0.027691204
000250 f6 ee bb 3d ad 76 e0 3b eb 2d 70 3e 49 f6 17 bd
       0.091764376 0.0068500848 0.23455016 -0.03710011
000260 99 fe ae 3c 2a 3c e6 3d 3f 2d 08 3e c7 fe 42 3e
       0.021361636 0.11241944 0.1329851 0.19042502
000270 72 64 29 bb ae 92 82 3e d2 91 2e 38 91 1d 65 be
       -0.0025847224 0.25502533 4.162064e-05 -0.2237456
000280 e4 ea d4 bd 7d 07 0a bd 19 63 5c 3d 89 8e df 3a
       -0.10396364 -0.033698548 0.053805444 0.0017056029
000290 e7 fa e8 bc d3 a8 31 bd 96 3d c5 bc e1 94 3b bd
       -0.028439952 -0.043373894 -0.024077218 -0.04579628
0002a0 15 7f c7 bd 70 b4 66 bc 86 e2 f1 3c c1 9c 75 3d
       -0.09741036 -0.014081106 0.02952696 0.059963945
0002b0 9d a2 03 bd 60 75 d7 3c 32 a2 f1 bc 6a 8e b8 bd
       -0.032137502 0.026301086 -0.029496286 -0.09011538
0002c0 09 d3 f4 bd db c3 b8 3d 64 57 2a b8 cb 8d 22 3d
       -0.11954314 0.090217315 -4.0612547e-05 0.039686006
0002d0 26 8f 24 be 82 d3 30 bc c6 52 04 be f8 39 01 bd
       -0.16070232 -0.010792615 -0.129222 -0.031549424
0002e0 74 44 31 bd ae 84 53 bc 91 08 08 3e 9d 46 a5 bb
       -0.043278173 -0.012910051 0.13284518 -0.005043818
0002f0 0e 6f 9a bc b7 57 17 3b c4 f4 1e 3e 12 2b 6d bd
       -0.018851783 0.0023093054 0.15523058 -0.057902403
000300 b6 0b ad 3b 57 bb 25 bd c2 f7 25 3d fa 2d e8 3c
       0.005280937 -0.040461864 0.040519483 0.028342236
000310 30 81 c4 bc 5d d6 31 3d 9c 9f 14 b7 90 91 e7 bd
       -0.023987383 0.043417323 -8.858649e-06 -0.11307061

layers.2.bias f4 [10]
000000 50 05 08 3c f6 c0 8a 3e b8 cd 59 3e 3d 98 66 b8
       0.008302048 0.27100343 0.21269882 -5.4978056e-05
000010 a3 a8 e3 3d 08 9f cf 39 bd 8f e8 3d c5 35 ba 3d
       0.11116149 0.00039600604 0.11355541 0.09092287
000020 76 93 36 3d 74 c8 48 bd
       0.044574223 -0.049019292

layers.4.weight f4 [1, 10]
000000 14 e0 1e 3d b5 0c 75 bf 17 7e 45 bf b4 f1 c6 b7
       0.038787916 -0.95722514 -0.7714552 -2.3715991e-05
000010 62 38 e0 be 99 d6 3b 3f db d6 07 3f 67 39 3f 3f
       -0.43793017 0.73374325 0.5306222 0.74696964
000020 5f f7 87 be 58 ce ab 3e
       -0.26555917 0.33555865
