example/model/Czq.pth (torch, 3767 bytes, 5 tensors)

layers.0.weight f4 [20, 1]
00000000: 8c4f 6abf 6fb2 1e3f 8173 c03e 440f a93d
00000010: 35e4 373f cb36 d53d 178c 51be b2ce 373f
00000020: 6bec ad3f 4b5e 8abe d3a7 153f 7019 133f
00000030: d19f 483b 037a 123d a9ee e3bc af02 43bd
00000040: 9483 803f 0bc8 803d da93 2cbf 7f6c 86bf
-0.9152763 0.6199102 0.37588122 0.08254865 0.7183259 0.104108416 -0.20463596 0.71799767
1.3587774 -0.27025065 0.58459204 0.5746069 0.0030612836 0.03576089 -0.027823763 -0.04760998
1.0040154 0.06288155 -0.67413104 -1.050186

layers.0.bias f4 [20]
00000000: 93b8 073e 818d bebd fbfd 66bd 5102 9b3e
00000010: e88d 5f3f f999 5e3e 3014 9abe b4d0 dcbd
00000020: 0840 393d 1f75 ce3e 58bf b3bd 16a3 b0bd
00000030: f3fe a73e 783b d7bd b29e abbd 9dd6 b33e
00000040: c514 97bf 5688 083e 1f72 c73d 2e37 e3be
0.13254003 -0.093043335 -0.05639456 0.30275205 0.87325907 0.21738423 -0.30093527 -0.107819945
0.04522708 0.4032373 -0.0877673 -0.08624856 0.32811698 -0.1050939 -0.08379878 0.35124674
-1.1803213 0.13333258 0.09738564 -0.44378036

layers.2.weight f4 [10, 20]
00000000: 6e77 acbc c681 913e abc0 3b3e f3c2 613e
00000010: 8370 b83e 5f18 503e b5df a0bc 5362 9f3e
00000020: 3714 adbe ecf9 90bd d38b 7f3e 2243 823e
00000030: 3ff6 253e a998 8eba 4362 bdbc 8413 063e
00000040: 904f 0f3f b732 fd3d e19c 06bd dd86 8fbf
00000050: ba0f cf3b d850 973c a3a7 873c fcb6 493b
00000060: f7e9 b2bc 5428 8abc 9b47 5bbc c88a 4ebc
00000070: 4899 80bc 20e6 8abc d64e 0bbc a475 dcbb
00000080: 86ab 4abc d9c1 44bc 32cc a9bb 7b90 3c3c
00000090: ce3f fbba 05e3 8d3b f471 053c fb37 dfbb
000000a0: 3200 35be eb63 c5bd 7f7b 37bd cebc 3b3d
000000b0: cce1 37be 4aa8 4d3d 82a1 9a3d 9a16 b3bd
000000c0: e38e 4b3e 586d 753d 50cc 89bd 46bb b6bd
000000d0: c492 673d 5fcf c5bb 43f8 4bbc d3a8 723d
000000e0: 6106 62be a8d4 2f3d b33a e1bd c1c3 5f3d
000000f0: ab42 01bc 106e db3d 4049 643d f9cb a6bd
00000100: a255 26be 4801 09bd e83d b33c 4e62 033e
00000110: 2d89 7a3e 7c92 7ebe d5d3 da3d 1293 a43d
00000120: 0a53 f4bd 2f94 25bc 6440 aebc 324b 12be
00000130: 2455 b53e 5221 2ebd 8a49 763b 8ca4 5c3c
00000140: 343c 8ebb 854c 443b ea54 7cbc 4c78 b2bc
00000150: 797a 38bb 2dd4 bd3c e545 a1bc 64f4 74bb
00000160: 80fc 14bc 0160 69bc c8ab 0a3c ee8b bc3a
00000170: 5e9e 5b3c e68b c33c 2979 0a3c c257 9fbc
00000180: a538 c0bc 7c8b acbc 0c8d 56bc 503b d7bb
00000190: 9499 03bf 66a5 72be 77b8 08be 58fb 423e
000001a0: 8481 0cbf 4077 1b3e 1b7c 4f3e b6d3 a0be
000001b0: fdb4 123f f7f0 493e 0205 84be 8625 7abe
000001c0: 878b 303e c352 56bc 8a07 56bc 2584 433e
000001d0: 96fc 3cbf 3322 a53d fd6d c1be 896e 973d
000001e0: 3da0 9a3e 1c87 883d 948e 7d3c d890 cb3c
000001f0: 7c54 183f 89bc 8ebc 4e39 3fbe b229 483d
00000200: a941 33bf e373 143e 47c7 0e3d 9782 643d
00000210: 787e 863d a44b cc3b 8551 913c 8b7d 813d
00000220: a674 18bd 03e9 11bb fbcb 433e f4ba 10be
00000230: b55e d83d 4e99 733a 34b7 9f3c 3579 26bc
00000240: 4e60 4d3e 7cbe 333c 25f0 89bd 5eb1 2ebc
00000250: e44f 51be 17ec 543d fc44 3cbb 8f0f 423c
00000260: c93a 33bc 24fa 213c 7009 bcbc 9de2 1d3d
00000270: 3e8c 79bc 7212 913a 78e0 663d d835 8cbd
00000280: 0c74 b3bc 6aca 093e c88f 9a3d 0801 d5bd
00000290: 0780 69be 7ee9 9ebd 9e21 67bc 2ce7 0f3e
000002a0: 617e b83e 5553 a7be 2a34 fa3d 63c5 033e
000002b0: 4ab1 18be 1bed c73a 9fde c83b b68e 4bbe
000002c0: 2a5c ec3e 2c89 e1bc 495c 1fbc 5c9e 4fbc
000002d0: 2f41 1dbf e3f7 a9be 650e 5abe f4c4 7f3e
000002e0: 77ad 28bf a67b 323e 4700 3e3e 14bc c6be
000002f0: ee63 343f 24b5 643e 5356 a2be 3458 99be
00000300: a7f0 863e c6ae 8c3a 4bb0 a73c 9bb2 803e
00000310: 7f2e 67bf a733 ee3d 3c7c f5be 8194 953d
-0.021053042 0.28419322 0.18335216 0.22047023 0.3602334 0.20321797 -0.019637922 0.31129703
-0.33804485 -0.07078919 0.24955682 0.25441843 0.16207217 -0.0010879237 -0.023118144 0.13093382
0.5598078 0.12363189 -0.032864455 -1.1213032 0.0063190134 0.018471166 0.016559428 0.0030779233
-0.021840079 -0.016864933 -0.013383771 -0.01260633 -0.01569809 -0.016955435 -0.008502683 -0.006727891
-0.012369996 -0.0120091075 -0.0051818127 0.011509056 -0.0019168796 0.0043300414 0.008144844 -0.0068120933
-0.17675856 -0.096381985 -0.04479551 0.045834355 -0.17957228 0.05020932 0.075503364 -0.08744545
0.19878726 0.05991873 -0.06728423 -0.08922438 0.05653645 -0.0060366835 -0.012449327 0.059243035
-0.22072746 0.042927414 -0.10997524 0.054630045 -0.00788943 0.10714352 0.05573392 -0.081443734
-0.16243604 -0.033448488 0.021880105 0.12830469 0.24466391 -0.24860567 0.10684935 0.08035864
-0.11929901 -0.0101061305 -0.021270938 -0.14286497 0.3541652 -0.042512245 0.0037580454 0.013466965
-0.004340673 0.0029952836 -0.015401104 -0.021785878 -0.0028149171 0.023172462 -0.019686649 -0.0037377113
-0.009093404 -0.0142440805 0.008463807 0.0014384964 0.013404457 0.02387042 0.008451738 -0.019451026
-0.02346451 -0.021062605 -0.013095152 -0.00656835 -0.51406217 -0.23695907 -0.13351618 0.19041193
-0.54885125 0.15182209 0.20262186 -0.31411523 0.57307416 0.19720827 -0.2578507 -0.24428377
0.17240725 -0.013081255 -0.013063321 0.19093378 -0.73822916 0.080631636 -0.37779227 0.0739413
0.30200377 0.06666395 0.015475888 0.02484934 0.5950391 -0.017423885 -0.18674204 0.04886789
-0.70022064 0.14497332 0.034858014 0.055788603 0.06567091 0.006234603 0.017739067 0.063227735
-0.03722062 -0.002226413 0.19120781 -0.14133817 0.10564939 0.00092925585 0.019496538 -0.010160734
0.20056269 0.010970708 -0.06735257 -0.010662405 -0.20440632 0.051982965 -0.0028727641 0.01184453
-0.010939308 0.009886298 -0.022953719 0.038546193 -0.01523119 0.0011068119 0.056366414 -0.068462074
-0.021905921 0.13456121 0.07546955 -0.10400587 -0.22802745 -0.07759379 -0.014107136 0.14053029
0.3603392 -0.32680765 0.12216981 0.12868266 -0.1491138 0.0015253158 0.006130054 -0.19878659
0.46164066 -0.027531229 -0.009726592 -0.012672033 -0.6142759 -0.33196935 -0.21294554 0.24977475
-0.65889686 0.1742998 0.18554793 -0.38815367 0.7046498 0.22334725 -0.31706485 -0.29950106
0.26355478 0.0010733239 0.020469805 0.25136265 -0.9030532 0.11630946 -0.47946346 0.073037155

layers.2.bias f4 [10]
00000000: ed00 533e ceda c5bb ebb1 5d3e 23bf 85be
00000010: 3763 503b 038c 3f3f 68a3 9cbd 0083 f1bc
00000020: 3aff b5be b924 6b3f
0.20605822 -0.0060380464 0.21649902 -0.26122388 0.0031797418 0.74823016 -0.07648355 -0.029481411
-0.35546285 0.9185291

layers.4.weight f4 [1, 10]
00000000: 5fec a13f eb4b e53c a095 d3be e6ec 153f
00000010: 7b2f 0f3c 75c4 a8bf 43eb 5b3f a42e 8b3e
00000020: 4f52 493f 8b4e d0bf
1.265026 0.027990302 -0.41325092 0.58564603 0.008739348 -1.3184954 0.85905856 0.2718402
0.7864122 -1.627397
