example/model/delta_Czq_lef.pth (torch, 3919 bytes, 5 tensors)

layers.0.weight f4 [20, 1]
0	0x3f0fb4fb	0.5613553
1	0x3ca4d759	0.020122217
2	0xbde5ee82	-0.112271324
3	0xbf358718	-0.7090926
4	0x3ed57333	0.41689453
5	0xbd10743b	-0.035267096
6	0xbad5d9a7	-0.0016315476
7	0xbeeca275	-0.46217695
8	0xbe8dcb7a	-0.27694303
9	0xbc946f09	-0.018119352
10	0xbf77628a	-0.96634734
11	0x3ef7539f	0.48305985
12	0x3f1c48a9	0.6104837
13	0xbf66aca9	-0.9010721
14	0x3f50f365	0.8162139
15	0xbcf09432	-0.02936754
16	0x3f937c68	1.1522341
17	0xbd7028d0	-0.05863267
18	0xbef24e1a	-0.47325212
19	0x3e875b39	0.26436785

layers.0.bias f4 [20]
0	0xbf2946b8	-0.66123533
1	0xbd0e7a2f	-0.034784492
2	0x3e7fa735	0.24966128
3	0x3e8d5219	0.27601698
4	0x3f009c8a	0.5023886
5	0xbdb43ad2	-0.088002816
6	0xbd75b908	-0.059990913
7	0xbe3f2230	-0.18665385
8	0x3ea7bf14	0.3276297
9	0x3cde3311	0.02712396
10	0x3f24600e	0.6420907
11	0xbf003bc2	-0.50091183
12	0xbed038f1	-0.40668443
13	0xbdf5bc6c	-0.11998829
14	0xbe04ce04	-0.12969214
15	0xbdaccfb2	-0.08438052
16	0x3fb1ace0	1.3880882
17	0x3dad2637	0.084545545
18	0xbd81227f	-0.06305408
19	0x3d0c28fe	0.03421878

layers.2.weight f4 [10, 20]
0	0x3bda9b28	0.006671328
1	0xbc1aa1a1	-0.009437949
2	0x3e6be51e	0.2303662
3	0x3eae246c	0.34012163
4	0xbe0a53b4	-0.13508493
5	0xbc4f5284	-0.012653951
6	0x3b37cfc3	0.002804742
7	0x3e475e05	0.1946946
8	0x3e9e57ad	0.30926266
9	0x3d007675	0.03136297
10	0x3f10be76	0.5654062
11	0x3cc14e90	0.023597032
12	0xbc52674c	-0.012842011
13	0xbeca42b3	-0.39504012
14	0x3cdefbce	0.02721968
15	0x3c99fe5e	0.01879805
16	0xbeb613ee	-0.3556208
17	0x3dc72876	0.09724514
18	0xbe5e39bb	-0.2170171
19	0xbe57303f	-0.21014498
20	0xbc5d740b	-0.013516436
21	0xbcbeb208	-0.023278251
22	0xbcb8299f	-0.022480784
23	0x3c625f3e	0.013816653
24	0xbc9abad3	-0.018887913
25	0xbcc46d50	-0.023977906
26	0x3c929bf6	0.017896634
27	0x3c1de1a3	0.0096363155
28	0x3cab42c9	0.02090587
29	0xbc3484ff	-0.011018037
30	0xbc99264d	-0.018695021
31	0x3c8d76b0	0.017268509
32	0xbcaa9b92	-0.020826135
33	0x3c43bf7b	0.011947508
34	0xbc82df0a	-0.015975494
35	0xbcb2ede6	-0.021841954
36	0xbc61e3fa	-0.013787264
37	0xbaa90974	-0.0012896494
38	0xbc8ce65b	-0.017199686
39	0x3cc088c1	0.02350271
40	0xbcb49e37	-0.022048099
41	0x3cb0ba2d	0.02157315
42	0x3c75480d	0.0149707915
43	0xbb438e31	-0.0029839391
44	0x3bd3e3dd	0.0064663724
45	0xbc841ffd	-0.016128534
46	0x3bb48846	0.005509409
47	0xbbc3df43	-0.0059775426
48	0xbc5821c1	-0.013191641
49	0xbc01d3a7	-0.007923997
50	0x3c179713	0.0092523275
51	0xbc2374c2	-0.009976568
52	0x3c16d92d	0.009207052
53	0xbac5afb2	-0.0015082269
54	0xbb0574de	-0.0020363848
55	0xbc97ceff	-0.01853132
56	0xbc0c799a	-0.008573914
57	0xbb91e814	-0.0044527147
58	0x383c3559	4.4872377e-05
59	0xbc2ebbce	-0.010664893
60	0xbba04146	-0.0048905937
61	0xbadbbe9c	-0.001676518
62	0x3d947eef	0.07250773
63	0x3e56cf69	0.20977558
64	0xbe7154db	-0.23567526
65	0x3c3fba07	0.011702067
66	0xbc329713	-0.010900277
67	0x3df79ec0	0.12090826
68	0x3df95fbf	0.12176465
69	0xbb9d5760	-0.0048016757
70	0x3e8ab67c	0.2709235
71	0x3c4709ca	0.01214833
72	0xbc57c19a	-0.013168717
73	0x3e788e9d	0.24273153
74	0x3c5aa5cd	0.013345194
75	0x3ca2e2c3	0.019883519
76	0xbf3773ac	-0.71660876
77	0x3ca9d096	0.020729344
78	0x3e022a77	0.12711512
79	0x3c9cce78	0.01914142
80	0xbc5230dc	-0.012829032
81	0x3b862467	0.004093695
82	0xbc0414b7	-0.008061579
83	0x3e134a69	0.14383854
84	0xbf13a97c	-0.5768049
85	0x3bc7a5c3	0.0060927584
86	0x3ac85988	0.0015285471
87	0x3e2a4b54	0.16630298
88	0x3d1d4e9a	0.03840504
89	0x3b9ce17f	0.0047876234
90	0x3e3263c4	0.1742087
91	0xbcc1120a	-0.023568172
92	0x3bb2836f	0.005447797
93	0x3e852a79	0.26008967
94	0xbcb0a325	-0.021562168
95	0x3ca600da	0.020264078
96	0xbfc85e6d	-1.5653816
97	0x3bd52618	0.0065047853
98	0x3e11e0aa	0.14245859
99	0xbc1ba6ba	-0.0095002
100	0xbf2eb57a	-0.6824566
101	0x3cc0416a	0.023468692
102	0xbdc775dc	-0.09739277
103	0xbf00b3d5	-0.502744
104	0x3dfd42f0	0.12366283
105	0xbb7efe22	-0.00389088
106	0xbc8b0f09	-0.016974943
107	0xbea16d60	-0.3152876
108	0xbe65d2e4	-0.2244373
109	0x3c0c2c2e	0.008555455
110	0x3f4ce7ac	0.80041003
111	0xbf06538c	-0.5247123
112	0x3f1e0494	0.61725736
113	0x3f1ac8bf	0.60462564
114	0xbf22b8a9	-0.6356302
115	0x3c164059	0.009170615
116	0x3ebc9324	0.3683101
117	0xbc9a9c34	-0.018873312
118	0x3e9d5de0	0.30735683
119	0x3e00090e	0.12503454
120	0xbf013dc7	-0.5048489
121	0xbc5fe80a	-0.013666162
122	0xbd058a68	-0.032602698
123	0xbeb675c2	-0.35636717
124	0x3da4b8e8	0.080430806
125	0xbc880c68	-0.016607478
126	0xbc78640d	-0.015160573
127	0xbe5be0df	-0.214725
128	0xbe080ba1	-0.13285686
129	0x3ad8af4e	0.0016531737
130	0x3f055083	0.52075976
131	0xbedc1b2d	-0.42989483
132	0x3eb4647d	0.35232916
133	0x3ec928ce	0.39288944
134	0xbefa6124	-0.48902237
135	0xbcab60f4	-0.020920254
136	0x3e46c356	0.19410452
137	0x3c835a18	0.016034171
138	0x3e5d4997	0.21610104
139	0x3db12f69	0.08651621
140	0x3c84e7ff	0.016223906
141	0x3b8a697f	0.004224002
142	0xbc83f964	-0.01611013
143	0xb90f27a7	-0.00013652314
144	0xbcc42f47	-0.023948325
145	0x3cc04f07	0.023475183
146	0xbca4c091	-0.020111354
147	0x3ca01044	0.019539006
148	0x3bb67b68	0.0055689104
149	0xbc036245	-0.008019035
150	0xbabfd641	-0.0014635996
151	0x3c464d94	0.012103457
152	0xbcb2c24d	-0.021821165
153	0xba082f83	-0.0005195068
154	0xbc42df7a	-0.011894101
155	0x3c89bb1b	0.016812852
156	0x3bc8cb9d	0.006127788
157	0x3c6ee7e3	0.014581653
158	0xbbee1107	-0.0072652134
159	0x3c2add3c	0.010428723
160	0xbc8799e8	-0.01655288
161	0xbc52d933	-0.012869167
162	0xbccddc2a	-0.025129396
163	0xbae643ee	-0.0017567852
164	0xbcbf7fa6	-0.023376297
165	0xbc025f23	-0.007957253
166	0x3cae13ef	0.02124974
167	0x3befef06	0.007322195
168	0xbcb2e3e8	-0.02183719
169	0x3b9a6aa2	0.0047124187
170	0xbb3ed640	-0.0029119402
171	0xbc5999bf	-0.013281285
172	0x3c9d854c	0.0192286
173	0x3c2f40c2	0.010696592
174	0x3c9925da	0.018694807
175	0x3ca80689	0.020510929
176	0x3a868307	0.0010262438
177	0x3ca34cb7	0.019934041
178	0xb9a0b62e	-0.00030653313
179	0xbac9da14	-0.0015400075
180	0xbe18e4aa	-0.14930978
181	0xbc546847	-0.012964315
182	0xbba246d5	-0.0049522915
183	0xbdf1dedf	-0.118100874
184	0x3d1ccd9b	0.03828202
185	0xbc5616eb	-0.0130669875
186	0x3c98d041	0.01865399
187	0xbda361f2	-0.07977666
188	0xbd26f387	-0.04075959
189	0xbc9ff9da	-0.019528318
190	0x3e353b63	0.17698435
191	0xbe01b145	-0.12665279
192	0x3e235392	0.15949848
193	0x3e0f27bf	0.13980006
194	0xbe2ef0df	-0.17084073
195	0xbca1474b	-0.019687315
196	0x3ddd20fa	0.107973054
197	0x3cd050ed	0.025429213
198	0x3d6c3841	0.057670835
199	0x3d47a912	0.048745222

layers.2.bias f4 [10]
0	0x3eebd81f	0.46063325
1	0xbc923808	-0.017848983
2	0xbc53ff74	-0.012939323
3	0x3d814f0d	0.06313906
4	0xbdc686be	-0.09693669
5	0xbeaff468	-0.34366155
6	0xbe3d5c16	-0.18492159
7	0xbcb2e969	-0.021839814
8	0x3acc6003	0.0015592579
9	0xbda9fdec	-0.08300385

layers.4.weight f4 [1, 10]
0	0x3f8da3af	1.1065577
1	0x3c21b613	0.00987007
2	0xbc8fbca8	-0.017546013
3	0x3f6409c0	0.8907738
4	0x3fdb6e46	1.7143028
5	0xbfe688ec	-1.8010535
6	0xbf9dcf68	-1.232892
7	0xbb93518b	-0.0044958047
8	0xbc26a8c4	-0.010172073
9	0xbedbb904	-0.42914593
