example/model/delta_Cyp_lef.pth (torch, 4837 bytes, 7 tensors)

layers.0.weight f4 [20, 1]
00000000: cfed a1bf ba4e 65bb e7e2 013e 151d 453e
00000010: ce04 2e3f 417c bc3c a50f 57bf 4607 3b3f
00000020: 147a ea3c 19de a93e 8a20 01bc 987d 99bf
00000030: bcd2 76bd 53c3 4a3f f3f3 0a3f 40cd 3e3f
00000040: e6f2 0dbf bcce bc3c 67f0 4fbf 1ed9 353e
-1.2650698 -0.0034989552 0.12684213 0.19249375 0.6797608 0.023008468 -0.84008247 0.73057973
0.028622665 0.3317726 -0.007881293 -1.1991453 -0.060259566 0.7920429 0.54278487 0.74531937
-0.5544876 0.023047797 -0.812262 0.17758605

layers.0.bias f4 [20]
00000000: 001c 01bf 8622 dabd c355 f23d d6e2 373e
00000010: a82e e83e fadc b6bd b671 48bf b371 2e3f
00000020: d454 0d3d 6344 63be ab67 afbd a971 4cbf
00000030: 15f8 b43d cfad cb3d 5cc6 bebe aa67 c5bd
00000040: dd66 503f 1209 32bd e796 983f a2ce 293e
-0.5043335 -0.10651116 0.11832764 0.17957625 0.45348096 -0.08928867 -0.7829851 0.6814224
0.034504727 -0.22194056 -0.08564695 -0.7986093 0.088363804 0.09945261 -0.3726071 -0.09638913
0.81406957 -0.04346568 1.1921052 0.1658273

layers.2.weight f4 [10, 20]
00000000: 2c9c 99bb 2ad8 783c 3cbb db3c 389c be3c
00000010: 0d9c 5b3e 12aa 95bc 122b b0bc fb47 0a3e
00000020: a784 88bc ec9b a53e d86c 983c 3e51 4a3c
00000030: bfcb d0bd 9159 f53e d094 0c3f 042f fe3e
00000040: dfbf 5bbf e055 a2bc 1ca0 a2bf 129a 123c
00000050: 3224 0bbf 26eb 35bb 8d2a b93d 0bdb 0e3e
00000060: 4e93 183f 9aea 07bc fb3b ccbe 8578 db3e
00000070: 51e3 fc3c a697 9abd 302f 98bc f4fa f13c
00000080: 0f60 1cbc da4c a53e 62e8 01be c15f 3a3e
00000090: 3e0e f33d d755 5f3c 23ce 023e 6f9c 303e
000000a0: 4571 1cbb 01b4 ac3b 8676 52bc 3759 0f3c
000000b0: 9e88 63bc 5c71 3ebc 21bc bf3b a16b a8bb
000000c0: f6bd 17bc 6a8e 563c decd 873c 86b4 db3c
000000d0: 0237 1cbc a9ff 92bc f274 7dbc 5665 d0bb
000000e0: d057 2f3b 3a4d 683c ba85 2ebc 2c0a 72bc
000000f0: d909 0fbf ecdb 3abb ca5e a5bd d6ed a9bd
00000100: 66af 213d 81fc baba c267 d7be a5ee b9be
00000110: 9326 0a3b 3404 60bc bb75 c2bc 22b7 d43e
00000120: 3a05 b03c ac1d 163b 54da 663b d88a e7bc
00000130: b37a 8c3d b057 b7bc 4aec 0d3e 25a6 acbd
00000140: f8a2 923c 03ba b93c 83a2 1a3d 270c aa3d
00000150: 68b2 893e c0ff bc3c d813 363c 0e11 6d3e
00000160: 7a93 e43c 2f39 433e 185e cd3b 1ce9 06ba
00000170: c601 4ebd 1a94 b23e ef77 953e 9c31 b43e
00000180: c8fa 14bf 2604 25bc 5442 57bf 2aae cd3d
00000190: 73d1 a13e 440a 8c3c 7265 543d a3e1 863d
000001a0: fb48 6cbe 733f b13c df6f a03e 14b7 753e
000001b0: 96f7 46bc dc16 963c 799f 523c 928f 01bf
000001c0: 2aba 923c 7df6 80be 5f81 a9bc 0039 76be
000001d0: e817 4a3c 1cc8 9c3c a31b 4bbc f51e 043d
000001e0: 16fe 513c b7ed c3bc fce5 2fbd 6d87 53bd
000001f0: 5e5b 043c c2be 623c 012f 4e3e 9acf 1f3c
00000200: 83f7 8fbc ddc8 743c 4c0b 943a 9c11 073b
00000210: 9829 89bc 1efc 86bc 9c4f d73b 4bc0 c0bb
00000220: 865c 503c bad0 8dbc 4c36 63bc f281 a8bb
00000230: 6f33 b83e 2d47 8cbc f398 0c3d 828a 833d
00000240: 0299 a9be 8325 5cba 6b1a 543e ecb9 a93e
00000250: 2c19 2a3d 7872 1cbc 27af 2dbc c68b 73bf
00000260: f3c6 603c 60aa b9be d65c febb b4ae aabe
00000270: d52d 56bc a73f 6abb df0d e9bc ab69 563d
00000280: cc7a d23c af95 b43b f7d7 aebc 74bd 3dbd
00000290: 79ac b6bc ea37 8e3c f80a 1c3e 15da a2bc
000002a0: 1db7 8ebc 20bb 41bc 3093 963b 3271 1c3b
000002b0: 7594 68bc 5b61 b13c 77f4 e13a 15e2 02bc
000002c0: fec7 203b bdc2 863c bf44 06bb 3325 77bc
000002d0: 5786 7dbf 2b0d 70bb 1f78 cabd 5bd8 2abe
000002e0: a318 f93d 06ef 1c3b b3ed 46bf bd11 26bf
000002f0: a5d5 f53a cdd0 9cbc d60f 37bc e653 443f
00000300: a825 153d 2e85 07bd 45c6 5e3c f489 43bc
00000310: 079f 2c3e dac9 9dbc 0776 663e efbb e9bd
-0.0046878066 0.015188256 0.026822679 0.02326785 0.21446247 -0.018269572 -0.021504913 0.13504021
-0.016664816 0.3234552 0.018606588 0.012348471 -0.101951115 0.47919896 0.5491457 0.49645245
-0.8583965 -0.019816339 -1.2705112 0.008947866 -0.54352105 -0.0027758568 0.09041319 0.13950746
0.5959977 -0.008295679 -0.3988951 0.42865387 0.030870112 -0.07548456 -0.018577188 0.02953861
-0.0095443865 0.32285196 -0.12686303 0.1820059 0.11867951 0.013631306 0.12773947 0.17247175
-0.0023871225 0.0052704816 -0.012845641 0.008749298 -0.013887553 -0.011623707 0.005851284 -0.0051397835
-0.009261599 0.013095478 0.016577657 0.026819479 -0.009534599 -0.017944174 -0.0154697765 -0.0063597364
0.0026755221 0.0141785685 -0.010652 -0.014772933 -0.558744 -0.0028512431 -0.0807472 -0.08297317
0.039473914 -0.0014265926 -0.42071348 -0.36314884 0.002108012 -0.013672877 -0.023737779 0.4154597
0.021486867 0.002290587 0.0035225349 -0.028264448 0.068593405 -0.02238068 0.13859668 -0.08430127
0.017899975 0.022671705 0.03775264 0.08303099 0.26893926 0.02307117 0.01111313 0.23151037
0.027902354 0.19064783 0.0062673204 -0.00051464303 -0.05029466 0.34878618 0.29193065 0.351941
-0.5819516 -0.01007179 -0.84085584 0.10042985 0.3160511 0.017094739 0.05185456 0.065860055
-0.23074715 0.0216367 0.3133535 0.2399562 -0.01214399 0.018321447 0.012855404 -0.50609696
0.017911036 -0.25188056 -0.020691572 -0.24045181 0.012334801 0.019138388 -0.012396726 0.032256085
0.012816926 -0.023917062 -0.04294394 -0.051642824 0.008078424 0.0138394255 0.20135118 0.009754086
-0.017574077 0.014940468 0.0011294871 0.0020609861 -0.016743466 -0.01647764 0.0065707695 -0.005882298
0.012717372 -0.017311443 -0.013867926 -0.005142444 0.3597674 -0.017123783 0.03432555 0.06422903
-0.33124548 -0.00083979237 0.20713203 0.3314966 0.041527912 -0.009548776 -0.010600842 -0.9513515
0.013719308 -0.36262798 -0.0077625317 -0.33336413 -0.013072451 -0.0035743506 -0.028448997 0.052346867
0.02569332 0.0055110077 -0.021343214 -0.046323255 -0.022299038 0.017360646 0.15238559 -0.01987938
-0.0174213 -0.011824399 0.004595183 0.002387118 -0.014195551 0.021652868 0.0017238994 -0.0079884725
0.0024533267 0.01645028 -0.0020487753 -0.015084553 -0.9903311 -0.0036628942 -0.098861925 -0.16684096
0.12162902 0.002394618 -0.7770645 -0.64870816 0.0018755688 -0.019142533 -0.011173209 0.7669052
0.036412865 -0.033085994 0.013597076 -0.011934746 0.16857539 -0.01926129 0.22505961 -0.114127986

layers.2.bias f4 [10]
00000000: f31a d7be 1d18 523e ff16 c6bb 7c11 40bc
00000010: 01b4 febd ef9c 673d fc45 38bd e314 073e
00000020: 8c31 6ebd 1877 6cbd
-0.42012748 0.20517011 -0.006045222 -0.011722919 -0.12436677 0.056546148 -0.044988617 0.13191561
-0.05815272 -0.057730764

layers.4.weight f4 [5, 10]
00000000: 73b3 65bf 5def f73e 9e74 89bc 3b34 0d3f
00000010: 7bf4 1ebf cee8 04bf 4ace 853d dd94 44bf
00000020: 4a51 943d a57e 843f e817 683c 1e34 2b3f
00000030: 5d0a c73c 9989 c5be d9fa 6b3e abb1 913e
00000040: 1525 b4bd 88ee 003f bb6e 12bd b269 39bf
00000050: c12d b43f 67be 2dbf b9cb a23c 3c38 063d
00000060: ddd6 683f f1e1 76bc aae8 45bc 90ee 0bbd
00000070: 3cf7 d3bc 6741 6b3c dd86 943a 63df b6bc
00000080: b287 4bbc 9b17 e93c 7965 0c3a 10d1 883d
00000090: efd9 043d 8eb1 e93c 45fd 0d3d baaf d0bc
000000a0: 38fb 48bf ba84 cf3e 40fd 80ba 5101 083f
000000b0: c3ff 00bf cdb5 d1be 40fc a23d 2c21 2cbf
000000c0: 5e99 843d 1842 663f
-0.8972694 0.48424807 -0.01677924 0.5515782 -0.620918 -0.5191773 0.06533487 -0.7678965
0.07242067 1.0351149 0.014165856 0.668764 0.024296934 -0.3858154 0.2304491 0.28455862
-0.08796135 0.5036397 -0.035750132 -0.72426903 1.4076463 -0.67868656 0.019872533 0.032768473
0.90952855 -0.015068517 -0.012079397 -0.034163058 -0.025874726 0.014358855 0.0011331696 -0.022323316
-0.012422489 0.028453639 0.0005355697 0.066805005 0.0324344 0.028527047 0.034665365 -0.025474418
-0.7850833 0.4053095 -0.0009841099 0.5312701 -0.5039026 -0.40959015 0.07958269 -0.67238116
0.06474565 0.899446

layers.4.bias f4 [5]
00000000: 494b 9e3e 0bde c43e 7d55 20bf 13d2 42bc
00000010: c097 883e
0.30916813 0.38450655 -0.62630445 -0.011890906 0.26678276

layers.6.weight f4 [1, 5]
00000000: 9a84 f33f 2ff7 a2bf bbeb f13f 5460 9f3d
00000010: 6f2b d33f
1.9024842 -1.2731684 1.8900064 0.07782045 1.649763
