example/model/delta_Cm.pth (torch, 3807 bytes, 5 tensors)

layers.0.weight f4 [20, 1]
0	0xbecb5277	-0.39711353
1	0x3d10b2a4	0.035326615
2	0xbc8708db	-0.016483715
3	0xbdf8ea1d	-0.121540286
4	0x3f309e63	0.6899168
5	0x3db52707	0.088453345
6	0x3c8baa32	0.017048929
7	0xbd9c81a3	-0.07641914
8	0xbe23507d	-0.15948673
9	0xbe97ffed	-0.29687443
10	0x3efa49aa	0.48884326
11	0x3dd66f30	0.10470426
12	0xbede2138	-0.4338472
13	0x3f18d3ae	0.59698
14	0xbeb237df	-0.3480825
15	0xbc414e6a	-0.0117984805
16	0x3e88c564	0.26713097
17	0x3b15f564	0.002288186
18	0x3de56c53	0.11202302
19	0x3e10be4d	0.14135094

layers.0.bias f4 [20]
0	0xbebbbdfd	-0.36668387
1	0xb937819d	-0.00017500525
2	0xbd51849f	-0.051151868
3	0x3e09a67f	0.1344242
4	0x3f1b509e	0.6066989
5	0xbd4754d5	-0.048664887
6	0xbd921dc5	-0.07134584
7	0x3c19417a	0.00935399
8	0x3e8443b6	0.2583291
9	0x3e0cb2a8	0.13740027
10	0x3edc123c	0.42982662
11	0xbd30d4eb	-0.043171804
12	0x3ebfd655	0.3746821
13	0x3f0660dd	0.5249155
14	0xbea469d7	-0.32112
15	0xbd643b50	-0.055720627
16	0x3b74c3e9	0.0037348217
17	0xbd6081a3	-0.05481113
18	0xbc5672cb	-0.013088892
19	0xbd3862b8	-0.04501602

layers.2.weight f4 [10, 20]
0	0x3ad2cbab	0.0016082426
1	0xbcad03c2	-0.021119956
2	0xbc66b6e1	-0.014081688
3	0xbb7a4601	-0.0038188698
4	0xbc2eb062	-0.01066217
5	0x3b015ca3	0.0019739054
6	0x3c776c86	0.015101558
7	0xbc215d9f	-0.009848981
8	0xbb35348c	-0.0027649729
9	0xbcf17fad	-0.029479826
10	0xbcaaa063	-0.020828431
11	0xbc8e8670	-0.01739809
12	0x3bfef40e	0.0077805584
13	0xbc93a69e	-0.018023785
14	0x3b545ed1	0.0032405148
15	0x3c3580a5	0.0110780345
16	0x3cbf5cf6	0.023359757
17	0x3b618d13	0.0034416362
18	0x3c56b0d2	0.013103681
19	0xbc0fba23	-0.008772406
20	0xbeea2dde	-0.4573812
21	0x3c365cd4	0.01113053
22	0x3af45464	0.0018640873
23	0x3e2d71a5	0.16937883
24	0xbf4f87c6	-0.8106655
25	0x3c6a12c6	0.0142867025
26	0x3cac7c6b	0.02105542
27	0x3d690d8c	0.056897685
28	0x3e73f050	0.2382214
29	0x3e944a29	0.2896283
30	0xbf1693f7	-0.58819526
31	0x3a45ce59	0.0007545702
32	0x3f05dda0	0.522913
33	0xbf37a777	-0.71739906
34	0xbece6d38	-0.40317702
35	0x3cbd46cb	0.023105046
36	0x3a838cfc	0.0010036523
37	0xbbed18db	-0.007235629
38	0xbcaf7b18	-0.021421
39	0xbc62a4bf	-0.013833224
40	0x3d59a78b	0.053138297
41	0xbc9fb722	-0.019496504
42	0xbb90d57b	-0.00441998
43	0x3ca30b38	0.01990281
44	0xbcc8b993	-0.024502551
45	0x3b935ec5	0.0044973814
46	0xbc1697f3	-0.009191501
47	0xbc43acfa	-0.011943096
48	0xbd04f660	-0.032461524
49	0x3d1514f8	0.03639695
50	0x3c302fbc	0.010753568
51	0x3b83ee4a	0.004026209
52	0x3d135a88	0.03597501
53	0x392584d1	0.00015785104
54	0x3d79b958	0.060967773
55	0x3cbb91d5	0.022896687
56	0x3c70419a	0.014664078
57	0x3b1e5b94	0.0024163472
58	0x3ca13300	0.019677639
59	0xbc192896	-0.009348055
60	0xbba979c0	-0.0051719844
61	0xbcbe3baf	-0.023221819
62	0xbc5daf30	-0.0135305375
63	0xbc9ac187	-0.01889111
64	0xbbb924c0	-0.005650133
65	0xba5fb0c3	-0.00085331145
66	0xbc7912df	-0.015202253
67	0x3c0fbe2d	0.008773369
68	0xbc88e187	-0.016709102
69	0x3b1ef3bc	0.0024254164
70	0x3b673751	0.0035280774
71	0xbcc080fd	-0.023499006
72	0x3be7c905	0.007073524
73	0xba248725	-0.00062762416
74	0x3c63c458	0.0139017925
75	0x3c9fa36c	0.019487105
76	0x3b7108c4	0.0036778906
77	0x3cb22d5b	0.021750143
78	0xbc4d4fc5	-0.012531226
79	0xbada65d4	-0.0016662427
80	0xbe27e887	-0.16397296
81	0x3c81213f	0.015762923
82	0xbcbe35cb	-0.02321901
83	0x3d50b814	0.0509568
84	0xbeafe194	-0.3435179
85	0xbc8d511b	-0.017250588
86	0xbcbd7ecd	-0.023131752
87	0x3cb2de85	0.021834621
88	0x3dc98b6c	0.09841046
89	0x3deb0b5b	0.11476775
90	0xbe50b093	-0.20379858
91	0xbc45b90a	-0.0120680425
92	0x3e5bca6c	0.21463937
93	0xbe846c27	-0.25863764
94	0xbe2690dd	-0.16266198
95	0xbcbd9714	-0.023143329
96	0xba8d4d19	-0.0010780423
97	0x3bb8f22a	0.0056441026
98	0x3abfda2d	0.0014637165
99	0xbc4dcba5	-0.01256076
100	0xbc9a6886	-0.018848669
101	0xbc45150a	-0.012028942
102	0xbc455f69	-0.012046673
103	0xbc935299	-0.017983722
104	0xbacbcc31	-0.0015548525
105	0x3c2ec8f8	0.010668032
106	0x3bd6fbb8	0.006560769
107	0xbc1c3327	-0.00953368
108	0xbc875461	-0.016519727
109	0xbb6112c4	-0.003434346
110	0xbc682235	-0.014168312
111	0x3cb505a9	0.022097426
112	0xbb9b2b6f	-0.0047354023
113	0x3c8f11d9	0.017464565
114	0x3c6cb299	0.014446878
115	0xbc5641e4	-0.013077233
116	0x3b8d8639	0.004318979
117	0x3b135548	0.0022481252
118	0x3c4e6859	0.012598121
119	0x3bcaa8a4	0.0061846543
120	0x3e246802	0.16055301
121	0xbd0826fb	-0.0332403
122	0x3c92886b	0.017887315
123	0x3d4d7d71	0.05016846
124	0x3dcff4f9	0.10154147
125	0xbd65e616	-0.05612763
126	0xbae9ea8b	-0.0017846389
127	0xbcf89a6f	-0.030347077
128	0x3e15758e	0.14595625
129	0xbc61ad36	-0.013774207
130	0x3d8f00da	0.06982584
131	0xbda33410	-0.079689145
132	0x3db9f035	0.09079019
133	0x3daefcbf	0.08544301
134	0x3de8f722	0.11375262
135	0xbc5b9104	-0.013401274
136	0xbe7ae897	-0.24502788
137	0xbb8b9957	-0.004260223
138	0xbdca8841	-0.098892696
139	0xbddc7306	-0.107641265
140	0x3cbadb25	0.022809574
141	0xbbe8cadc	-0.007104261
142	0x3cc22d19	0.023703145
143	0xbc298efa	-0.01034903
144	0xbc2c3438	-0.010510497
145	0xbb61af97	-0.0034436935
146	0xbc95300c	-0.018211387
147	0xbc86add9	-0.016440319
148	0xbb570775	-0.0032810841
149	0xbbffee16	-0.0078103645
150	0xbc8b7ce2	-0.017027322
151	0xbcb4dc8e	-0.022077825
152	0xbca3cc57	-0.019994898
153	0xbc8a866c	-0.0169098
154	0xbc505bc8	-0.012717195
155	0xbcbda563	-0.023150152
156	0xbcac28c5	-0.021015534
157	0x3cbb4f90	0.022865087
158	0xbbbf29e0	-0.0058338493
159	0x3c0fe36d	0.00878225
160	0x3cb358b0	0.021892875
161	0xbc821f40	-0.015884042
162	0x3cc33a82	0.02383161
163	0x3c829f72	0.01594517
164	0x3c32e86f	0.010919674
165	0x3c8dfa33	0.017331218
166	0xbc978ff8	-0.018501267
167	0xbb36fc28	-0.0027921293
168	0xbca69346	-0.020333897
169	0x3c95a5b9	0.0182675
170	0x3c7bebcb	0.015376042
171	0x3c85cf02	0.01633406
172	0xbca7be2a	-0.02047642
173	0x3b8e126b	0.0043356917
174	0xbc861a4b	-0.01636996
175	0x3c333268	0.010937311
176	0xbc012fa1	-0.007884891
177	0xbc810a04	-0.015751846
178	0x3c353b81	0.01106155
179	0x3bac9c07	0.0052676233
180	0x3c72cbd7	0.014819107
181	0x3ca9333d	0.020654315
182	0x3c914363	0.017732328
183	0x3c828f63	0.015937513
184	0x3a795e75	0.00095126714
185	0xbb175d79	-0.0023096486
186	0x3cb6604d	0.022262717
187	0xbbe47150	-0.0069715157
188	0xba129c2d	-0.000559273
189	0xbc08d5d9	-0.0083517665
190	0xbca2b340	-0.019860864
191	0xb976a5d9	-0.00023522171
192	0xbc1930e1	-0.009350033
193	0x3c13a6ce	0.009011937
194	0xbb6eb6d8	-0.0036424901
195	0x3c8e6779	0.017383324
196	0x3c28da19	0.010305905
197	0xbcb797c1	-0.02241123
198	0xbc902488	-0.017595544
199	0x3a24cd65	0.00062867097

layers.2.bias f4 [10]
0	0xbc5fe1e6	-0.013664698
1	0x3f0c67f3	0.54846114
2	0xbd12869b	-0.0357729
3	0xbbf9b10f	-0.007619984
4	0x3e51fbe0	0.20506239
5	0xbc923ccf	-0.017851261
6	0x3e78a695	0.24282296
7	0x3aa1340e	0.0012298839
8	0xbb9fc6cc	-0.0048759934
9	0xbb3e250b	-0.0029013779

layers.4.weight f4 [1, 10]
0	0x3cb26831	0.021778198
1	0xbfcc0952	-1.5940344
2	0x3dce5ec6	0.1007667
3	0x3ca943db	0.020662239
4	0xbf1d5a39	-0.61465794
5	0xbcb8df42	-0.022567395
6	0x3ef74f15	0.48302522
7	0xbc9ec44c	-0.019380711
8	0xbcd230fb	-0.025658121
9	0xbcef93bb	-0.029245248
