example/model/delta_Clbeta.pth (torch, 3919 bytes, 5 tensors)

layers.0.weight f4 [20, 1]
00000000: e984 983e 5acc 23bf 8f8b 513f eed6 b73e
00000010: b861 d63c 2d85 77bf be7d 3b3d 18d7 c1bf
00000020: 7608 453f 2b9d 523e d5e9 213c 919a a03e
00000030: 6c1f cfbe a6fc 0bc0 da6b b83e 5b4a 543c
00000040: c84b 12bd b3e0 5dbf 5e71 9d3e 7245 19bc
0.29788902 -0.6398369 0.81853575 0.35906166 0.026169643 -0.96687585 0.045774214 -1.5143766
0.76966035 0.20567767 0.00988241 0.31367925 -0.4045366 -2.1872954 0.36019784 0.012957181
-0.035716802 -0.8667099 0.30750555 -0.009354936

layers.0.bias f4 [20]
00000000: d0f3 3f3e 8a25 c6bd fb50 8f3e cb22 ed3e
00000010: d7a4 543e 00a5 15be 2fb8 a2bd 51d5 73bf
00000020: 7e02 e33d 0180 043e c2ce debc edad e03e
00000030: aa6f 7abd a815 b0bf 4a84 543d 764f 5a3e
00000040: 5ca3 a0bd 0815 06be 6d6b ec3e 2cdb dcbc
0.18745351 -0.09675129 0.2799147 0.46315607 0.20766006 -0.14613724 -0.079452865 -0.9524737
0.1108446 0.12939455 -0.0271982 0.43882695 -0.061141647 -1.3756609 0.051883973 0.21319374
-0.07843658 -0.1309396 0.4617571 -0.026959978

layers.2.weight f4 [10, 20]
00000000: a0d8 083e dee5 b9be fb50 933e 7046 903e
00000010: b423 063e 7329 0fbf 3d67 35bb d23d 1cbd
00000020: 4fd6 89be f083 be3d 90c4 ea3b db5c 953e
00000030: 87cb 75be 56ad a43c 987a ffbd 1124 fe3d
00000040: 87be 81bc 6dcc fbbe 9ada 973e 0c61 53bb
00000050: 9275 2e3d 0e9d b4bc abfb 873d 5f99 2dbd
00000060: b7f4 bc3c 3480 0bbd cb7d a63c f9df b53b
00000070: 59b8 2cbd 0003 df3c 68b6 553c 2458 70bc
00000080: 3bc6 03bd c00a 513d 7c7b a1bc 36ed f93c
00000090: fe62 12bc 22f1 0abd 7bfa 403b 715d 65bb
000000a0: ae56 59be 3858 743e d118 04bf 0c69 893e
000000b0: dc0d 363d d88f c33e 5722 97ba d85a 9fbf
000000c0: 206d e83e 6ba6 09be 5a67 89bc f30a 653e
000000d0: 3879 1e3e 6295 e2bf 4f60 5a3e 6938 593d
000000e0: 8766 0e3c 9192 a13e ac13 663e f8e6 8fbc
000000f0: 04ac 203c 8355 913c fb6c fdbb 9c10 453c
00000100: 6be7 6abb cfdb 72bb 1873 4ebc b87e 703c
00000110: 2928 23bc 22b1 f43b 4389 57bb 6566 5b3c
00000120: b51d 983c 40b8 263c a525 80bb 6f91 1c3c
00000130: 48ea bbbc e508 a8bb d4ae 6abc f952 963a
00000140: 71c6 003b 5c3b 8fbc c751 973d 8399 e13c
00000150: efab 80bc 1bf9 73bb d66c 933c d492 c03c
00000160: 728f 123d 8e50 ca3c 0f40 e03a 93aa 3c3d
00000170: 5317 c2bc 7c25 8cbb 69d1 da3c 6143 3bbd
00000180: 4f59 99bc 8391 75bc 8803 be3c e991 493c
00000190: 41e6 cf3b bc53 94bd cafb b83c fc13 213d
000001a0: 9747 f53b 0b05 8ebd be64 92bb 4fc5 8bbc
000001b0: eb16 3ebd a9e2 b33b d23a c03c 463b 353d
000001c0: 3884 19bc 4921 76bc 590a 94bc 0533 0cbc
000001d0: ef37 80bc f6bf 93bd b2e6 56ba abaf ca3b
000001e0: 7ba9 f8bb 6f08 ef3c 3b82 1c3c 1f5b cc3c
000001f0: f3fa ce3c 351f 53bc 2f76 9f3c f1ff b1bc
00000200: 1ed5 a4bb 53f0 7f3c dd88 b43c 5b32 b43c
00000210: 0c17 5cbc 1c6d 22bc a4a1 563c bb64 0bbc
00000220: 8b43 543c 5f73 6bbc c891 31bc a8c4 a33c
00000230: c919 b5bd 135e 853d f0b4 24be ef38 d33d
00000240: f217 363d c84c 1a3e 21fb 3c3c d82a ecbe
00000250: 1497 223e a980 44bd 031f 1e3c 67a0 923d
00000260: c342 823d c77d 29bf 862b a33d e4dd 733c
00000270: 9a84 91bc de86 0d3e bb94 993d bbb1 493c
00000280: ba79 123e 000d cabe 2ab3 b13e 3cbd a93e
00000290: 92a3 e13d 4fd8 15bf c399 933c 2ad6 cfbc
000002a0: 25d4 93be 9601 a73d cba3 e53b c8ee 9b3e
000002b0: c461 73be 1160 e1bb ea60 04be 4ebc e73d
000002c0: 32bc 313c d9ee 04bf 5201 ab3e 3138 873c
000002d0: 2cb6 2dbe de3e 623e dfe4 f4be 80e4 813e
000002e0: 848a 603d b0b8 ae3e e7e1 40bc a25d 97bf
000002f0: e0c7 e93e f398 11be bc60 13bc 2384 673e
00000300: fa40 1a3e 12d7 debf a600 593e 4ba2 873d
00000310: 44dd 4b3c 3e31 b33e d82b 5c3e 56a4 66bc
0.13363886 -0.36308187 0.2877272 0.2817874 0.13099557 -0.5592262 -0.0027679943 -0.038144894
-0.26921317 0.09302509 0.0071645454 0.29172406 -0.24003421 0.020102184 -0.12474555 0.12409223
-0.01583792 -0.49179402 0.29658967 -0.003225389 0.042592593 -0.022047546 0.06639799 -0.042382594
0.023065908 -0.03405781 0.020323655 0.0055503813 -0.042167995 0.02722311 0.013043977 -0.014669452
-0.03217147 0.051035643 -0.019712202 0.030508619 -0.008934734 -0.03392137 0.0029446173 -0.0034998322
-0.21224472 0.23861778 -0.51600367 0.26837957 0.04444681 0.38195682 -0.001153062 -1.2449598
0.45395756 -0.1344239 -0.016772915 0.22367458 0.15475929 -1.7701838 0.21325801 0.053032313
0.008691437 0.31557134 0.22468442 -0.01756619 0.009806637 0.01774097 -0.0077339387 0.012027886
-0.0035843502 -0.0037057286 -0.012600683 0.01467865 -0.009958305 0.007467405 -0.003288821 0.013391112
0.018568853 0.010175765 -0.0039107376 0.009556158 -0.022938862 -0.0051280134 -0.014323909 0.001146882
0.001964953 -0.01748436 0.07388645 0.02753902 -0.015706984 -0.0037227336 0.017996233 0.023507513
0.03578133 0.024696615 0.0017108935 0.04606111 -0.023692762 -0.0042769294 0.026711183 -0.045718554
-0.018719343 -0.014988306 0.023195043 0.012302854 0.006344587 -0.072425336 0.022581 0.0393257
0.007485341 -0.069345556 -0.004467576 -0.017061858 -0.046408575 0.0054896665 0.023465548 0.04424598
-0.009369902 -0.015022584 -0.01807134 -0.008557086 -0.015651671 -0.07214348 -0.00081978284 0.006185492
-0.007588563 0.029178826 0.009552534 0.024945794 0.025266146 -0.012885858 0.019465534 -0.021728488
-0.0050302884 0.015621263 0.022037918 0.021996668 -0.013433229 -0.009913709 0.013100062 -0.008507903
0.012955557 -0.014370768 -0.01083798 0.019991234 -0.08842809 0.06512084 -0.16084647 0.103135936
0.04445643 0.15068352 0.011534483 -0.46126437 0.15877944 -0.047974262 0.009650948 0.071595006
0.0636039 -0.66207546 0.07967286 0.014884446 -0.017763425 0.13820979 0.07499071 0.012310441
0.14304247 -0.39463043 0.34707004 0.33152187 0.11017527 -0.58533186 0.018017655 -0.025370676
-0.2887279 0.08154599 0.007008051 0.30455613 -0.23767763 -0.006877907 -0.12927595 0.11315213
0.010848092 -0.5192695 0.33399445 0.016506286 -0.16964024 0.22094294 -0.47830865 0.25369644
0.0548196 0.3412528 -0.011772609 -1.182545 0.45660305 -0.14218502 -0.008995231 0.22609
0.15063849 -1.7409384 0.21191654 0.06622752 0.012442891 0.34998506 0.215011 -0.014077267

layers.2.bias f4 [10]
00000000: 9b21 a83e d86b 913d 8057 5f3e b4c6 943c
00000010: 109c 24bd ab8e b73b 0562 df3b ff7f 933d
00000020: f126 b33e 98b3 523e
0.3283814 0.07100648 0.21810722 0.018161155 -0.040187895 0.005601724 0.0068171048 0.07202148
0.34990647 0.20576322

layers.4.weight f4 [1, 10]
00000000: 7e51 93bf efcd 13be 4de0 1940 f5a5 6abc
00000010: 3b71 ec3d 607b 10be 759a 9b3c 35a2 633f
00000020: 01ff 9dbf 8969 1540
-1.1509244 -0.14434026 2.4043152 -0.014321794 0.115450345 -0.14109564 0.01899455 0.88919383
-1.2343446 2.3345664
