example/model/delta_Cn_lef.pth (torch, 4807 bytes, 7 tensors)

layers.0.weight f4 [20, 2]
0	0xbf053d96	-0.520471
1	0xb9b13346	-0.00033798272
2	0xbea13ae9	-0.31490257
3	0x3ed7d32a	0.42153293
4	0x3f85ff81	1.0468599
5	0x3edca457	0.4309413
6	0x3e7a7593	0.24458914
7	0xbf7d02a8	-0.9883218
8	0x3496cbd9	2.8087996e-07
9	0x34b39cb4	3.3455365e-07
10	0x3f8acbc7	1.0843438
11	0xbef83164	-0.48475182
12	0x3f07d24b	0.53055257
13	0x3f34247b	0.70368165
14	0xb491de8b	-2.7170276e-07
15	0x353ac8a2	6.958236e-07
16	0x3e5839ae	0.21115753
17	0x3f2096dc	0.62730193
18	0xbc23df1f	-0.010001927
19	0xbf1670fb	-0.58766145
20	0x3c7f5b57	0.015585742
21	0xbec27903	-0.3798295
22	0x3f22da90	0.6361475
23	0x3f387648	0.7205548
24	0x3f974d0c	1.1820388
25	0x3aa9ca48	0.0012953961
26	0xbf721c06	-0.9457401
27	0xbece8fcf	-0.40344092
28	0xbef24fc9	-0.47326496
29	0x3f1e1442	0.6174966
30	0xbd633849	-0.0554736
31	0x3ed62cd7	0.41831085
32	0xbe9ad608	-0.30241418
33	0x3efdeb43	0.49593553
34	0xbebb39e0	-0.36567593
35	0x3f62bad2	0.88566315
36	0x3b5d7de3	0.0033796958
37	0xbc38f86e	-0.011289699
38	0xbfa48e0f	-1.2855853
39	0xbe1b3a90	-0.15159059

layers.0.bias f4 [20]
0	0x3e89d6da	0.2692173
1	0xbe18ccde	-0.149219
2	0xbf3addc2	-0.72994626
3	0xbfa370e0	-1.2768822
4	0xb60f726b	-2.137526e-06
5	0xbf51f1eb	-0.8200976
6	0xbe86dab9	-0.26338747
7	0xb61cb8d9	-2.3353407e-06
8	0x3e6ce8bc	0.23135656
9	0x3f040e85	0.51584655
10	0x3e9b75df	0.30363366
11	0xbf839a58	-1.0281477
12	0xbe38c23c	-0.18042845
13	0xbe44b6e0	-0.19210386
14	0x3ea6e67f	0.3259773
15	0x3f1333f0	0.57501125
16	0x3f0c22a7	0.54740375
17	0xbec8cd31	-0.3921905
18	0x3c82035a	0.015870739
19	0xbfce6ead	-1.6127526

layers.2.weight f4 [10, 20]
0	0x3c1ec36c	0.009690147
1	0x3dce4631	0.10071982
2	0xbf3f63d1	-0.7476168
3	0x3ec2fc15	0.38082948
4	0x3441905c	1.8027043e-07
5	0xbec8579a	-0.39129335
6	0xbe6b7fa3	-0.22997908
7	0xb48a0a79	-2.5712123e-07
8	0x3f056adc	0.5211618
9	0x3e94d9a2	0.2907229
10	0x3e319ddf	0.1734538
11	0xbe44a7ab	-0.19204585
12	0xbdf0a26e	-0.11749731
13	0xbd5e8962	-0.054330237
14	0xbf140789	-0.57824
15	0x3f0565b9	0.5210834
16	0xbf22819d	-0.63479024
17	0x3e9b5593	0.30338725
18	0xbc18bb97	-0.009322069
19	0x3e9a743a	0.301668
20	0xbd444115	-0.04791363
21	0x3e917e51	0.28416684
22	0xbda2a646	-0.079418704
23	0x3f575bbb	0.84124345
24	0xb363f255	-5.3072956e-08
25	0x3ef9fb9e	0.4882478
26	0x3defc1fc	0.117069215
27	0x353fa38a	7.1391025e-07
28	0xbd987c36	-0.07445566
29	0xbd24d28b	-0.040239852
30	0xbc8f5485	-0.017496357
31	0x3f5c5724	0.86070466
32	0x3ebae195	0.3650023
33	0xbf025f09	-0.5092626
34	0xbec4ebaf	-0.38461062
35	0x3e9f5fe6	0.31127852
36	0xbf0f0740	-0.5587044
37	0x3cdb7678	0.026789889
38	0x3a793ceb	0.00095076737
39	0xb3fb45a5	-1.17007666e-07
40	0xbcd5ef35	-0.02611504
41	0xbde7b06b	-0.11312946
42	0xbeb6c34a	-0.3569587
43	0x3e20d164	0.15704876
44	0x3511f621	5.4374874e-07
45	0x3e1771ee	0.14789554
46	0x3d44a7e8	0.04801169
47	0x3508ff87	5.103579e-07
48	0xbe05c216	-0.13062319
49	0xbe325a06	-0.17417154
50	0xbc126409	-0.008934983
51	0xbea7618e	-0.32691616
52	0xbf013b53	-0.50481147
53	0x3ead648c	0.33865774
54	0x3e11b01b	0.14227335
55	0x3e5519ac	0.20810574
56	0x3e387869	0.18014683
57	0xbebef8aa	-0.3729909
58	0xbc6b0165	-0.014343594
59	0xbfb244d2	-1.3927252
60	0xbdcafdb6	-0.09911673
61	0x3de9fab6	0.114247724
62	0xbdcb6842	-0.09931995
63	0x3f095369	0.536429
64	0xb335e559	-4.2350937e-08
65	0xbf0ab651	-0.5418444
66	0xbbf23c01	-0.007392407
67	0x3484c82e	2.4732566e-07
68	0x3e8d9652	0.27653748
69	0x3ee883eb	0.45413145
70	0x3e9821aa	0.29713184
71	0x34e6d014	4.2992235e-07
72	0xbed38321	-0.4131098
73	0x3dd45549	0.10367829
74	0xbeae08d6	-0.33991116
75	0xbea9f295	-0.33192888
76	0x3df23f1c	0.118284434
77	0x3d17c004	0.037048355
78	0x3b32f97d	0.002730935
79	0xbc4d4e65	-0.012530898
80	0xbe312730	-0.17300105
81	0xb8518b6e	-4.9959337e-05
82	0x3f1a5e19	0.6029983
83	0xbf130279	-0.5742565
84	0x34c46999	3.6584677e-07
85	0x3df9679c	0.12177965
86	0xbf0e1deb	-0.555144
87	0x338ef06e	6.656124e-08
88	0xbef1758f	-0.47160003
89	0x3ccf9f9b	0.02534466
90	0x3cf83587	0.030298961
91	0xbf1eca4b	-0.62027425
92	0x3ebb7260	0.366107
93	0xbe92f7de	-0.28704733
94	0xbda35622	-0.07975413
95	0xbe683c9f	-0.22679375
96	0x3e97487f	0.29547498
97	0xb5b0bb9f	-1.3167627e-06
98	0x3b0dbaf3	0.0021626323
99	0xb52c948d	-6.4291163e-07
100	0x3d85e838	0.06538433
101	0xbebee3fa	-0.37283307
102	0xbe4f605f	-0.20251606
103	0xbe19e54f	-0.1502888
104	0x34f25466	4.513742e-07
105	0xbf3ac79d	-0.72960836
106	0xbe3d5784	-0.18490416
107	0xb48de48a	-2.642958e-07
108	0x3e74606b	0.23864906
109	0xbe367750	-0.17818952
110	0xbd95a618	-0.073070705
111	0xbeea1035	-0.4571549
112	0xbd90614b	-0.07049807
113	0x3df30b87	0.11867433
114	0xbeb69139	-0.3565767
115	0x3e879fdf	0.2648916
116	0xbe783985	-0.24240692
117	0xbe9e17b3	-0.30877456
118	0x39863d62	0.00025604205
119	0xbedb4f53	-0.42833957
120	0xbf2386ef	-0.6387777
121	0xbdc86912	-0.097856656
122	0x3f096026	0.53662336
123	0xbf0499f0	-0.5179739
124	0x348d02e5	2.6265403e-07
125	0xbf3ee78e	-0.74572074
126	0x3f10e8f3	0.5660545
127	0x34ed4f10	4.4202216e-07
128	0xbeced397	-0.40395805
129	0x3f36dac2	0.7142755
130	0x3f00f328	0.50371027
131	0xbebad645	-0.364916
132	0xbf82a33d	-1.0206066
133	0xbf3b6793	-0.73204917
134	0x3f083457	0.53204864
135	0xbb8ed47f	-0.0043588276
136	0xbde3292a	-0.11091836
137	0x3f02af71	0.5104895
138	0x3ba6ba93	0.0050881593
139	0x3eac63d4	0.33669913
140	0x353139d1	6.602177e-07
141	0x34cdd7b9	3.8341184e-07
142	0x3e5e88f9	0.21731938
143	0x3f3fcd85	0.7492297
144	0xb50e349f	-5.2975696e-07
145	0x3eb26fae	0.3485083
146	0xbcba2b09	-0.022725599
147	0x34698c02	2.175075e-07
148	0xbc9916fa	-0.018687714
149	0xbe65c8a9	-0.22439827
150	0xbe09e413	-0.1346591
151	0xbc4d6b2d	-0.01253776
152	0x3a31dbab	0.0006784747
153	0xb4c8fe7d	-3.7438068e-07
154	0xba669df6	-0.0008797342
155	0xbc7082e5	-0.014679645
156	0xbbe0cff6	-0.0068607284
157	0xb91e002f	-0.00015068123
158	0xbba05756	-0.0048932238
159	0xb5434b1f	-7.2752476e-07
160	0x3e8ccc9c	0.27499855
161	0x3e9d55a7	0.3072941
162	0xb61123f7	-2.1627618e-06
163	0x3a1e2c36	0.00060338096
164	0xb4a9ca7d	-3.1626033e-07
165	0xb566ec28	-8.602533e-07
166	0xbeeb61ed	-0.4597315
167	0x355843db	8.0565013e-07
168	0x3ce2c0d6	0.027679842
169	0xbe600bc8	-0.21879494
170	0x3cb927d0	0.022601992
171	0x3d698e07	0.057020213
172	0xb45a4027	-2.032617e-07
173	0x3d008634	0.031377986
174	0x3e133143	0.1437426
175	0xbe783f3d	-0.24242873
176	0x3d472c37	0.04862615
177	0x3ef42ee1	0.47692016
178	0xbc2d875b	-0.010591353
179	0x3f451f36	0.7700075
180	0xbe05429f	-0.13013695
181	0x3bd0b671	0.006369405
182	0x3e9e420d	0.30909768
183	0x3e3eeca3	0.18644957
184	0xb4a90b80	-3.148707e-07
185	0xbed942e5	-0.4243385
186	0x3ecc9cce	0.39963382
187	0xb3cf5a07	-9.6555645e-08
188	0x3e10b62f	0.14131998
189	0x3f0b0069	0.542975
190	0x3e8f48b7	0.27985165
191	0x3ee618ed	0.44940892
192	0xbead468b	-0.33842883
193	0xbf36ade9	-0.71359116
194	0x3e4906cf	0.19631504
195	0xbcac9688	-0.021067873
196	0xbd4c99c2	-0.049951322
197	0x3f28d049	0.6594282
198	0x3bac6b51	0.0052618166
199	0xbf6750cb	-0.90357655

layers.2.bias f4 [10]
0	0x3ef963d5	0.48708978
1	0x3e0995b9	0.13436021
2	0x3e19cf63	0.15020518
3	0x3e062ac8	0.13102257
4	0x3e3e2f53	0.1857274
5	0x3f01f324	0.5076163
6	0x3ec3241f	0.38113496
7	0xbf0833cc	-0.53204036
8	0xbee8969e	-0.45427412
9	0x399ab57e	0.0002950839

layers.4.weight f4 [5, 10]
0	0xbf1211f8	-0.5705867
1	0x3d0dabeb	0.034587782
2	0x3eecbf3c	0.4623965
3	0x3ee3dee6	0.44505996
4	0xbef65edc	-0.48119247
5	0xbdd62ae0	-0.104573965
6	0xbf2ec42d	-0.6826809
7	0x38b4fda2	8.630312e-05
8	0x3dc65824	0.0968478
9	0x3f08679b	0.5328309
10	0xbf781741	-0.9691048
11	0xbf181eda	-0.59422076
12	0x3d097e05	0.033567447
13	0x3f804844	1.0022054
14	0x3f81e2e7	1.014737
15	0x3f6a25b9	0.9146381
16	0xbfd47959	-1.6599532
17	0x3f80b928	1.0056505
18	0xbf824782	-1.0178072
19	0x3f9958fa	1.1980278
20	0xbf147b93	-0.5800106
21	0xbfa42d8d	-1.2826401
22	0xbfa41886	-1.2819984
23	0xbe46b909	-0.19406523
24	0xbebda20e	-0.370377
25	0x3ee1c0ba	0.4409235
26	0x3f88fb27	1.0701646
27	0x35732614	9.0579965e-07
28	0xbc1e2832	-0.009653138
29	0xbef8e712	-0.48613793
30	0xbcbceed6	-0.023063105
31	0x3ed2bf4e	0.4116158
32	0x33c49de8	9.155684e-08
33	0xb90caf26	-0.00013416688
34	0xbd808da8	-0.06277019
35	0x3417ff3b	1.4155823e-07
36	0xbdc0ffd1	-0.09423793
37	0xbca12226	-0.019669604
38	0x357f35d8	9.5073256e-07
39	0x3ea74bce	0.32675022
40	0xb4cfa7b5	-3.8678778e-07
41	0x34f91878	4.6397668e-07
42	0xb401d167	-1.2090241e-07
43	0xb54340f6	-7.273769e-07
44	0xb51fbf65	-5.951063e-07
45	0x3503687d	4.8953353e-07
46	0x34ddf8b3	4.134541e-07
47	0x33beadd5	8.879184e-08
48	0xb52b683e	-6.3854156e-07
49	0xb4f8ac5d	-4.631901e-07

layers.4.bias f4 [5]
0	0x3d9a69d9	0.0753972
1	0x3f3fd3e0	0.7493267
2	0x3f5dd8d8	0.86659
3	0xbf6cf6f1	-0.925643
4	0xb5971df3	-1.1259093e-06

layers.6.weight f4 [1, 5]
0	0x3fa2b6fd	1.2712094
1	0xc04691e0	-3.1026535
2	0xc0169c0b	-2.353274
3	0x3f87aab9	1.0598975
4	0xb58af200	-1.0352232e-06
