example/model/delta_Cy_a20.pth (torch, 5137 bytes, 7 tensors)

layers.0.weight f4 [20, 2]
-0.013741485 0.3531142 -0.8855217 -0.23774973 0.2107998 -0.5721088 -1.0233753 0.023554778
1.6017948 0.11924326 0.90547854 -0.045098595 0.10344778 0.7637512 1.6155686 -0.15758993
0.14542341 0.73381263 0.35885257 0.8771362 -1.2206808 -0.38892475 -0.744857 0.0721484
-0.3491707 -0.96922106 -1.0955092 0.1811394 0.20707382 0.5768101 1.5593319 -0.3877957
-1.1231486 -0.063231096 -0.502039 0.6363885 6.943484e-07 -1.2181407e-07 -6.693831e-08 3.8698775e-07
00000000: f723 61bc 62cb b43e 8db1 62bf aa74 73be
00000010: e7db 573e b975 12bf f6fd 82bf f3f5 c03c
00000020: 9d07 cd3f cf35 f43d 71cd 673f 4eb9 38bd
00000030: 6edc d33d 3385 433f f4ca ce3f 415f 21be
00000040: e0e9 143e 25db 3b3f 86bb b73e ff8b 603f
00000050: 453f 9cbf 2521 c7be f3ae 3ebf 8ac2 933d
00000060: 81c6 b2be df1e 78bf a539 8cbf 9b7c 393e
00000070: 290b 543e d4a9 133f 3098 c73f 288d c6be
00000080: 55c3 8fbf 4e7f 81bd a185 00bf 5bea 223f
00000090: 4263 3a35 ffcb 02b4 babf 8fb3 31c3 cf34

layers.0.bias f4 [20]
-0.42180002 -0.22102918 -0.0076995315 0.19956678 -0.078908734 -0.5317133 -0.6864896 -0.21201853
0.16884796 -0.21200052 -0.20274308 -0.9648563 -0.6308042 -0.124213904 0.66393566 -0.62841725
-1.499232 -0.5218551 -1.7777932e-06 -1.3884173e-06
00000000: 2cf6 d7be 7955 62be 5a4c fcbb 3c5b 4c3e
00000010: e79a a1bd 5d1e 08bf c8bd 2fbf 631b 59be
00000020: 7be6 2c3e aa16 59be e29b 4fbe d300 77bf
00000030: 627c 21bf dc63 febd b0f7 293f f4df 20bf
00000040: d6e6 bfbf 4c98 05bf 829c eeb5 a859 bab5

layers.2.weight f4 [10, 20]
-0.20861214 -5.070096e-08 -2.3495709e-06 -0.23753573 0.21614832 -0.012947373 0.4151106 -0.37644097
0.13509299 0.3690096 7.8313036e-07 -4.994985e-07 -2.7268012e-08 -0.23671654 -0.04305673 0.05829611
4.5419768e-07 -0.35419786 -6.630174e-07 5.4472184e-07 0.052784353 -0.20031174 -0.039829426 0.046453048
-0.14835258 -0.594168 -0.10801609 0.33977917 0.44692612 -0.55849254 -0.14022326 0.37287384
0.2579572 0.22622968 -0.36326677 0.47545418 -1.7262446 -0.009053515 -6.9571024e-07 -3.8623025e-07
-0.049755838 -0.30893204 0.38983434 -0.2660336 -1.1534317 0.00025528533 -0.10095614 -0.36927685
0.3446967 0.13000172 0.43146455 0.014123493 0.30459267 -0.68065035 -0.35575846 -0.6957328
-0.0033949688 -0.07865983 7.1157467e-07 6.7782906e-07 -0.13561685 0.24307723 0.062394686 0.21231832
0.12573034 0.37533084 -0.10924115 0.18048503 -0.18621342 0.16008039 0.3170612 -0.07274999
-0.35566533 0.20303832 -0.4782416 0.41449067 -0.10012299 0.026218863 4.357862e-07 -5.007944e-07
-4.558455e-07 -0.0013701943 0.00016957741 -0.0018668852 -6.937786e-05 0.00035098684 -1.0609887e-06 -0.0016563125
-9.1326837e-07 -1.6202317e-06 0.0002565601 2.901946e-07 0.00031133712 -5.6022566e-07 -0.00033389276 -0.001345677
4.1317276e-07 1.821835e-07 1.777725e-07 6.3855316e-07 -0.037162602 0.30422986 -0.24151497 0.21585438
-0.19916908 6.3571033e-06 -0.17739801 -0.33370063 -0.09610456 -0.6488625 0.43796644 0.056407765
-0.023108592 0.18024936 0.04441963 -0.436498 -0.16589096 -0.21553335 -1.5840851e-07 2.1192183e-07
0.20165244 0.25534102 -0.5408749 -0.10832017 0.04817109 0.38837433 0.15833762 0.08442265
0.28862315 0.19832632 0.47340477 0.87950927 -0.31413066 -0.28460282 0.3884674 -0.21188791
0.5240419 -0.17954218 -1.65381e-07 -3.0540457e-07 -0.37308162 -0.13826317 -0.002309146 0.40544492
0.076360874 -0.59915155 -0.27425322 0.18670036 0.40538967 -0.06970797 -0.08363059 -0.58933747
-1.0194948 0.31103382 -0.016075492 -0.19039713 -0.102354325 -0.7376707 6.5544873e-07 4.5931037e-07
-0.15472174 -0.2584327 0.015041843 -0.50595146 -0.8315369 -0.0030144649 0.18648034 -0.34951994
0.07971723 0.072512396 0.11111351 -5.0710224e-07 0.32223794 -0.7486936 0.2621487 -0.68303925
6.2551045e-08 -0.266746 3.007754e-07 7.821076e-07 -0.01535736 0.5019874 0.086283326 0.5058478
0.07005746 -0.0004956275 -0.81390345 -1.2459261 0.021922436 -0.10217112 0.9180957 -0.10202402
0.17680685 0.16311073 0.47494552 -1.035156 0.12083722 0.3319539 -5.8247525e-07 -1.9360006e-07
00000000: 6c9e 55be 4cc2 59b3 52ad 1db6 913c 73be
00000010: fc55 5d3e 3821 54bc 6089 d43e dfbc c0be
00000020: d155 0a3e d4ee bc3e 4f38 5235 4715 06b5
00000030: fe3a eab2 d265 72be 415c 30bd e7c7 6e3d
00000040: 74d8 f334 6c59 b5be 35fa 31b5 0039 1235
00000050: 6834 583d 851e 4dbe 2e24 23bd 8d45 3e3d
00000060: bde9 17be 651b 18bf 8a37 ddbd 89f7 ad3e
00000070: 80d3 e43e 5ef9 0ebf b096 0fbe 52e9 be3e
00000080: f712 843e c1a8 673e 1afe b9be bb6e f33e
00000090: 95f5 dcbf 3255 14bc d8c0 3ab5 155b cfb4
000000a0: c7cc 4bbd 572c 9ebe 5e98 c73e 8e35 88be
000000b0: a6a3 93bf d1d7 8539 18c2 cebd db11 bdbe
000000c0: 167c b03e 2c1f 053e ece8 dc3e 3966 673c
000000d0: 92f3 9b3e 1a3f 2ebf f925 b6be 8b1b 32bf
000000e0: 207e 5ebb 6818 a1bd 0a03 3f35 0ff4 3535
000000f0: 25df 0abe 3de9 783e 9291 7f3d f969 593e
00000100: 74bf 003e 5d2b c03e d3b9 dfbd 11d1 383e
00000110: bbae 3ebe 1dec 233e d855 a23e f2fd 94bd
00000120: c419 b6be 47e9 4f3e 15dc f4be 1f38 d43e
00000130: 480d cdbd f1c8 d63c 00f6 e934 546e 06b5
00000140: eeba f4b4 1798 b3ba 97d0 3139 46b2 f4ba
00000150: f47e 91b8 a804 b839 4b67 8eb5 a018 d9ba
00000160: 5327 75b5 bd76 d9b5 ea82 8639 0bcc 9b34
00000170: f63a a339 6a62 16b5 540e afb9 6d61 b0ba
00000180: 08d2 dd34 389e 4334 bce1 3e34 0a69 2b35
00000190: d037 18bd 04c4 9b3e b34f 77be ee08 5d3e
000001a0: fbf2 4bbe 1a4f d536 d3a7 35be cfda aabe
000001b0: 78d2 c4bd da1b 26bf 233d e03e d40b 673d
000001c0: 3b4e bdbc 4a93 383e 5cf1 353d aa7c dfbe
000001d0: 52df 29be c6b4 5cbe 0017 2ab4 a18c 6334
000001e0: fa7d 4e3e 0fbc 823e c776 0abf f7d6 ddbd
000001f0: 0d4f 453d 00d9 c63e 4223 223e c8e5 ac3d
00000200: 6ac6 933e 0e16 4b3e 1c62 f23e 8527 613f
00000210: bcd5 a0be 76b7 91be 33e5 c63e 25f9 58be
00000220: 9c27 063f e8d9 37be 9593 31b4 7cf6 a3b4
00000230: 8e04 bfbe dc94 0dbe 0b55 17bb 7a96 cf3e
00000240: 1763 9c3d ff61 19bf eb6a 8cbe 612e 3f3e
00000250: 3c8f cf3e 0dc3 8ebd 8446 abbd d2de 16bf
00000260: ce7e 82bf d33f 9f3e c0b0 83bc 77f7 42be
00000270: 259f d1bd fdd7 3cbf 18f2 2f35 2397 f634
00000280: 606f 1ebe 4a51 84be 1072 763c 0986 01bf
00000290: 9adf 54bf 548e 45bb b4f4 3e3e 47f4 b2be
000002a0: c942 a33d 6181 943d 7b8f e33d cd1f 08b5
000002b0: 5ffc a43e 62aa 3fbf 5b38 863e a9db 2ebf
000002c0: cd53 8633 ef92 88be 427a a134 06f2 5135
000002d0: 709d 7bbc 3f82 003f 50b5 b03d 3e7f 013f
000002e0: 497a 8f3d 00ed 01ba fa5b 50bf 827a 9fbf
000002f0: ae96 b33c 183f d1bd 5208 6b3f f8f1 d0bd
00000300: db0c 353e 8006 273e 0f2c f33e fe7f 84bf
00000310: 8179 f73d ddf5 a93e 655b 1cb5 61e0 4fb4

layers.2.bias f4 [10]
-0.35790718 0.22242539 0.26590848 -0.7205109 -0.0002908167 0.33792752 -0.2782566 0.39253387
0.43633196 0.13182576
00000000: 9c3f b7be 7bc3 633e 2825 883e 6773 38bf
00000010: c278 98b9 d604 ad3e a677 8ebe 33fa c83e
00000020: e766 df3e 55fd 063e

layers.4.weight f4 [10, 10]
0.23580901 -0.16385421 0.9671222 0.14380284 0.0008345791 -0.26483876 -0.044026963 0.8877642
0.9258573 -0.4495479 -8.890621e-05 -1.6356643 -0.16592275 0.35197333 -3.800386e-05 -0.42730936
-1.1880573 0.46033606 -0.39421916 0.37825045 2.9925465e-07 0.49921712 0.65142536 -1.0210308
0.0018807102 -0.41041183 -0.48353952 0.15637699 0.6965777 -1.3400366 -0.54964155 0.38091603
0.23289312 -0.033897188 0.00016597708 -0.1458683 -0.077057555 0.6299581 0.49544322 -0.033760328
-8.335599e-07 0.5182832 -0.2017864 -0.5197384 0.00076318684 -0.0007693448 -0.0013556193 -0.09399274
-0.08019037 -0.00040073768 9.062696e-06 0.27261984 -0.20412248 0.10674301 -0.00045659617 -0.023229018
-0.16957992 -0.29528302 -0.26042843 -0.03690518 0.17952143 0.24997391 0.455936 0.12621993
0.00055160985 -0.6836869 -0.18187225 0.5549762 0.46527538 -1.0700974 0.00055370905 0.33526057
1.0899853 0.007636638 -0.00013114681 -0.58093834 -0.48587987 0.40343788 0.5402634 -1.3066084
-0.6879662 -0.6844187 -0.21878071 0.06193286 0.00022921691 0.2541226 -0.17938578 0.6773835
0.303394 -0.24352548 1.3893491e-07 -3.36855e-07 2.2754806e-07 -7.402566e-07 -3.9845423e-07 -6.1864944e-07
-8.741167e-07 -2.0055548e-07 9.664383e-08 2.6555963e-07
00000000: eb77 713e 66c9 27be 5295 773f 0d41 133e
00000010: a8c7 5a3a f298 87be 9e55 34bd 8444 633f
00000020: fc04 6d3f 242b e6be 2873 bab8 735d d1bf
00000030: a7e7 29be d935 b43e 5566 1fb8 4bc8 dabe
00000040: 4312 98bf 2bb1 eb3e 18d7 c9be 0baa c13e
00000050: 3fa9 a034 6399 ff3e d0c3 263f 23b1 82bf
00000060: 2a82 f63a 8021 d2be 7e92 f7be 4a21 203e
00000070: eb52 323f 5286 abbf 4fb5 0cbf 6d07 c33e
00000080: 897b 6e3e c7d7 0abd 220a 2e39 805e 15be
00000090: 5ad0 9dbd ef44 213f bcaa fd3e 4548 0abd
000000a0: cdc1 5fb5 35ae 043f 18a1 4ebe 930d 05bf
000000b0: 9a10 483a dbad 49ba 09af b1ba 447f c0bd
000000c0: d93a a4bd 1a1a d2b9 fc0b 1837 d494 8b3e
000000d0: 7c05 51be 149c da3d 4d63 efb9 c84a bebc
000000e0: 5ca6 2dbe 562f 97be e056 85be e329 17bd
000000f0: 77d4 373e 29f9 7f3e 7270 e93e cc3f 013e
00000100: e999 103a 1b06 2fbf b83c 3abe ec12 0e3f
00000110: 9338 ee3e f4f8 88bf c926 113a 46a7 ab3e
00000120: a384 8b3f c33c fa3b 7484 09b9 60b8 14bf
00000130: 3fc5 f8be 698f ce3e b44e 0a3f f23e a7bf
00000140: 8e1e 30bf 1036 2fbf 0d08 60be 50ad 7d3d
00000150: f259 7039 5c1c 823e e8b0 37be 0169 2d3f
00000160: 7556 9b3e be5e 79be 232e 1534 00d9 b4b4
00000170: ef53 7434 0cb6 46b5 22eb d5b4 4411 26b5
00000180: d8a4 6ab5 4558 57b4 828a cf33 3d92 8e34

layers.4.bias f4 [10]
0.4407586 0.14504881 0.065843955 -0.38711604 -0.27617073 0.08884151 0.38134757 -0.19102532
-0.05862654 -4.9788287e-07
00000000: 1cab e13e ad87 143e 32d9 863d 1334 c6be
00000010: 4066 8dbe 8af2 b53d fd3f c33e 249c 43be
00000020: 6222 70bd 40a6 05b5

layers.6.weight f4 [1, 10]
-1.69091 -2.0616117 -2.0726678 1.1015208 -0.81595975 0.55862546 -1.5804482 -1.9827554
1.2407142 7.2225646e-08
00000000: bd6f d8bf 72f1 03c0 97a6 04c0 a2fe 8c3f
00000010: bde2 50bf 1402 0f3f 204c cabf eeca fdbf
00000020: b9cf 9e3f 781a 9b33
