example/model/delta_Cmq_lef.pth (torch, 3911 bytes, 5 tensors)

layers.0.weight f4 [20, 1]
000000 54 89 9b 3e 5a f0 22 3e ab b2 0f bf 90 3c f1 3e
       0.3037821 0.15912 -0.56132 0.47116518
000010 79 92 68 bf 5c 92 10 3f fa f5 a2 bc cc e1 f2 be
       -0.908485 0.56473327 -0.019892681 -0.47437894
000020 4d 3d 7f 3d 98 1e d4 3e 55 f1 b7 be 81 73 30 3d
       0.06231432 0.4142959 -0.3592631 0.043078903
000030 73 1f b5 be 0b e0 90 3f 0f 11 5f 3d e3 b5 b7 39
       -0.35375556 1.1318372 0.054459628 0.00035039996
000040 82 76 99 bf c2 04 c9 3f 40 63 45 3f c4 dd ec 3e
       -1.1989291 1.5704577 0.7710457 0.46262944

layers.0.bias f4 [20]
000000 d3 e8 ba 3e 87 a2 d2 bd a2 0c 2d bf f7 a8 aa bd
       0.36505756 -0.10284906 -0.675974 -0.08333009
000010 7b c7 05 3f a1 a6 2d 3f 10 4c 54 bd 53 93 e2 be
       0.5225751 0.6783238 -0.05183035 -0.44253024
000020 32 f0 91 3e 33 e3 fe 3e b1 98 ab be 9f 3c dc bd
       0.28503567 0.49782714 -0.33514932 -0.1075375
000030 c9 fe a8 be 49 fb ad 3f 24 ab ce bd d0 c3 bf bc
       -0.33006886 1.3592311 -0.10091236 -0.0234088
000040 55 3a 45 3f 06 6c 83 3f 74 07 6d 3f f5 1a 99 be
       0.7704213 1.0267341 0.925895 -0.2990338

layers.2.weight f4 [10, 20]
000000 4f a3 10 3c 8d 95 8c bc d5 81 93 bc b2 ca 90 3d
       0.008827998 -0.017161155 -0.018006245 0.07069911
000010 0f d8 bb be 38 39 9f 3c 27 78 a1 3c 10 7e b3 3c
       -0.36688277 0.019436464 0.019710613 0.021910697
000020 c4 01 98 bc c7 72 46 bc a9 6f ac bc ad 6e 89 3c
       -0.01855553 -0.012112326 -0.021049337 0.016776407
000030 26 96 28 bc f8 1b 44 3d 9e 05 96 3c 39 fa 9d 3c
       -0.010289704 0.047878236 0.018313225 0.019284355
000040 6e cb f6 be 02 fe 97 3e 22 00 7e 3c 56 cb cd bd
       -0.4820208 0.2968598 0.015502961 -0.10048549
000050 68 c2 0c 3e 1f 77 b8 bd 51 93 93 3c 9c fc 18 3e
       0.13746035 -0.090070955 0.018014582 0.14940113
000060 72 7c 3f be 63 27 80 3e ce 0a bc 3b 36 25 a7 3c
       -0.18699816 0.2503005 0.0057385927 0.020403486
000070 71 60 cc 3d 4a da 19 3e 6a 80 b4 3c 05 eb c1 bc
       0.09979332 0.15024677 0.022033889 -0.023671636
000080 48 38 22 3b 79 9a ec 3e 4f 29 c5 bc 60 9c b1 bc
       0.0024752785 0.46211603 -0.024067549 -0.02168101
000090 ad 5e 67 be 69 00 1e bf 9c 8b 99 3e e2 b5 3b be
       -0.2259471 -0.61719376 0.29989326 -0.18331102
0000a0 ad a3 9e 3d 20 41 84 bb 50 8a e6 be 4a 04 c5 3c
       0.077460624 -0.004036084 -0.450274 0.024049897
0000b0 29 5b 4a 3e 5a b3 de 3d 0e 62 46 3c 38 e5 a0 3e
       0.19761337 0.10874052 0.012108339 0.3142488
0000c0 c0 a0 60 3e 86 fa 0e 3e 8f e4 7c 3e 8e b0 05 3c
       0.21936321 0.13962755 0.24696563 0.00815977
0000d0 b6 d1 80 3e ed f2 7c 3e f7 03 1e 3c 88 68 2c 3c
       0.25159997 0.24702044 0.0096445 0.010522969
0000e0 ce 34 a7 3e e5 ed a4 bf 8f cc 23 3e a9 0e d1 bc
       0.32657474 -1.28851 0.15996002 -0.025519686
0000f0 6f aa bd 3d 70 0a 24 bd 29 ce 9a 3c 0b a4 a9 3d
       0.09261023 -0.040049016 0.018897133 0.08283242
000100 1c cc fc bd b6 87 47 3e 82 38 44 ba 7a 21 28 3a
       -0.12343618 0.19485363 -0.0007485227 0.000641368
000110 b9 54 ba 3d 03 9b 19 3e c9 af 90 bc 60 6e 66 3b
       0.09098191 0.15000539 -0.017661946 0.0035161003
000120 05 a2 09 3c 1f 43 c1 3e e0 84 06 bc 51 3a 85 3b
       0.008400445 0.37746522 -0.008210391 0.0040657897
000130 9a 52 43 be 0f d6 fa be ae f9 7f 3e aa 7c 1d be
       -0.19074479 -0.4899144 0.24997589 -0.15379587
000140 21 40 b5 bc ab 3c c4 3b 95 5f 3e 3c 56 9d 8e bc
       -0.022125306 0.0059886775 0.011619468 -0.017409008
000150 83 50 81 bc 19 10 84 bc b8 82 61 3b 51 57 80 bb
       -0.015785461 -0.016120957 0.003441019 -0.003916659
000160 15 b0 bf bc 92 48 4f 3c 75 08 a4 bc 0c d4 ac 3c
       -0.023399392 0.012651579 -0.020023564 0.021097206
000170 91 66 38 3c e4 69 b3 bb 1e db 3f 3a f7 71 c8 bb
       0.0112549225 -0.0054752696 0.0007318723 -0.0061171013
000180 7c 06 9b 3b 31 6b b9 3b e8 f0 97 3c 84 56 87 bc
       0.0047309976 0.00565853 0.01854749 -0.016520746
000190 1c 21 61 3e 50 6e de bd 89 1e 33 3c 13 44 57 3e
       0.21985286 -0.10860884 0.010932573 0.21022062
0001a0 6f 3f 88 be 24 79 c5 3e c5 79 8e 3c 67 1f 84 3b
       -0.26610896 0.38568985 0.017392049 0.0040320638
0001b0 37 80 32 3e 46 b2 8f 3e a1 53 99 3c 3a 41 15 bc
       0.17431723 0.280657 0.018716635 -0.0091097895
0001c0 33 c7 2e 3c 72 66 40 3f 8c 2d 9f 3c cc cb b4 bc
       0.01066761 0.7515632 0.019430898 -0.022069834
0001d0 93 74 c1 be 4e fe 81 bf da 13 05 3f 61 fc 9b be
       -0.37784252 -1.0155733 0.51983416 -0.30465987
0001e0 43 73 14 bb 03 1f ee 3c 51 34 0a bc 01 88 11 3d
       -0.002265171 0.029067522 -0.008435325 0.035530094
0001f0 ec be e7 bb 62 31 ba bc a3 41 bf 3c bb 06 6c 3c
       -0.00707232 -0.022728626 0.023346728 0.014405902
000200 b8 80 00 bc d7 52 69 bb 8f 0c c6 bb ba 08 ff 3b
       -0.007843189 -0.0035602355 -0.0060439776 0.0077830227
000210 54 c3 05 bc a4 9e 49 3c b5 b3 93 bc cf ae 57 3c
       -0.008164246 0.012305889 -0.018030027 0.013164236
000220 af 27 67 bc 28 ee 85 3b e9 bf a7 3c 19 3a 73 bb
       -0.014108582 0.0040872283 0.020477252 -0.0037113486
000230 21 c4 35 3d 3a f8 a1 3d ee ac da 3e 5d f3 a2 be
       0.044376496 0.079086736 0.4271006 -0.31826296
000240 5d 81 68 3f d4 eb 7c 3d 17 b7 45 bc 92 23 8c be
       0.9082239 0.06174834 -0.012067578 -0.27370888
000250 66 93 44 3d 95 98 dd 3c 80 d8 5e be 9b d2 05 bb
       0.047992133 0.027050296 -0.21762276 -0.002041972
000260 7f 0f 70 be 2f 62 b8 3d aa 1c 9b 39 db 55 61 3c
       -0.23443411 0.09003102 0.0002958526 0.01375338
000270 7a ea 9e 3f 41 c6 14 3f f2 f5 58 3d e4 06 85 3e
       1.2415307 0.5811501 0.052968927 0.2598182
000280 33 47 e4 be 3a 63 1c 3b d1 ea 0a bf f2 01 87 bc
       -0.4458557 0.0023862855 -0.5426455 -0.01648042
000290 14 b8 ad 3e 01 5f 57 bf 36 18 c4 3c e2 65 d4 3e
       0.33929503 -0.8412934 0.023937326 0.4148398
0002a0 63 0e ec bd d9 04 1d bf db 8a 97 3e 06 ad b2 bc
       -0.115261815 -0.6133552 0.29598126 -0.02181102
0002b0 b3 ea 8d 3e b5 31 da bf 0f 0f 9d bb 18 a6 9d 3b
       0.27718124 -1.7046419 -0.004793055 0.0048110597
0002c0 82 7e d9 3e 8a 3b d7 3b 74 3d 95 bf c1 9e a4 3c
       0.4247933 0.006568377 -1.1659379 0.020095231
0002d0 df 7f 73 3c a6 06 3c 3c 63 66 63 bc 74 0d ab bc
       0.01486203 0.0114761945 -0.013879391 -0.020880438
0002e0 7d 1a 86 3c 37 85 be bc 2b 3e f4 ba fb 00 59 bb
       0.016370052 -0.023256881 -0.001863425 -0.0033112157
0002f0 39 34 14 bc e4 4f a5 3c de 6d c3 bb 51 ad 76 3c
       -0.009045654 0.020179696 -0.005964025 0.01505597
000300 32 7e c0 3c 82 2d 9d 3b c5 74 f7 3b e4 83 c0 bc
       0.023497675 0.0047966847 0.007551762 -0.02350039
000310 78 9e 51 bc 12 6f 26 3c 36 02 53 bc fc 86 70 bc
       -0.01279413 0.010158317 -0.012878945 -0.01468062

layers.2.bias f4 [10]
000000 7c e8 a5 bd b8 0a c7 3e 38 94 1a 3f 09 6b 92 3e
       -0.081009835 0.38875365 0.60382414 0.28597286
000010 ac 9c 95 3b 06 05 17 3f 90 15 27 bd f6 f9 0d bd
       0.004565796 0.5899204 -0.040792048 -0.03466221
000020 ff f3 84 be d7 1c d4 bb
       -0.25967404 -0.0064731645

layers.4.weight f4 [1, 10]
000000 65 62 14 bf 06 13 4f bf 79 14 c7 bf 32 55 24 bf
       -0.5796264 -0.808884 -1.5553123 -0.641925
000010 b8 51 b9 3c 5d ba a7 bf 2f a7 ef 3c 2a 14 b9 3f
       0.022621974 -1.3103749 0.029254524 1.4459279
000020 72 a4 20 c0 0b 90 bd bc
       -2.510037 -0.023139974
