envs/models/F16/model/Cx.pth (torch, 3951 bytes, 5 tensors)

layers.0.weight f4 [20, 3]
0.65875596 0.10927558 -0.0024181018 -0.1499846 0.45241058 0.03699675 0.7029733 0.019736512
-0.33130202 -0.03380884 -0.182637 -0.18213706 -0.2856757 0.2045205 -0.1742263 -0.3153422
0.17805517 0.024503743 -0.11686866 -0.23348024 0.1999804 -0.029439354 -0.29337737 0.01755207
0.1501117 0.004374869 0.36679867 0.14889966 0.093086794 0.09678887 0.38313925 -0.018695313
0.176698 -0.26840287 -0.0027894164 -0.32481247 0.6037855 0.017597424 0.1991121 0.022442345
-0.048775584 0.09292747 0.52423966 -0.0144874025 -0.041927643 -0.6829153 0.031649593 0.0459998
-0.7384066 0.16673692 -0.009463833 -0.18479826 -0.0020809679 -0.3505521 0.123141736 0.36441046
-0.035770494 0.085322976 -0.004142826 0.24831495
00000000: 3ba4 283f e0cb df3d 0479 1ebb 9095 19be
00000010: 5ca2 e73e e789 173d 0ff6 333f 77ae a13c
00000020: 6ba0 a9be 237b 0abd 3205 3bbe 2382 3abe
00000030: 1644 92be d26d 513e 6168 32be 8874 a1be
00000040: 1854 363e 13bc c83c d658 efbd 7215 6fbe
00000050: a9c7 4c3e cd2a f1bc 8f35 96be 5cc9 8f3c
00000060: e2b6 193e 105b 8f3b 09cd bb3e 2779 183e
00000070: 4aa4 be3d 3e39 c63d d42a c43e ea26 99bc
00000080: 52f0 343e 1a6c 89be a4ce 36bb d24d a6be
00000090: b091 1a3f 7928 903c 0be4 4b3e 02d9 b73c
000000a0: e8c8 47bd c250 be3d 9234 063f 925c 6dbc
000000b0: 52bc 2bbd 89d3 2ebf 01a3 013d 496a 3c3d
000000c0: 3708 3dbf 15bd 2a3e 310e 1bbc c13b 3dbe
000000d0: d960 08bb 917b b3be bc31 fc3d 0294 ba3e
000000e0: 1584 12bd d0bd ae3d 8bc0 87bb 4646 7e3e

layers.0.bias f4 [20]
0.7849446 0.112146236 -0.061245143 -0.014344385 0.23979987 0.013605059 -0.08350765 0.3090569
0.4102614 -0.12379829 -0.5008513 -0.089161605 0.17630701 -0.12283925 0.7226065 0.026032934
-0.053056918 -0.24787475 0.25156146 0.053708825
00000000: 21f2 483f edac e53d 30dc 7abd b604 6bbc
00000010: 198e 753e c1e7 5e3c 0f06 abbd b53c 9e3e
00000020: c80d d23e f589 fdbd ca37 00bf 5c9a b6bd
00000030: d389 343e 2593 fbbd bdfc 383f 0543 d53c
00000040: 3652 59bd e1d2 7dbe aacc 803e c9fd 5b3d

layers.2.weight f4 [10, 20]
-0.047404747 0.012958621 -0.12348059 0.033252537 -0.1253737 0.04640516 0.08676024 0.007041789
0.37323877 -0.052201573 0.15143445 0.05764744 0.19762753 -0.05096819 -0.062854275 -0.2433122
0.068577014 0.11886875 -0.12568204 0.17104654 1.0329531e-05 -3.8645776e-05 2.554695e-05 2.0489642e-05
-1.4958928e-05 4.1348587e-05 -1.0915817e-06 4.3163865e-05 2.1270249e-05 -1.3511809e-05 -4.127302e-05 -2.871903e-05
-5.0650517e-05 2.6516382e-05 -5.453135e-05 -3.679273e-05 7.979157e-06 -6.7949586e-06 2.9135004e-05 -2.5204667e-05
-1.2198841e-05 2.6887095e-05 -5.7629746e-05 -8.8811254e-07 5.654011e-07 -2.2934042e-05 -2.683322e-05 3.6803718e-05
-4.752988e-05 2.061325e-05 -2.041189e-05 2.4930436e-05 2.9556368e-05 1.3324419e-05 2.7935024e-05 -3.4647033e-05
-3.0470658e-06 5.786062e-05 -1.2626786e-06 -5.6228735e-05 -0.8745995 -0.15316075 4.8305324e-06 0.11805974
0.29850364 0.12816833 0.016436892 0.08218088 0.14385046 -0.008897594 2.587314e-05 0.23923928
-0.14176689 -0.03485015 -0.7743305 0.24813017 0.23127262 0.25538093 0.048182487 0.015873075
-0.11535306 0.05556725 -0.04410442 0.100963645 -0.16156055 0.025702493 0.09407929 0.074755885
0.38415146 -0.040110663 0.16409078 0.04754812 0.24434277 -0.05521429 -0.12778307 -0.20433526
0.08192243 0.12194064 -0.16011032 0.18569303 -0.00068105827 0.0038317796 0.007567875 -0.0005269585
-0.0030400828 4.8121736e-05 0.0012714643 0.0015049856 -0.00034279012 0.00036179493 0.002699671 -0.00091575296
0.006989391 -0.00011858918 -0.00090586755 -1.982489e-06 8.731341e-07 -0.000766718 -0.0029344417 -0.0011285972
-1.2260065e-05 4.938372e-05 -9.640506e-06 3.5842626e-05 2.3042778e-05 -4.543801e-05 -5.090559e-05 5.1475687e-05
1.5066719e-05 -4.1897742e-06 6.3625075e-06 -1.0855303e-05 8.188715e-06 -3.9255694e-05 -4.800295e-05 -2.8017316e-06
-5.5070843e-05 -3.6548405e-05 3.0161127e-05 -2.7234615e-05 0.42156574 -0.30605567 0.31257883 0.03733918
0.24012277 -0.33249786 -0.16269933 0.1954904 0.10568128 0.13416384 -0.2974848 -0.14699627
-0.36412373 0.06449505 0.288024 0.1650539 -0.696662 -0.04676036 0.32661137 -0.030599693
0.29472345 0.22456236 0.23017153 -0.17551738 -0.12961553 -0.0415541 0.13928765 -0.35582542
-0.13121983 -0.08624519 0.21016927 -0.17645025 0.3027265 0.04152873 0.22658956 -0.21453878
-0.12785105 -0.098221965 0.15097255 -0.0923248 0.19484252 -0.2569762 -0.6684608 -0.104278214
0.08712237 0.008513188 -0.21776986 0.08753142 -0.036376376 0.15394294 -0.48115396 -0.25717452
-0.26847303 0.11487054 0.23461881 0.4811914 -0.0632036 -0.32797906 0.19307871 -0.0017619731
00000000: 7b2b 42bd 6550 543c 64e3 fcbd d033 083d
00000010: f761 00be 5613 3e3d 5aaf b13d cfbe e63b
00000020: 2719 bf3e 51d1 55bd a211 1b3e b91f 6c3d
00000030: df5e 4a3e 05c4 50bd beb9 80bd d526 79be
00000040: 1b72 8c3d 7671 f33d cbb2 00be d326 2f3e
00000050: ff4c 2d37 9617 22b8 a84d d637 2ce1 ab37
00000060: 1bf8 7ab7 b56d 2d38 7682 92b5 d90a 3538
00000070: 836d b237 c7b0 62b7 911c 2db8 a6e9 f0b7
00000080: 9471 54b8 7f6f de37 97b8 64b8 e551 1ab8
00000090: 38de 0537 4000 e4b6 f266 f437 9c6e d3b7
000000a0: a0a9 4cb7 998b e137 78b7 71b8 a166 6eb5
000000b0: 11c6 1735 7b62 c0b7 e717 e1b7 b15d 1a38
000000c0: d25a 47b8 9eea ac37 333a abb7 b421 d137
000000d0: d1ef f737 f28b 5f37 0256 ea37 f851 11b8
000000e0: 317c 4cb6 5eaf 7238 4e79 a9b5 25d7 6bb8
000000f0: c1e5 5fbf 2cd6 1cbe f515 a236 4ec9 f13d
00000100: 78d5 983e 8f3e 033e a9a6 863c 734e a83d
00000110: 894d 133e 37c7 11bc 250a d937 24fb 743e
00000120: 572b 11be 08bf 0ebd 863a 46bf d615 7e3e
00000130: bbd2 6c3e 4ac1 823e 005b 453d 4008 823c
00000140: 3a3e ecbd 7c9a 633d d6a6 34bd 07c6 ce3d
00000150: 2170 25be 098e d23c a5ac c03d 9d19 993d
00000160: 80af c43e 144b 24bd 6a07 283e d1c1 423d
00000170: fe34 7a3e 6128 62bd 91d9 02be 433d 51be
00000180: f2c6 a73d 04bc f93d f6f3 23be 5026 3e3e
00000190: 0c89 32ba 981e 7b3b f0fb f73b 9623 0aba
000001a0: 203c 47bb 52d6 4938 43a7 a63a f042 c53a
000001b0: 83b8 b3b9 4baf bd39 f7ec 303b 240f 70ba
000001c0: 4307 e53b 15b3 f8b8 be77 6dba e70a 05b6
000001d0: 5261 6a35 93fd 48ba c34f 40bb 70ed 93ba
000001e0: 94b0 4db7 5e21 4f38 a8bd 21b7 ba55 1638
000001f0: fd4b c137 b194 3eb8 7683 55b8 99e7 5738
00000200: 11c7 7c37 e395 8cb6 867d d536 2c1f 36b7
00000210: 4362 0937 7ba6 24b8 c656 49b8 6205 3cb6
00000220: defb 66b8 8d4b 19b8 8702 fd37 e475 e4b7
00000230: 77d7 d73e 54b3 9cbe 550a a03e f8f0 183d
00000240: bee2 753e 293d aabe a79a 26be a32e 483e
00000250: 6d6f d83d 3f62 093e ed4f 98be 3186 16be
00000260: 6d6e babe fb15 843d e277 933e e403 293e
00000270: 7158 32bf cb87 3fbd 9b39 a73e 35ac fabc
00000280: fee5 963e adf3 653e 16b2 6b3e d4ba 33be
00000290: efb9 04be a234 2abd 6ca1 0e3e c02e b6be
000002a0: 7e5e 06be 51a1 b0bd 9d36 573e 60af 34be
000002b0: f8fe 9a3e 081a 2a3d 1807 683e 0eb0 5bbe
000002c0: 63eb 02be 9928 c9bd 8c98 1a3e c914 bdbd
000002d0: cc84 473e 6292 83be 3f20 2bbf d18f d5bd
000002e0: 376d b23d e67a 0b3c 10ff 5ebe ac43 b33d
000002f0: 65ff 14bd 38a3 1d3e d059 f6be 61ac 83be
00000300: 4c75 89be 3f41 eb3d ea3f 703e b85e f63e
00000310: e470 81bd dfec a7be 6db6 453e 02f2 e6ba

layers.2.bias f4 [10]
0.2966013 -4.1273863e-05 -4.5053606e-05 0.29863146 0.25929186 -0.010390215 -4.8124057e-05 0.3242312
-0.34934825 0.11456693
00000000: 20dc 973e 791d 2db8 f1f7 3cb8 39e6 983e
00000010: e7c1 843e b83b 2abc d0d8 49b8 a201 a63e
00000020: c6dd b2be 11a2 ea3d

layers.4.weight f4 [1, 10]
-0.66788155 4.170579e-05 3.595756e-05 -1.3653297 -0.7021092 0.016130742 -6.455489e-05 1.2712828
-0.90791357 1.1926417
00000000: 49fa 2abf 40ed 2e38 23d1 1638 20c3 aebf
00000010: 6ebd 33bf 9e24 843c a561 87b8 65b9 a23f
00000020: 066d 68bf 7ca8 983f
