envs/models/F16/model/delta_Cz_lef.pth (torch, 4807 bytes, 7 tensors)

layers.0.weight f4 [20, 2]
0	0x3ecc397c	0.39887607
1	0x3da660eb	0.081239544
2	0x3ef06937	0.46955273
3	0x3e0a7d7e	0.13524434
4	0xbf901e50	-1.1259251
5	0xbeeba85a	-0.4602688
6	0xbf54d4ec	-0.83137393
7	0xbb1933b8	-0.0023376774
8	0x3fc0ffaf	1.5078028
9	0xbe0db75e	-0.1383948
10	0xbf67575b	-0.9036767
11	0x3c04ced2	0.00810595
12	0xbf09db44	-0.538502
13	0x3f88a27d	1.0674587
14	0x3f071a82	0.5277482
15	0x3efd6500	0.4949112
16	0x3d951109	0.0727864
17	0x3f3905d3	0.7227451
18	0xbf2a24c4	-0.6646235
19	0xbf44871e	-0.7676867
20	0xbf8a9e08	-1.0829477
21	0x3d344639	0.044012282
22	0xbcb8d016	-0.02256016
23	0xbf656f27	-0.8962273
24	0x3ec04772	0.37554508
25	0x3e7c44f3	0.24635677
26	0x3e821e7d	0.25413886
27	0x3f71fc11	0.9452525
28	0xbedfc330	-0.43703604
29	0x3ef24863	0.47320852
30	0xbf4811ba	-0.7815205
31	0x3dc09e99	0.0940525
32	0xbb1452c6	-0.0022632345
33	0x3d966f3a	0.073454335
34	0x33bb9d55	8.7364846e-08
35	0xb288af1f	-1.591212e-08
36	0xbf092eee	-0.53587234
37	0xbea7a075	-0.32739606
38	0x3f58c510	0.84675694
39	0x3e705f61	0.23473884

layers.0.bias f4 [20]
0	0xbef97d2c	-0.4872831
1	0xbf1ad84c	-0.6048629
2	0xbd75c9f5	-0.060007054
3	0x3f41f7fb	0.75769013
4	0xbfc9df0d	-1.5771195
5	0xbf4d2f19	-0.8014999
6	0xbf2518bb	-0.6449086
7	0xbe67a008	-0.22619641
8	0x3e74e5d6	0.239158
9	0x3d6eed34	0.058331683
10	0xbdfa34c2	-0.12217094
11	0xbe07044c	-0.13185233
12	0xbea46965	-0.3211166
13	0xbfb8f76f	-1.4450511
14	0xbe531010	-0.20611596
15	0x3f84c7e8	1.0373507
16	0xbdd7a52d	-0.10529552
17	0xb596e37d	-1.1242079e-06
18	0xbe64a17b	-0.22327225
19	0xbe8a568e	-0.2701916

layers.2.weight f4 [10, 20]
0	0xbe8d341b	-0.27578816
1	0xbeadf877	-0.33978626
2	0x3d962c0e	0.073326215
3	0xbe989ede	-0.29808706
4	0xbe86febf	-0.2636623
5	0xbef7d7a9	-0.48406723
6	0x3e07d4d5	0.13264783
7	0x3db8bcd8	0.09020394
8	0xbdfe6a02	-0.12422563
9	0xbdf18970	-0.11793792
10	0xbf00a84f	-0.5025682
11	0xbe6a94b7	-0.22908293
12	0xbde4475f	-0.111464255
13	0xbf5e0c1e	-0.8673724
14	0xbe9d4bd3	-0.30721912
15	0x3ede51b4	0.4342171
16	0xbc7fdab6	-0.01561611
17	0xb5407883	-7.170094e-07
18	0x3e2edb90	0.17075944
19	0x3dbf0555	0.09327189
20	0xbdbc0d51	-0.091822274
21	0xbdc594d4	-0.09647527
22	0x3ef4a74b	0.47783884
23	0xbf3f0875	-0.7462228
24	0xbe58fd42	-0.2119036
25	0x3d0cb134	0.03434868
26	0x3e9d84e8	0.30765462
27	0xbdf4c28f	-0.119511716
28	0xbd7c32bd	-0.061571825
29	0xbd968b83	-0.073508285
30	0xbc80f9a1	-0.015744032
31	0x3ea649bc	0.3247813
32	0x3e23fbf8	0.16014087
33	0x3f23b016	0.6394056
34	0xbe9e7864	-0.30951226
35	0xbe3a9595	-0.18221124
36	0xbbee7c3f	-0.007277995
37	0xb53b00bb	-6.966399e-07
38	0x3e192507	0.14955531
39	0xbeb42e24	-0.35191453
40	0x3e4f95aa	0.20271936
41	0x3e74ec8a	0.23918357
42	0xbe4ecfc5	-0.20196445
43	0xbe273842	-0.16330054
44	0xbfc7277f	-1.5558928
45	0xbf42b616	-0.7605909
46	0x3e643d63	0.22289042
47	0x3ed5bb91	0.41744664
48	0xbe3972ca	-0.18110195
49	0x3f3c6c92	0.73603165
50	0x3ec8df2b	0.39232764
51	0xbde3b468	-0.11118394
52	0x3e03c869	0.12869419
53	0x3e2d3f1d	0.16918607
54	0xbc5feb6a	-0.013666967
55	0xbf35b006	-0.70971715
56	0x3dc4c2ed	0.09607492
57	0x3557dd3b	8.0415674e-07
58	0xbea7ade6	-0.3274986
59	0x3e883c0a	0.26608306
60	0xbdeadc95	-0.11467854
61	0xbe1e2ca0	-0.1544671
62	0x3ee992a3	0.45619687
63	0x3f0a8200	0.54104614
64	0x3e04e94b	0.12979619
65	0x3b09c990	0.0021024682
66	0xbdfe4626	-0.124157235
67	0xbeb22290	-0.34791994
68	0xbdf3e970	-0.11909759
69	0xbea9a4ac	-0.33133447
70	0x3f04f7b4	0.51940465
71	0x3e61e98a	0.22061744
72	0xbe10c938	-0.14139259
73	0x3c329d9f	0.010901838
74	0xbdea7b9f	-0.1144936
75	0xbdc744c8	-0.09729916
76	0x3a7dd935	0.00096835505
77	0x34aa3a10	3.1707214e-07
78	0x3d5f0913	0.054452013
79	0x3ecca233	0.39967498
80	0x3b237c8a	0.0024946057
81	0x3b4b00c2	0.0030975793
82	0xbf179015	-0.59204227
83	0x3ebf5e85	0.373768
84	0x39b8315a	0.00035131985
85	0xbe7f2dc3	-0.249198
86	0xbf01813e	-0.5058783
87	0xbdb88466	-0.09009628
88	0x3ea5b560	0.3236494
89	0xbdcb0de2	-0.09914757
90	0xbe1fd6b9	-0.15609254
91	0xbdc54258	-0.09631795
92	0xbed99836	-0.4249894
93	0x3d7d04ff	0.061772343
94	0x3e262d9d	0.16228338
95	0x3f3da82d	0.7408474
96	0x3c90a29a	0.01765566
97	0x352a5d8a	6.346605e-07
98	0xbe0b22fc	-0.13587564
99	0xbf33b2f0	-0.7019491
100	0xbdea99ca	-0.11455114
101	0xbe2c5ddf	-0.16832684
102	0x3bea6d5a	0.007154149
103	0xbc11a6d2	-0.008889871
104	0x3ef2768a	0.47356063
105	0x33af0c99	8.151364e-08
106	0x3447a9f6	1.859515e-07
107	0xbeb80683	-0.35942468
108	0xbf3c1d0e	-0.73481834
109	0xbebd5db8	-0.36985564
110	0xb3872e35	-6.2948324e-08
111	0x3f3c9995	0.7367185
112	0xbde19c83	-0.1101618
113	0x34da0848	4.061169e-07
114	0xb350496e	-4.8495558e-08
115	0xbf44fbdc	-0.76946807
116	0xb54201e9	-7.227341e-07
117	0x349300d2	2.738148e-07
118	0x3d9cf3c7	0.07663684
119	0xbebf5c73	-0.3737522
120	0xbdfc9adb	-0.12334224
121	0xbe05ccda	-0.13066426
122	0xbf679ffb	-0.90478486
123	0xbe9366e8	-0.2878945
124	0xbf2be02f	-0.6713895
125	0x349c199d	2.90759e-07
126	0xbf0d767b	-0.5525891
127	0x3e67f89d	0.22653432
128	0x3c91735f	0.017755209
129	0x3edd4343	0.4321538
130	0x350c3799	5.223497e-07
131	0x3eaa13ee	0.3321833
132	0xbdd992d7	-0.106237106
133	0x3dc5f18e	0.096652135
134	0xbe988917	-0.2979209
135	0xbee92442	-0.45535475
136	0xbd1f3673	-0.038870286
137	0x34ab47ca	3.1903465e-07
138	0xbe9cabd4	-0.30599844
139	0x3ea37dd0	0.31931925
140	0x3e5b328e	0.21406004
141	0x3e8897fe	0.2667846
142	0xbda00eac	-0.078152984
143	0x3eccce88	0.4000132
144	0xbcd49634	-0.025950529
145	0xbececc5d	-0.40390292
146	0xbf6c8c62	-0.9240171
147	0x3ec65e0b	0.38743624
148	0x3d2573e9	0.040393744
149	0xbdb3284b	-0.0874792
150	0xbf03a4a0	-0.5142307
151	0xbeab8e56	-0.3350703
152	0x3e1a2099	0.15051498
153	0x3ee70df6	0.4512784
154	0xbd27baf2	-0.04094977
155	0x3d23080e	0.039802603
156	0xbd53c9f1	-0.05170626
157	0xb52bde07	-6.4025556e-07
158	0x3e173727	0.14767133
159	0x3dc100f6	0.094240114
160	0x3e03ec8d	0.12883206
161	0x3e14a58c	0.14516276
162	0x3e00eec0	0.12591076
163	0x3e9bc6ed	0.30425206
164	0x3ebedb1e	0.37276548
165	0xbdbf3c09	-0.09337623
166	0xbdc3e781	-0.0956564
167	0xbea1c444	-0.3159505
168	0xbe7d87c8	-0.24758828
169	0xbe8e05c2	-0.27738768
170	0xbea8ca7b	-0.3296698
171	0xbe84df65	-0.25951687
172	0xbd431fda	-0.047637798
173	0xbf733bf4	-0.95013356
174	0xbeb87a4a	-0.360308
175	0x3e15f13e	0.14642808
176	0x39bb9a45	0.0003578236
177	0xb533cfe8	-6.698524e-07
178	0xbea5f09f	-0.32410142
179	0x3ec7f237	0.39051983
180	0x3e69c55f	0.22829197
181	0x3e8f580a	0.27996856
182	0x3e0f9fa4	0.14025742
183	0x3d8df8ea	0.06932242
184	0x3eef611d	0.4675378
185	0x3f06a02f	0.5258817
186	0xbe23c887	-0.15994464
187	0x3df1af8f	0.11801063
188	0x3ca366ba	0.019946445
189	0xbc99fbec	-0.018796884
190	0x3ed5009e	0.41602033
191	0xbe8cbc28	-0.27487302
192	0x3dfd8dec	0.12380585
193	0x3ef891c2	0.48548704
194	0x3d7993a3	0.060931813
195	0xbd93700e	-0.07199107
196	0x3c288735	0.010286142
197	0x35518fc5	7.806778e-07
198	0x3df905d1	0.121593125
199	0x3e8a9eea	0.27074367

layers.2.bias f4 [10]
0	0x3f3e181d	0.74255544
1	0x3f2a2f6d	0.66478616
2	0x3f8e8dac	1.1136985
3	0xbe229291	-0.15876223
4	0x3e03b32f	0.12861322
5	0x3e18800f	0.148926
6	0x3e49d240	0.1970911
7	0x3e946cae	0.28989166
8	0x3e7fb617	0.24971806
9	0xbf20ac0b	-0.62762517

layers.4.weight f4 [5, 10]
0	0x3f1c8423	0.61139125
1	0xbee17da6	-0.44041175
2	0x3fa10670	1.258009
3	0x3ea1280a	0.3147586
4	0x3e0c2cd7	0.1368898
5	0x3f603406	0.8757938
6	0xbf8878ba	-1.0661843
7	0xbf2bf1ec	-0.6716602
8	0x3f7f9478	0.9983592
9	0xbf660f00	-0.8986664
10	0xbd7d0416	-0.061771475
11	0xbf58b527	-0.84651417
12	0xbf83c427	-1.0294236
13	0xbf1566ea	-0.5836016
14	0x3f05c05b	0.52246636
15	0xbcc02b1e	-0.02345806
16	0x3cfe46f0	0.031039685
17	0x3f734b47	0.9503674
18	0xbf350b0d	-0.7071999
19	0x3e01a7d0	0.12661672
20	0x3ebf8c35	0.37411657
21	0xbdd944a6	-0.10608797
22	0x3f7e7e1f	0.99411196
23	0xbeb28f1c	-0.3487481
24	0xbf7c932e	-0.9866208
25	0xbf1c0959	-0.60951763
26	0x3efe7b63	0.49703512
27	0xbe9b43d9	-0.303252
28	0xbe65e575	-0.22450812
29	0xbe5fc636	-0.21852955
30	0x3f6dbd77	0.92867225
31	0x3f428a48	0.7599225
32	0xbf86cf08	-1.0531931
33	0xbf48fbea	-0.7850939
34	0xbf080e8b	-0.5314719
35	0xbf5f0670	-0.871192
36	0x3e9dc1bc	0.3081187
37	0x3d611247	0.05494907
38	0x3eb296d2	0.34880692
39	0x3d84195c	0.064501494
40	0xbf6a11df	-0.9143352
41	0xbedc168e	-0.42985958
42	0x3ddbfceb	0.107416
43	0x3cf1412d	0.029450024
44	0xbf36e66c	-0.71445346
45	0x3e680b1d	0.2266049
46	0x3f399b9e	0.7250308
47	0x3f3882ea	0.7207476
48	0xbe9ec4fd	-0.31009665
49	0x3f19f4ea	0.60139334

layers.4.bias f4 [5]
0	0xbdfd435d	-0.12366364
1	0x3e483dd4	0.19554836
2	0xbeeec6c0	-0.4663601
3	0x3f28a503	0.6587679
4	0x3d65997f	0.05605459

layers.6.weight f4 [1, 5]
0	0xc016ba88	-2.355135
1	0xbff22e88	-1.892045
2	0x3fdc464a	1.720895
3	0x4004aac9	2.072924
4	0xbfd7ccbc	-1.6859355
