envs/models/F16/model/delta_Cy_r30.pth (torch, 4945 bytes, 7 tensors)

layers.0.weight f4 [20, 2]
000000 b5 16 ec 3e df 05 b8 3e 51 8b c7 be f8 b6 0c bf
       0.46111074 0.3594198 -0.38973477 -0.5496669
000010 0a 3f 91 3c 82 30 81 3d 23 f9 09 be 9e e7 1c 3f
       0.017730255 0.0630808 -0.13473944 0.6129092
000020 fa d7 0d bf df 7f 14 bf ba 53 36 3e b0 af b2 3e
       -0.5540768 -0.58007616 0.17805377 0.34899664
000030 2d 09 97 3e 36 77 44 3f 68 c1 4c be a7 26 39 3f
       0.29499188 0.767444 -0.19995654 0.72324604
000040 56 9d 7e be cf f1 0f 3f 7d 44 af 3f 58 6e 91 be
       -0.24864706 0.56228346 1.3692776 -0.28404498
000050 76 5a 76 bf 2b 92 0e bf 00 76 91 bf 13 ff 5a bd
       -0.9623178 -0.55691785 -1.1364136 -0.053465914
000060 6d 45 40 bf b7 59 31 bd ac be 41 3f 9e 71 9c 3e
       -0.75105935 -0.04329845 0.7568157 0.30555433
000070 41 c1 f1 3f 63 44 38 be c4 ff 0b be 9f 9c ed 3e
       1.8887101 -0.17994837 -0.13671786 0.46408555
000080 bf 95 68 3f 46 c2 ca 3d d5 6e 08 3f 65 d0 12 3f
       0.90853494 0.09900336 0.53294116 0.57349235
000090 07 f2 b9 bb 4b ed c6 be fa 3e 5e bf da a2 a7 ba
       -0.005674604 -0.38852915 -0.86814845 -0.0012789622

layers.0.bias f4 [20]
000000 f7 45 b8 be 10 11 5d bf ee 9e b8 3d 2d 46 0f 3f
       -0.3599088 -0.8635416 0.090146884 0.55966455
000010 7c 9b 7b be fc fd fe be 72 e7 22 bf 66 29 91 3e
       -0.24571031 -0.4980315 -0.6363441 0.28351897
000020 03 d9 44 bf bd cd bd be 24 66 d5 be d3 cf 81 be
       -0.76893634 -0.37071028 -0.4167949 -0.2535387
000030 44 37 6b bd c7 f3 3e 3e 7c 14 63 be 6a bc 1d 3f
       -0.057425752 0.18647681 -0.22175783 0.6161562
000040 e6 1e b6 be 22 b8 ab bd 43 69 d8 3d c3 8d 04 3e
       -0.3557045 -0.0838473 0.10566952 0.12944703

layers.2.weight f4 [10, 20]
000000 75 c5 3f 3e 8e b5 47 bf 84 83 3e bd 5a 41 df 3d
       0.18727668 -0.78011405 -0.04651214 0.10901137
000010 10 6f a2 bd 07 ab e6 3d 80 a5 89 3c b9 2e 3a bc
       -0.0793134 0.112630896 0.01680255 -0.011363679
000020 c8 e8 9a 3e a7 a5 1d be 04 d3 0e be fc 74 65 3e
       0.30255723 -0.15395223 -0.13947684 0.22407907
000030 ae 4a 12 3d 29 9a 29 bf 73 be 9f bd 22 f9 9a 3e
       0.03571575 -0.66250855 -0.07799997 0.30268198
000040 42 06 62 3e 1a 1a 92 3d 45 ec 88 be d4 d7 3e 3e
       0.220727 0.07133885 -0.2674276 0.1863702
000050 5b 94 50 bd 5c 7e 3a bb 86 69 ce 3a f1 40 50 bd
       -0.050922733 -0.0028456664 0.0015748001 -0.050843183
000060 83 b8 17 3c 83 1a 2a 35 f0 4b 95 b4 a6 40 10 b5
       0.0092603 6.3368515e-07 -2.7808665e-07 -5.3738256e-07
000070 a4 34 31 35 02 54 fd 3c 5a 5e 02 be b6 c5 33 b5
       6.601424e-07 0.030923847 -0.12731305 -6.6970404e-07
000080 d0 5a c3 ba a5 61 74 bd 9a 3b 83 3d c2 57 02 be
       -0.0014904384 -0.059663434 0.064078525 -0.1272879
000090 6f 12 c1 39 7e 55 26 be f2 cf 9b 3c 71 1b 94 bd
       0.00036825563 -0.1624355 0.019020054 -0.072317965
0000a0 19 a6 e6 be 42 16 ca bd e2 95 a2 bc 47 eb 73 bb
       -0.45048597 -0.098675266 -0.01984686 -0.0037219094
0000b0 aa 03 61 be 55 60 d5 be da 1e df bd 91 fc fa ba
       -0.21974054 -0.41675058 -0.10894556 -0.0019148757
0000c0 88 07 9b be db 27 09 3f 1c 65 ee bc 2e e9 38 be
       -0.30279183 0.5357644 -0.029100947 -0.18057701
0000d0 f3 48 a4 bd b4 99 81 3d c5 4b 52 3e 86 ec 13 3f
       -0.080217265 0.06328145 0.20536716 0.5778278
0000e0 55 55 2e bf 92 1e 1a 3f bc e4 a1 3e 77 7d 31 bf
       -0.68098956 0.60202897 0.31619823 -0.6933207
0000f0 3c 4d df bd 6e 72 51 bd 3f 29 4f 3c fd 2d 6c bd
       -0.10903403 -0.05113452 0.012644111 -0.057661045
000100 5e d9 89 bd f9 17 85 3d d1 d9 62 be 42 fc 67 3e
       -0.067309126 0.06498713 -0.22153403 0.22654822
000110 b5 71 d9 3e 59 f3 41 bf f6 87 8f 3e 66 e7 86 3e
       0.42469564 -0.75761944 0.28033417 0.26348418
000120 eb 9c df be b1 71 83 3e 87 51 73 bf 26 ca 61 3e
       -0.43674406 0.25672677 -0.95046276 0.2204977
000130 23 ed a6 3b 4d c1 8d be c1 b8 5a 3d 39 2e 21 bc
       0.005094187 -0.2768654 0.05339885 -0.0098376805
000140 51 2c f2 bd 55 17 1d bc 05 ba 1c 3b 25 8a ba 3e
       -0.11824859 -0.009588082 0.0023914587 0.3643352
000150 9b d5 f4 be 85 6f 85 bd 99 7b 8b bb 28 5c 9b bc
       -0.47819218 -0.06515411 -0.0042566773 -0.018964842
000160 f9 4d ab bd ee 13 6a 3f 90 6e 4a bf af 35 02 3e
       -0.083644815 0.9143666 -0.79074955 0.12715791
000170 7c fc c9 3e 85 6a 38 3e 2c e2 ba 3f 48 8f a5 3e
       0.39450443 0.18009384 1.4600272 0.32335877
000180 fe 26 48 be d3 bc 08 bb 80 0f 95 bc fd d3 b0 3e
       -0.19546124 -0.00208645 -0.018195868 0.34536734
000190 50 4a 57 be 17 26 00 bf a7 c0 15 3d 1f 80 1e be
       -0.21024442 -0.5005812 0.03656068 -0.15478562
0001a0 bb ff 9c 3e 81 b2 88 bd 97 5f e1 3e 62 1e 5e 3e
       0.30663857 -0.06674672 0.44018242 0.21691278
0001b0 25 fc c1 be 38 fa 45 be a7 50 24 3e 8b 2c fb be
       -0.37887684 -0.19333732 0.16046391 -0.4905742
0001c0 91 42 b3 be d4 c8 6c 3e 08 2c 01 be 86 ad 1b bd
       -0.35011724 0.23123485 -0.12614453 -0.03800728
0001d0 42 95 81 be d5 6e 91 be f2 c9 25 3e c7 65 f8 be
       -0.25309187 -0.2840487 0.16190317 -0.4851515
0001e0 aa 1d 87 3e 42 97 e2 bd cb 60 d9 3c 09 fc bc 3e
       0.2638982 -0.110640064 0.026535412 0.36911038
0001f0 0c c2 d3 3e 83 38 67 3e 5a 4a 38 bf 94 6a c8 3e
       0.41358984 0.22580151 -0.7198845 0.39143813
000200 0d a8 33 3e b9 1e 19 3d db c0 3d be fe 02 63 bf
       0.17544575 0.037382815 -0.185306 -0.8867644
000210 e0 cf c4 3d 88 1a 39 be 52 6c a5 3e 75 a4 c0 be
       0.096099615 -0.18076527 0.32309204 -0.3762547
000220 96 cd ed 3e 67 ab ee bd a7 37 f4 bd 0d 58 aa bd
       0.46445912 -0.11653786 -0.11924677 -0.083175756
000230 19 c1 11 3e 46 2c 89 b4 50 bb ed bc 41 86 97 3d
       0.14233817 -2.5550452e-07 -0.029019982 0.07398654
000240 65 19 09 39 71 96 ac 3e d0 e5 84 3e d7 58 56 be
       0.00013074798 0.33708528 0.25956583 -0.20932327
000250 27 a1 9c ba 76 8a 10 3e 07 4f 15 b4 51 5d c8 b3
       -0.0011949883 0.14115319 -1.3905456e-07 -9.3302e-08
000260 8c 0a 23 34 33 0d 97 bd 77 35 1a 3d 55 3e 54 3d
       1.5184395e-07 -0.073755644 0.037648644 0.051817257
000270 99 b3 cb 3d 89 f7 f6 3d 19 e5 64 3d 4a 83 42 b5
       0.09946365 0.12058932 0.055882547 -7.246168e-07
000280 39 59 25 3e ac 20 df 3e b4 84 b8 3d 19 df 32 3f
       0.16147317 0.43579614 0.09009686 0.6987167
000290 03 1c bb 3e dc 34 77 3b b7 cb e5 be 03 fc 2e bf
       0.3654481 0.0037720716 -0.44881985 -0.6835329
0002a0 c0 ca 10 bf 89 4a 95 3e 9d fa 27 bf 8e d0 ff 3e
       -0.5655937 0.29158428 -0.6561678 0.49963802
0002b0 b2 92 87 3e 24 28 ac 3e 0f d0 b9 3e 15 ae ed bd
       0.26479107 0.33624375 0.3629155 -0.11605469
0002c0 38 4c 9e 3c 07 5e 4d 3e 24 72 10 3d 65 e2 15 bd
       0.019323453 0.200554 0.035265103 -0.03659286
0002d0 15 e6 ca b4 93 b3 d7 34 7a 27 b7 b4 62 02 aa b4
       -3.779284e-07 4.0177528e-07 -3.411513e-07 -3.16667e-07
0002e0 63 a1 48 b5 a9 93 95 b4 15 0b 18 35 4b db 4c b4
       -7.4740655e-07 -2.786085e-07 5.664054e-07 -1.9078759e-07
0002f0 c1 e3 8f b4 27 7b 18 b4 7b 92 27 35 b4 f6 06 b5
       -2.6801538e-07 -1.4200906e-07 6.2425505e-07 -5.027789e-07
000300 64 c8 4c b5 fd 82 2e 35 ce 53 c8 b4 59 7c c0 34
       -7.628753e-07 6.5010664e-07 -3.731388e-07 3.5853262e-07
000310 d4 e7 98 b4 3c f6 59 b5 fd 53 2d b5 94 53 7b b4
       -2.8480883e-07 -8.119712e-07 -6.456974e-07 -2.3406602e-07

layers.2.bias f4 [10]
000000 42 7f e3 3e 3a 31 22 3d dd e0 32 bd 9a e6 f4 3e
       0.44433028 0.039597727 -0.043671478 0.47832185
000010 4d b4 6d be 38 7c 1e 3f 56 97 3a 3e 6a 3c d6 be
       -0.2321331 0.6190829 0.18221793 -0.41842967
000020 51 c2 8d bc 8a 51 33 b4
       -0.017304571 -1.6700338e-07

layers.4.weight f4 [5, 10]
000000 b4 b6 9a be 9c be 8c 3d 32 7b 2e 3e 9e f2 78 be
       -0.30217516 0.06872293 0.17039183 -0.24311301
000010 94 35 00 3f 4f e0 58 3d 07 36 c4 3e 18 7f 8c 3e
       0.50081754 0.052948292 0.3832247 0.27440715
000020 9c eb 86 3e e2 6b 95 33 a5 a9 32 bf 98 89 20 bd
       0.2635163 6.957977e-08 -0.69790107 -0.03919372
000030 39 d9 25 3f 03 14 ed 3e 8a a1 0f 3f d6 01 52 bf
       0.6478458 0.4630433 0.56105864 -0.8203405
000040 b1 9a d1 bd 01 6f fd be 23 24 a8 be 12 c3 d2 34
       -0.10234583 -0.49498752 -0.3284007 3.925748e-07
000050 28 8f 1e bf 2d aa 4d be c3 e9 8a 3f b9 4d 3e bf
       -0.6193719 -0.20084448 1.0852588 -0.74337345
000060 0c a4 27 be 9c ea 08 3f 6b e0 63 bf 7a 3a 9c be
       -0.16371173 0.53482985 -0.8901431 -0.30513364
000070 80 8f 15 3e 8d d9 40 34 31 99 1c 3f bc a6 fd bd
       0.14605522 1.7960538e-07 0.6117125 -0.12385318
000080 c0 2b 31 bf 4a dd 11 3f eb 36 8e be 42 d6 3e 3f
       -0.6920738 0.56978285 -0.27776274 0.7454568
000090 b9 63 47 bf 24 2a 1d 33 df 37 bb bf 3e b1 8c 35
       -0.7788654 3.6592738e-08 -1.4626426 1.0482397e-06
0000a0 ae 9d 50 3e 3f f8 00 3e 84 e7 92 3e 1c d4 88 bf
       0.2037265 0.12594698 0.28692257 -1.0689731
0000b0 f3 d5 02 c0 f4 f5 2b 3f ae 16 56 3f 79 93 16 b5
       -2.0443084 0.6717217 0.83628356 -5.6093955e-07
0000c0 88 9a 54 bc 28 9f 77 34
       -0.012976296 2.3061568e-07

layers.4.bias f4 [5]
000000 14 52 1b be 2f 9e 28 3d 91 f0 da 3d b4 18 b7 3d
       -0.15168029 0.04116648 0.10690416 0.089402586
000010 33 2f 13 3f
       0.57493895

layers.6.weight f4 [1, 5]
000000 30 4b 54 3f 90 48 b6 bf 53 e0 e0 bf d6 3e 04 40
       0.8292723 -1.4240894 -1.7568458 2.0663352
000010 b6 00 27 c0
       -2.6094184
