envs/models/F16/model/delta_Cn_a20.pth (torch, 4807 bytes, 7 tensors)

layers.0.weight f4 [20, 2]
0	0x3ebd3c4d	0.36960068
1	0x3ec8348f	0.391026
2	0xbe772220	-0.24134111
3	0x3f0a0310	0.53910923
4	0xbcf5e79a	-0.030017663
5	0xbef10979	-0.4707754
6	0xbf273215	-0.65310794
7	0xbeb79761	-0.3585768
8	0x3f4cfbf4	0.8007195
9	0xbede3d09	-0.4340594
10	0x3edd1e0e	0.43186992
11	0xbeb224ae	-0.3479361
12	0x3ed87a81	0.42280963
13	0xbe86584e	-0.26239246
14	0xbeba862b	-0.36430487
15	0xbea8824d	-0.32911912
16	0xbeed16f8	-0.46306586
17	0x3dd2f140	0.10299921
18	0xbf3f2bf3	-0.74676436
19	0xbe066ea1	-0.13128139
20	0x3ef9c7a7	0.48785135
21	0x3d949e49	0.07256753
22	0x3f32b887	0.69812816
23	0x3ec01fe0	0.3752432
24	0xbd700f3d	-0.058608282
25	0x3f0f0b16	0.5587629
26	0x3af8bd7e	0.0018977372
27	0xbe922473	-0.28543434
28	0x3f04fcb3	0.5194809
29	0xbefac65a	-0.48979455
30	0x3f3f06b0	0.7461958
31	0xbf435509	-0.7630163
32	0x3f15621f	0.58352846
33	0x3f37421e	0.7158526
34	0x3f826f73	1.0190262
35	0x3db1940e	0.08670817
36	0xbe38798e	-0.1801512
37	0xbc49fb21	-0.01232794
38	0xbf4f9016	-0.8107923
39	0xbebc96fe	-0.36833948

layers.0.bias f4 [20]
0	0xbf1ab0e7	-0.6042618
1	0xbf57c553	-0.8428547
2	0xbf040a2e	-0.5157803
3	0xbec63da6	-0.3871891
4	0x3f346bac	0.70476794
5	0x3d9b709d	0.07589839
6	0xbed6c3cd	-0.4194626
7	0xbed05c04	-0.40695202
8	0x3d4ca32e	0.049960308
9	0xbf9f9247	-1.2466515
10	0x3e6ca98c	0.23111552
11	0xbf0832f2	-0.53202736
12	0x3eabc729	0.33550385
13	0x3eae0e79	0.33995417
14	0xbdc934d0	-0.09824526
15	0xbef9b1aa	-0.4876836
16	0xbefdaf6b	-0.49547896
17	0xbe94d5cc	-0.29069364
18	0xbd91f089	-0.071259566
19	0x3cf6d176	0.030129176

layers.2.weight f4 [10, 20]
0	0x38104640	3.43977e-05
1	0xbdebbac0	-0.11510229
2	0x353025d6	6.562017e-07
3	0xbe0c38a0	-0.13693476
4	0x385a5109	5.205072e-05
5	0x34a144eb	3.003873e-07
6	0x35262db3	6.190632e-07
7	0x35460028	7.3760975e-07
8	0x3cb6ea3a	0.022328485
9	0xb51ab9e3	-5.763997e-07
10	0xb9216a57	-0.00015393771
11	0x388ef961	6.817538e-05
12	0x3cc6a5b4	0.024248935
13	0xbd5c84f5	-0.053837735
14	0x3348d88a	4.676307e-08
15	0xb4c5a094	-3.6810945e-07
16	0xba8cd542	-0.0010744708
17	0x389dab77	7.518281e-05
18	0x3c95fe93	0.018309867
19	0x3d2177a8	0.039420754
20	0xb37959c8	-5.8056486e-08
21	0x3df67157	0.120333366
22	0x3ee8021f	0.45314118
23	0x3ebcc42b	0.36868414
24	0xbf3a5edc	-0.72800994
25	0xbe78de64	-0.24303585
26	0x343793cc	1.7096971e-07
27	0xbe5cb670	-0.2155397
28	0xbda44144	-0.08020261
29	0xbf81b426	-1.0133102
30	0xb4a5b5b6	-3.0865857e-07
31	0x34d01d5d	3.8764384e-07
32	0x3e81bd14	0.25339568
33	0x3e0fb95e	0.14035556
34	0xbe18a4e1	-0.14906646
35	0xb5b2166c	-1.3268559e-06
36	0xb49d7669	-2.9329684e-07
37	0x353a3174	6.9362363e-07
38	0x3cfb335c	0.030664138
39	0x3e603809	0.21896376
40	0xbe4a6a8a	-0.19767204
41	0x3c36fb19	0.011168265
42	0xbdd080c6	-0.101808116
43	0x3dc6d785	0.09709076
44	0x3e760983	0.24027066
45	0x3c899f0a	0.016799469
46	0x3e6e5ed8	0.23278368
47	0x3dbffb04	0.09374049
48	0xbb0f6aee	-0.0021883803
49	0xb500d9bf	-4.800058e-07
50	0x3e55cf24	0.20879799
51	0x3ed6f165	0.41981044
52	0xbe61f903	-0.22067647
53	0xbe2775bc	-0.16353506
54	0xbcf06a93	-0.029347694
55	0x3e6f3d43	0.23363213
56	0x3cf51963	0.029919332
57	0x3ea9dd09	0.3317645
58	0xb4ccd2c2	-3.8151308e-07
59	0xbecf96bd	-0.40544692
60	0xb54bd8b4	-7.593874e-07
61	0x3c7ee569	0.015557625
62	0xbdbad28c	-0.0912219
63	0xbeb8b72a	-0.36077243
64	0x3e83fcad	0.25778714
65	0xbda85e3f	-0.08221101
66	0xbe29d0e7	-0.16583596
67	0xbeec1acc	-0.46114194
68	0x3ee8e20a	0.45484954
69	0x3e91969e	0.28435224
70	0xbde6dbcf	-0.11272394
71	0xbec334b9	-0.38126162
72	0x3d28d65a	0.041220047
73	0x3dbb18c3	0.09135582
74	0xbf0d43ff	-0.5518188
75	0x3e4d4064	0.20044094
76	0xbf1f6d43	-0.62276095
77	0x3e2edda7	0.17076741
78	0x3ca42d3b	0.020041099
79	0x3d1f02b2	0.03882093
80	0xbe35843f	-0.17726229
81	0x3e718712	0.23586681
82	0xbe6250cd	-0.22101136
83	0xb95a199e	-0.00020799643
84	0x3e838628	0.2568829
85	0x3e0b061b	0.13576548
86	0xbcedf59f	-0.029047785
87	0xbe131a04	-0.14365393
88	0x3e1c6a19	0.15274848
89	0x3f1d89cf	0.61538404
90	0xbe7d7b68	-0.24754107
91	0x3e86671a	0.26250535
92	0x3f1844bc	0.5947988
93	0x3db64ca7	0.08901339
94	0xbe1a089f	-0.15042351
95	0xbf101b64	-0.56291795
96	0xbd11fdb1	-0.03564233
97	0xbea043d0	-0.31301737
98	0x3d737c90	0.059444964
99	0xbcbfa668	-0.023394778
100	0x3e622cbe	0.2208738
101	0x3ef50a35	0.4785935
102	0x344b47c6	1.8931959e-07
103	0x3ddbbcee	0.10729395
104	0xbe979636	-0.2960679
105	0xbe55e750	-0.2088902
106	0xbd74cda0	-0.05976641
107	0xb47ed8e0	-2.3734492e-07
108	0xbe2617cd	-0.16220017
109	0xb54247e1	-7.237523e-07
110	0x3eabb3f7	0.3353574
111	0xbba62fa0	-0.0050715953
112	0x3ea73f39	0.32665423
113	0xbe874b0d	-0.26424447
114	0xbe620800	-0.22073364
115	0xbf282626	-0.6568321
116	0x3e2121b4	0.15735513
117	0x3ef6745e	0.48135656
118	0xbd574e0d	-0.05256467
119	0xbf0a8143	-0.5410349
120	0x3ee48c22	0.44638163
121	0x3caa9291	0.020821841
122	0x32fd8d56	2.9517349e-08
123	0x3516f85f	5.624078e-07
124	0xbee1914d	-0.44056168
125	0xbcdda5fb	-0.027056685
126	0x37f73606	2.9469851e-05
127	0xb528aea4	-6.283901e-07
128	0xbc9c0a5b	-0.019047907
129	0x3425a5e6	1.5427176e-07
130	0xbd261491	-0.040546957
131	0x3e9a6f2c	0.30162942
132	0x3d849022	0.06472804
133	0x3b0c4e52	0.0021408987
134	0xbdc1e0f0	-0.094667315
135	0x39710de0	0.0002298872
136	0x3ed33ace	0.41255802
137	0x3d9aa127	0.075502686
138	0xb3031778	-3.052216e-08
139	0xb4a79612	-3.1215365e-07
140	0x3e4ce418	0.20008886
141	0xbe480a05	-0.19535072
142	0xbacc78ad	-0.0015599929
143	0xbbc83d4c	-0.006110823
144	0xbe861ac2	-0.2619229
145	0xbede448e	-0.43411678
146	0x35387045	6.8708715e-07
147	0x3e0dce60	0.13848257
148	0xbe3e1557	-0.18562828
149	0xbef5f66d	-0.4803957
150	0x3dec9f8c	0.11553869
151	0xbe26f9f0	-0.16306281
152	0x3d863c42	0.06554462
153	0xbc32475d	-0.010881272
154	0xbe704938	-0.2346543
155	0xb574bc40	-9.1171023e-07
156	0x3e44eaf2	0.1923025
157	0xbdfed275	-0.12442485
158	0xbda52efd	-0.08065603
159	0xbdbb4715	-0.09144417
160	0x3e8f7d4d	0.28025284
161	0xbf395e14	-0.72409177
162	0x3ea09827	0.31366083
163	0xbf009c5d	-0.5023859
164	0x3f47565f	0.77866167
165	0xbd7aa7cc	-0.06119518
166	0xbe52faf5	-0.20603545
167	0xbe87f413	-0.265534
168	0x3e202fd3	0.15643243
169	0x35266db8	6.199948e-07
170	0xbeb2f576	-0.34952897
171	0xbe0c60a2	-0.13708737
172	0x3e8a402e	0.2700209
173	0xbe93e933	-0.28888854
174	0x3e8c11a9	0.27357224
175	0x3ed43e7a	0.41453916
176	0xbf115beb	-0.5678088
177	0x3e2f1a56	0.1709989
178	0xbe161081	-0.14654733
179	0xbec339c7	-0.38130018
180	0xbec9525d	-0.3932065
181	0xbe8aabcf	-0.27084205
182	0xbe3ab4ea	-0.18233076
183	0x3eaf76e9	0.3427041
184	0x3cffc314	0.03122095
185	0x3dd9c971	0.10634125
186	0x3ee08714	0.43853056
187	0x3e127351	0.14301802
188	0x3c938fcb	0.018012902
189	0x353290c9	6.652086e-07
190	0x3c0f6c76	0.008753886
191	0x3efc724d	0.49305955
192	0xbea3b7ee	-0.31976265
193	0xbe519e42	-0.20470527
194	0x3e4529cb	0.19254224
195	0x3f1c464b	0.6104476
196	0x3ec2e3e7	0.380645
197	0xbf3f4b1c	-0.7472398
198	0xbccc19bd	-0.024914617
199	0xbf2a4733	-0.6651489

layers.2.bias f4 [10]
0	0xbd28459d	-0.041082013
1	0xbee5eeaf	-0.44908664
2	0xbe4051cd	-0.18781205
3	0x3c0590e3	0.0081522195
4	0x3da256a4	0.07926682
5	0x3a849351	0.0010114704
6	0xbecf5df5	-0.4050137
7	0x3ec464e7	0.38358232
8	0x3d2da645	0.042394895
9	0x3e22526f	0.15851758

layers.4.weight f4 [5, 10]
0	0x3e0e6ece	0.13909456
1	0x3f71aee0	0.94407463
2	0xbf470063	-0.77734965
3	0x3f6c75b4	0.923671
4	0xbf42df31	-0.76121813
5	0x3f25225a	0.6450554
6	0xbf170ba8	-0.5900216
7	0x3f1e38f5	0.6180566
8	0x3f2e5021	0.68091017
9	0xbfb3a89c	-1.403583
10	0xbdd304f2	-0.103036776
11	0xbf2fc4ef	-0.6865987
12	0xbe433608	-0.1906358
13	0xbe1f1af1	-0.15537621
14	0x3ef5b030	0.47985983
15	0xbf7b9001	-0.9826661
16	0x3ee5d433	0.44888458
17	0xbb674e54	-0.003529449
18	0xbf1426db	-0.5787179
19	0x3dc5d3fc	0.096595734
20	0x354f2b4f	7.717653e-07
21	0x3ea1876d	0.31548634
22	0x3e624692	0.22097233
23	0xbcfc6500	-0.03080988
24	0xbee763bc	-0.4519328
25	0x3e28d8d5	0.16488965
26	0xbed99dae	-0.42503113
27	0x3f10a225	0.5649741
28	0xbe252f2c	-0.16131276
29	0xbd8567c7	-0.065139346
30	0xbd9ae825	-0.07563809
31	0xbf156515	-0.58357364
32	0xbdacf113	-0.08444419
33	0xbf0291f2	-0.51003945
34	0xbd36fe5c	-0.04467617
35	0xbd9ee666	-0.07758789
36	0x3e676751	0.22598006
37	0xbdbba5c6	-0.09162478
38	0xbf92ea4f	-1.1477755
39	0x3e83bdac	0.25730646
40	0x35260bec	6.185717e-07
41	0x3581874d	9.650627e-07
42	0xb5181d27	-5.6666835e-07
43	0xb55b66ba	-8.1733344e-07
44	0xb595eb88	-1.1169914e-06
45	0xb50aa56d	-5.164973e-07
46	0x34b533fe	3.3751706e-07
47	0xb4f2578c	-4.513971e-07
48	0xb58ec607	-1.0637458e-06
49	0x3563646d	8.471023e-07

layers.4.bias f4 [5]
0	0x3e30ba78	0.17258632
1	0x3f773383	0.96562976
2	0x3cf34dbf	0.029700158
3	0x3ee507a1	0.44732383
4	0xb53ebe3b	-7.105734e-07

layers.6.weight f4 [1, 5]
0	0x401d2b08	2.4557514
1	0xbfde27af	-1.735586
2	0x3f70fd0e	0.9413613
3	0xbfbcf207	-1.4761361
4	0xb2aed847	-2.0354618e-08
